…
I0522 15:29:58.327805  7874 net.cpp:313] The NetState phase (0) differed from the phase (1) specified by a rule in layer loss3/top-5
I0522 15:29:58.328775  7874 net.cpp:49] Initializing net from parameters: 
name: "GoogleNet"
state {
  phase: TRAIN
}
layer {
  name: "data"
  type: "Data"
  top: "data"
  top: "label"
  include {
    phase: TRAIN
  }
  transform_param {
    mirror: true
    crop_size: 227
    mean_file: "/home/iis/Downloads/caffe-master/data/food_100/food100_mean.binaryproto"
  }
  data_param {
    source: "/home/iis/Downloads/caffe-master/examples/food_100/food100_train_lmdb"
    batch_size: 32
    backend: LMDB
  }
}
layer {
  name: "conv1/7x7_s2"
  type: "Convolution"
  bottom: "data"
  top: "conv1/7x7_s2"
  param {
    lr_mult: 1
    decay_mult: 1
  }
  param {
    lr_mult: 2
    decay_mult: 0
  }
  convolution_param {
    num_output: 64
    pad: 3
    kernel_size: 7
    stride: 2
    weight_filler {
      type: "xavier"
    }
    bias_filler {
      type: "constant"
      value: 0.2
    }
  }
}
layer {
  name: "conv1/relu_7x7"
  type: "ReLU"
  bottom: "conv1/7x7_s2"
  top: "conv1/7x7_s2"
}
layer {
  name: "pool1/3x3_s2"
  type: "Pooling"
  bottom: "conv1/7x7_s2"
  top: "pool1/3x3_s2"
  pooling_param {
    pool: MAX
    kernel_size: 3
    stride: 2
  }
}
layer {
  name: "pool1/norm1"
  type: "LRN"
  bottom: "pool1/3x3_s2"
  top: "pool1/norm1"
  lrn_param {
    local_size: 5
    alpha: 0.0001
    beta: 0.75
  }
}
layer {
  name: "conv2/3x3_reduce"
  type: "Convolution"
  bottom: "pool1/norm1"
  top: "conv2/3x3_reduce"
  param {
    lr_mult: 1
    decay_mult: 1
  }
  param {
    lr_mult: 2
    decay_mult: 0
  }
  convolution_param {
    num_output: 64
    kernel_size: 1
    weight_filler {
      type: "xavier"
    }
    bias_filler {
      type: "constant"
      value: 0.2
    }
  }
}
layer {
  name: "conv2/relu_3x3_reduce"
  type: "ReLU"
  bottom: "conv2/3x3_reduce"
  top: "conv2/3x3_reduce"
}
layer {
  name: "conv2/3x3"
  type: "Convolution"
  bottom: "conv2/3x3_reduce"
  top: "conv2/3x3"
  param {
    lr_mult: 1
    decay_mult: 1
  }
  param {
    lr_mult: 2
    decay_mult: 0
  }
  convolution_param {
    num_output: 192
    pad: 1
    kernel_size: 3
    weight_filler {
      type: "xavier"
    }
    bias_filler {
      type: "constant"
      value: 0.2
    }
  }
}
layer {
  name: "conv2/relu_3x3"
  type: "ReLU"
  bottom: "conv2/3x3"
  top: "conv2/3x3"
}
layer {
  name: "conv2/norm2"
  type: "LRN"
  bottom: "conv2/3x3"
  top: "conv2/norm2"
  lrn_param {
    local_size: 5
    alpha: 0.0001
    beta: 0.75
  }
}
layer {
  name: "pool2/3x3_s2"
  type: "Pooling"
  bottom: "conv2/norm2"
  top: "pool2/3x3_s2"
  pooling_param {
    pool: MAX
    kernel_size: 3
    stride: 2
  }
}
layer {
  name: "inception_3a/1x1"
  type: "Convolution"
  bottom: "pool2/3x3_s2"
  top: "inception_3a/1x1"
  param {
    lr_mult: 1
    decay_mult: 1
  }
  param {
    lr_mult: 2
    decay_mult: 0
  }
  convolution_param {
    num_output: 64
    kernel_size: 1
    weight_filler {
      type: "xavier"
    }
    bias_filler {
      type: "constant"
      value: 0.2
    }
  }
}
layer {
  name: "inception_3a/relu_1x1"
  type: "ReLU"
  bottom: "inception_3a/1x1"
  top: "inception_3a/1x1"
}
layer {
  name: "inception_3a/3x3_reduce"
  type: "Convolution"
  bottom: "pool2/3x3_s2"
  top: "inception_3a/3x3_reduce"
  param {
    lr_mult: 1
    decay_mult: 1
  }
  param {
    lr_mult: 2
    decay_mult: 0
  }
  convolution_param {
    num_output: 96
    kernel_size: 1
    weight_filler {
      type: "xavier"
    }
    bias_filler {
      type: "constant"
      value: 0.2
    }
  }
}
layer {
  name: "inception_3a/relu_3x3_reduce"
  type: "ReLU"
  bottom: "inception_3a/3x3_reduce"
  top: "inception_3a/3x3_reduce"
}
layer {
  name: "inception_3a/3x3"
  type: "Convolution"
  bottom: "inception_3a/3x3_reduce"
  top: "inception_3a/3x3"
  param {
    lr_mult: 1
    decay_mult: 1
  }
  param {
    lr_mult: 2
    decay_mult: 0
  }
  convolution_param {
    num_output: 128
    pad: 1
    kernel_size: 3
    weight_filler {
      type: "xavier"
    }
    bias_filler {
      type: "constant"
      value: 0.2
    }
  }
}
layer {
  name: "inception_3a/relu_3x3"
  type: "ReLU"
  bottom: "inception_3a/3x3"
  top: "inception_3a/3x3"
}
layer {
  name: "inception_3a/5x5_reduce"
  type: "Convolution"
  bottom: "pool2/3x3_s2"
  top: "inception_3a/5x5_reduce"
  param {
    lr_mult: 1
    decay_mult: 1
  }
  param {
    lr_mult: 2
    decay_mult: 0
  }
  convolution_param {
    num_output: 16
    kernel_size: 1
    weight_filler {
      type: "xavier"
    }
    bias_filler {
      type: "constant"
      value: 0.2
    }
  }
}
layer {
  name: "inception_3a/relu_5x5_reduce"
  type: "ReLU"
  bottom: "inception_3a/5x5_reduce"
  top: "inception_3a/5x5_reduce"
}
layer {
  name: "inception_3a/5x5"
  type: "Convolution"
  bottom: "inception_3a/5x5_reduce"
  top: "inception_3a/5x5"
  param {
    lr_mult: 1
    decay_mult: 1
  }
  param {
    lr_mult: 2
    decay_mult: 0
  }
  convolution_param {
    num_output: 32
    pad: 2
    kernel_size: 5
    weight_filler {
      type: "xavier"
    }
    bias_filler {
      type: "constant"
      value: 0.2
    }
  }
}
layer {
  name: "inception_3a/relu_5x5"
  type: "ReLU"
  bottom: "inception_3a/5x5"
  top: "inception_3a/5x5"
}
layer {
  name: "inception_3a/pool"
  type: "Pooling"
  bottom: "pool2/3x3_s2"
  top: "inception_3a/pool"
  pooling_param {
    pool: MAX
    kernel_size: 3
    stride: 1
    pad: 1
  }
}
layer {
  name: "inception_3a/pool_proj"
  type: "Convolution"
  bottom: "inception_3a/pool"
  top: "inception_3a/pool_proj"
  param {
    lr_mult: 1
    decay_mult: 1
  }
  param {
    lr_mult: 2
    decay_mult: 0
  }
  convolution_param {
    num_output: 32
    kernel_size: 1
    weight_filler {
      type: "xavier"
    }
    bias_filler {
      type: "constant"
      value: 0.2
    }
  }
}
layer {
  name: "inception_3a/relu_pool_proj"
  type: "ReLU"
  bottom: "inception_3a/pool_proj"
  top: "inception_3a/pool_proj"
}
layer {
  name: "inception_3a/output"
  type: "Concat"
  bottom: "inception_3a/1x1"
  bottom: "inception_3a/3x3"
  bottom: "inception_3a/5x5"
  bottom: "inception_3a/pool_proj"
  top: "inception_3a/output"
}
layer {
  name: "inception_3b/1x1"
  type: "Convolution"
  bottom: "inception_3a/output"
  top: "inception_3b/1x1"
  param {
    lr_mult: 1
    decay_mult: 1
  }
  param {
    lr_mult: 2
    decay_mult: 0
  }
  convolution_param {
    num_output: 128
    kernel_size: 1
    weight_filler {
      type: "xavier"
    }
    bias_filler {
      type: "constant"
      value: 0.2
    }
  }
}
layer {
  name: "inception_3b/relu_1x1"
  type: "ReLU"
  bottom: "inception_3b/1x1"
  top: "inception_3b/1x1"
}
layer {
  name: "inception_3b/3x3_reduce"
  type: "Convolution"
  bottom: "inception_3a/output"
  top: "inception_3b/3x3_reduce"
  param {
    lr_mult: 1
    decay_mult: 1
  }
  param {
    lr_mult: 2
    decay_mult: 0
  }
  convolution_param {
    num_output: 128
    kernel_size: 1
    weight_filler {
      type: "xavier"
    }
    bias_filler {
      type: "constant"
      value: 0.2
    }
  }
}
layer {
  name: "inception_3b/relu_3x3_reduce"
  type: "ReLU"
  bottom: "inception_3b/3x3_reduce"
  top: "inception_3b/3x3_reduce"
}
layer {
  name: "inception_3b/3x3"
  type: "Convolution"
  bottom: "inception_3b/3x3_reduce"
  top: "inception_3b/3x3"
  param {
    lr_mult: 1
    decay_mult: 1
  }
  param {
    lr_mult: 2
    decay_mult: 0
  }
  convolution_param {
    num_output: 192
    pad: 1
    kernel_size: 3
    weight_filler {
      type: "xavier"
    }
    bias_filler {
      type: "constant"
      value: 0.2
    }
  }
}
layer {
  name: "inception_3b/relu_3x3"
  type: "ReLU"
  bottom: "inception_3b/3x3"
  top: "inception_3b/3x3"
}
layer {
  name: "inception_3b/5x5_reduce"
  type: "Convolution"
  bottom: "inception_3a/output"
  top: "inception_3b/5x5_reduce"
  param {
    lr_mult: 1
    decay_mult: 1
  }
  param {
    lr_mult: 2
    decay_mult: 0
  }
  convolution_param {
    num_output: 32
    kernel_size: 1
    weight_filler {
      type: "xavier"
    }
    bias_filler {
      type: "constant"
      value: 0.2
    }
  }
}
layer {
  name: "inception_3b/relu_5x5_reduce"
  type: "ReLU"
  bottom: "inception_3b/5x5_reduce"
  top: "inception_3b/5x5_reduce"
}
layer {
  name: "inception_3b/5x5"
  type: "Convolution"
  bottom: "inception_3b/5x5_reduce"
  top: "inception_3b/5x5"
  param {
    lr_mult: 1
    decay_mult: 1
  }
  param {
    lr_mult: 2
    decay_mult: 0
  }
  convolution_param {
    num_output: 96
    pad: 2
    kernel_size: 5
    weight_filler {
      type: "xavier"
    }
    bias_filler {
      type: "constant"
      value: 0.2
    }
  }
}
layer {
  name: "inception_3b/relu_5x5"
  type: "ReLU"
  bottom: "inception_3b/5x5"
  top: "inception_3b/5x5"
}
layer {
  name: "inception_3b/pool"
  type: "Pooling"
  bottom: "inception_3a/output"
  top: "inception_3b/pool"
  pooling_param {
    pool: MAX
    kernel_size: 3
    stride: 1
    pad: 1
  }
}
layer {
  name: "inception_3b/pool_proj"
  type: "Convolution"
  bottom: "inception_3b/pool"
  top: "inception_3b/pool_proj"
  param {
    lr_mult: 1
    decay_mult: 1
  }
  param {
    lr_mult: 2
    decay_mult: 0
  }
  convolution_param {
    num_output: 64
    kernel_size: 1
    weight_filler {
      type: "xavier"
    }
    bias_filler {
      type: "constant"
      value: 0.2
    }
  }
}
layer {
  name: "inception_3b/relu_pool_proj"
  type: "ReLU"
  bottom: "inception_3b/pool_proj"
  top: "inception_3b/pool_proj"
}
layer {
  name: "inception_3b/output"
  type: "Concat"
  bottom: "inception_3b/1x1"
  bottom: "inception_3b/3x3"
  bottom: "inception_3b/5x5"
  bottom: "inception_3b/pool_proj"
  top: "inception_3b/output"
}
layer {
  name: "pool3/3x3_s2"
  type: "Pooling"
  bottom: "inception_3b/output"
  top: "pool3/3x3_s2"
  pooling_param {
    pool: MAX
    kernel_size: 3
    stride: 2
  }
}
layer {
  name: "inception_4a/1x1"
  type: "Convolution"
  bottom: "pool3/3x3_s2"
  top: "inception_4a/1x1"
  param {
    lr_mult: 1
    decay_mult: 1
  }
  param {
    lr_mult: 2
    decay_mult: 0
  }
  convolution_param {
    num_output: 192
    kernel_size: 1
    weight_filler {
      type: "xavier"
    }
    bias_filler {
      type: "constant"
      value: 0.2
    }
  }
}
layer {
  name: "inception_4a/relu_1x1"
  type: "ReLU"
  bottom: "inception_4a/1x1"
  top: "inception_4a/1x1"
}
layer {
  name: "inception_4a/3x3_reduce"
  type: "Convolution"
  bottom: "pool3/3x3_s2"
  top: "inception_4a/3x3_reduce"
  param {
    lr_mult: 1
    decay_mult: 1
  }
  param {
    lr_mult: 2
    decay_mult: 0
  }
  convolution_param {
    num_output: 96
    kernel_size: 1
    weight_filler {
      type: "xavier"
    }
    bias_filler {
      type: "constant"
      value: 0.2
    }
  }
}
layer {
  name: "inception_4a/relu_3x3_reduce"
  type: "ReLU"
  bottom: "inception_4a/3x3_reduce"
  top: "inception_4a/3x3_reduce"
}
layer {
  name: "inception_4a/3x3"
  type: "Convolution"
  bottom: "inception_4a/3x3_reduce"
  top: "inception_4a/3x3"
  param {
    lr_mult: 1
    decay_mult: 1
  }
  param {
    lr_mult: 2
    decay_mult: 0
  }
  convolution_param {
    num_output: 208
    pad: 1
    kernel_size: 3
    weight_filler {
      type: "xavier"
    }
    bias_filler {
      type: "constant"
      value: 0.2
    }
  }
}
layer {
  name: "inception_4a/relu_3x3"
  type: "ReLU"
  bottom: "inception_4a/3x3"
  top: "inception_4a/3x3"
}
layer {
  name: "inception_4a/5x5_reduce"
  type: "Convolution"
  bottom: "pool3/3x3_s2"
  top: "inception_4a/5x5_reduce"
  param {
    lr_mult: 1
    decay_mult: 1
  }
  param {
    lr_mult: 2
    decay_mult: 0
  }
  convolution_param {
    num_output: 16
    kernel_size: 1
    weight_filler {
      type: "xavier"
    }
    bias_filler {
      type: "constant"
      value: 0.2
    }
  }
}
layer {
  name: "inception_4a/relu_5x5_reduce"
  type: "ReLU"
  bottom: "inception_4a/5x5_reduce"
  top: "inception_4a/5x5_reduce"
}
layer {
  name: "inception_4a/5x5"
  type: "Convolution"
  bottom: "inception_4a/5x5_reduce"
  top: "inception_4a/5x5"
  param {
    lr_mult: 1
    decay_mult: 1
  }
  param {
    lr_mult: 2
    decay_mult: 0
  }
  convolution_param {
    num_output: 48
    pad: 2
    kernel_size: 5
    weight_filler {
      type: "xavier"
    }
    bias_filler {
      type: "constant"
      value: 0.2
    }
  }
}
layer {
  name: "inception_4a/relu_5x5"
  type: "ReLU"
  bottom: "inception_4a/5x5"
  top: "inception_4a/5x5"
}
layer {
  name: "inception_4a/pool"
  type: "Pooling"
  bottom: "pool3/3x3_s2"
  top: "inception_4a/pool"
  pooling_param {
    pool: MAX
    kernel_size: 3
    stride: 1
    pad: 1
  }
}
layer {
  name: "inception_4a/pool_proj"
  type: "Convolution"
  bottom: "inception_4a/pool"
  top: "inception_4a/pool_proj"
  param {
    lr_mult: 1
    decay_mult: 1
  }
  param {
    lr_mult: 2
    decay_mult: 0
  }
  convolution_param {
    num_output: 64
    kernel_size: 1
    weight_filler {
      type: "xavier"
    }
    bias_filler {
      type: "constant"
      value: 0.2
    }
  }
}
layer {
  name: "inception_4a/relu_pool_proj"
  type: "ReLU"
  bottom: "inception_4a/pool_proj"
  top: "inception_4a/pool_proj"
}
layer {
  name: "inception_4a/output"
  type: "Concat"
  bottom: "inception_4a/1x1"
  bottom: "inception_4a/3x3"
  bottom: "inception_4a/5x5"
  bottom: "inception_4a/pool_proj"
  top: "inception_4a/output"
}
layer {
  name: "loss1/ave_pool"
  type: "Pooling"
  bottom: "inception_4a/output"
  top: "loss1/ave_pool"
  pooling_param {
    pool: AVE
    kernel_size: 5
    stride: 3
  }
}
layer {
  name: "loss1/conv"
  type: "Convolution"
  bottom: "loss1/ave_pool"
  top: "loss1/conv"
  param {
    lr_mult: 1
    decay_mult: 1
  }
  param {
    lr_mult: 2
    decay_mult: 0
  }
  convolution_param {
    num_output: 128
    kernel_size: 1
    weight_filler {
      type: "xavier"
    }
    bias_filler {
      type: "constant"
      value: 0.2
    }
  }
}
layer {
  name: "loss1/relu_conv"
  type: "ReLU"
  bottom: "loss1/conv"
  top: "loss1/conv"
}
layer {
  name: "loss1/fc"
  type: "InnerProduct"
  bottom: "loss1/conv"
  top: "loss1/fc"
  param {
    lr_mult: 1
    decay_mult: 1
  }
  param {
    lr_mult: 2
    decay_mult: 0
  }
  inner_product_param {
    num_output: 1024
    weight_filler {
      type: "xavier"
    }
    bias_filler {
      type: "constant"
      value: 0.2
    }
  }
}
layer {
  name: "loss1/relu_fc"
  type: "ReLU"
  bottom: "loss1/fc"
  top: "loss1/fc"
}
layer {
  name: "loss1/drop_fc"
  type: "Dropout"
  bottom: "loss1/fc"
  top: "loss1/fc"
  dropout_param {
    dropout_ratio: 0.7
  }
}
layer {
  name: "loss1/classifier"
  type: "InnerProduct"
  bottom: "loss1/fc"
  top: "loss1/classifier"
  param {
    lr_mult: 1
    decay_mult: 1
  }
  param {
    lr_mult: 2
    decay_mult: 0
  }
  inner_product_param {
    num_output: 100
    weight_filler {
      type: "xavier"
    }
    bias_filler {
      type: "constant"
      value: 0
    }
  }
}
layer {
  name: "loss1/loss1"
  type: "SoftmaxWithLoss"
  bottom: "loss1/classifier"
  bottom: "label"
  top: "loss1/loss1"
  loss_weight: 1
}
layer {
  name: "inception_4b/1x1"
  type: "Convolution"
  bottom: "inception_4a/output"
  top: "inception_4b/1x1"
  param {
    lr_mult: 1
    decay_mult: 1
  }
  param {
    lr_mult: 2
    decay_mult: 0
  }
  convolution_param {
    num_output: 160
    kernel_size: 1
    weight_filler {
      type: "xavier"
    }
    bias_filler {
      type: "constant"
      value: 0.2
    }
  }
}
layer {
  name: "inception_4b/relu_1x1"
  type: "ReLU"
  bottom: "inception_4b/1x1"
  top: "inception_4b/1x1"
}
layer {
  name: "inception_4b/3x3_reduce"
  type: "Convolution"
  bottom: "inception_4a/output"
  top: "inception_4b/3x3_reduce"
  param {
    lr_mult: 1
    decay_mult: 1
  }
  param {
    lr_mult: 2
    decay_mult: 0
  }
  convolution_param {
    num_output: 112
    kernel_size: 1
    weight_filler {
      type: "xavier"
    }
    bias_filler {
      type: "constant"
      value: 0.2
    }
  }
}
layer {
  name: "inception_4b/relu_3x3_reduce"
  type: "ReLU"
  bottom: "inception_4b/3x3_reduce"
  top: "inception_4b/3x3_reduce"
}
layer {
  name: "inception_4b/3x3"
  type: "Convolution"
  bottom: "inception_4b/3x3_reduce"
  top: "inception_4b/3x3"
  param {
    lr_mult: 1
    decay_mult: 1
  }
  param {
    lr_mult: 2
    decay_mult: 0
  }
  convolution_param {
    num_output: 224
    pad: 1
    kernel_size: 3
    weight_filler {
      type: "xavier"
    }
    bias_filler {
      type: "constant"
      value: 0.2
    }
  }
}
layer {
  name: "inception_4b/relu_3x3"
  type: "ReLU"
  bottom: "inception_4b/3x3"
  top: "inception_4b/3x3"
}
layer {
  name: "inception_4b/5x5_reduce"
  type: "Convolution"
  bottom: "inception_4a/output"
  top: "inception_4b/5x5_reduce"
  param {
    lr_mult: 1
    decay_mult: 1
  }
  param {
    lr_mult: 2
    decay_mult: 0
  }
  convolution_param {
    num_output: 24
    kernel_size: 1
    weight_filler {
      type: "xavier"
    }
    bias_filler {
      type: "constant"
      value: 0.2
    }
  }
}
layer {
  name: "inception_4b/relu_5x5_reduce"
  type: "ReLU"
  bottom: "inception_4b/5x5_reduce"
  top: "inception_4b/5x5_reduce"
}
layer {
  name: "inception_4b/5x5"
  type: "Convolution"
  bottom: "inception_4b/5x5_reduce"
  top: "inception_4b/5x5"
  param {
    lr_mult: 1
    decay_mult: 1
  }
  param {
    lr_mult: 2
    decay_mult: 0
  }
  convolution_param {
    num_output: 64
    pad: 2
    kernel_size: 5
    weight_filler {
      type: "xavier"
    }
    bias_filler {
      type: "constant"
      value: 0.2
    }
  }
}
layer {
  name: "inception_4b/relu_5x5"
  type: "ReLU"
  bottom: "inception_4b/5x5"
  top: "inception_4b/5x5"
}
layer {
  name: "inception_4b/pool"
  type: "Pooling"
  bottom: "inception_4a/output"
  top: "inception_4b/pool"
  pooling_param {
    pool: MAX
    kernel_size: 3
    stride: 1
    pad: 1
  }
}
layer {
  name: "inception_4b/pool_proj"
  type: "Convolution"
  bottom: "inception_4b/pool"
  top: "inception_4b/pool_proj"
  param {
    lr_mult: 1
    decay_mult: 1
  }
  param {
    lr_mult: 2
    decay_mult: 0
  }
  convolution_param {
    num_output: 64
    kernel_size: 1
    weight_filler {
      type: "xavier"
    }
    bias_filler {
      type: "constant"
      value: 0.2
    }
  }
}
layer {
  name: "inception_4b/relu_pool_proj"
  type: "ReLU"
  bottom: "inception_4b/pool_proj"
  top: "inception_4b/pool_proj"
}
layer {
  name: "inception_4b/output"
  type: "Concat"
  bottom: "inception_4b/1x1"
  bottom: "inception_4b/3x3"
  bottom: "inception_4b/5x5"
  bottom: "inception_4b/pool_proj"
  top: "inception_4b/output"
}
layer {
  name: "inception_4c/1x1"
  type: "Convolution"
  bottom: "inception_4b/output"
  top: "inception_4c/1x1"
  param {
    lr_mult: 1
    decay_mult: 1
  }
  param {
    lr_mult: 2
    decay_mult: 0
  }
  convolution_param {
    num_output: 128
    kernel_size: 1
    weight_filler {
      type: "xavier"
    }
    bias_filler {
      type: "constant"
      value: 0.2
    }
  }
}
layer {
  name: "inception_4c/relu_1x1"
  type: "ReLU"
  bottom: "inception_4c/1x1"
  top: "inception_4c/1x1"
}
layer {
  name: "inception_4c/3x3_reduce"
  type: "Convolution"
  bottom: "inception_4b/output"
  top: "inception_4c/3x3_reduce"
  param {
    lr_mult: 1
    decay_mult: 1
  }
  param {
    lr_mult: 2
    decay_mult: 0
  }
  convolution_param {
    num_output: 128
    kernel_size: 1
    weight_filler {
      type: "xavier"
    }
    bias_filler {
      type: "constant"
      value: 0.2
    }
  }
}
layer {
  name: "inception_4c/relu_3x3_reduce"
  type: "ReLU"
  bottom: "inception_4c/3x3_reduce"
  top: "inception_4c/3x3_reduce"
}
layer {
  name: "inception_4c/3x3"
  type: "Convolution"
  bottom: "inception_4c/3x3_reduce"
  top: "inception_4c/3x3"
  param {
    lr_mult: 1
    decay_mult: 1
  }
  param {
    lr_mult: 2
    decay_mult: 0
  }
  convolution_param {
    num_output: 256
    pad: 1
    kernel_size: 3
    weight_filler {
      type: "xavier"
    }
    bias_filler {
      type: "constant"
      value: 0.2
    }
  }
}
layer {
  name: "inception_4c/relu_3x3"
  type: "ReLU"
  bottom: "inception_4c/3x3"
  top: "inception_4c/3x3"
}
layer {
  name: "inception_4c/5x5_reduce"
  type: "Convolution"
  bottom: "inception_4b/output"
  top: "inception_4c/5x5_reduce"
  param {
    lr_mult: 1
    decay_mult: 1
  }
  param {
    lr_mult: 2
    decay_mult: 0
  }
  convolution_param {
    num_output: 24
    kernel_size: 1
    weight_filler {
      type: "xavier"
    }
    bias_filler {
      type: "constant"
      value: 0.2
    }
  }
}
layer {
  name: "inception_4c/relu_5x5_reduce"
  type: "ReLU"
  bottom: "inception_4c/5x5_reduce"
  top: "inception_4c/5x5_reduce"
}
layer {
  name: "inception_4c/5x5"
  type: "Convolution"
  bottom: "inception_4c/5x5_reduce"
  top: "inception_4c/5x5"
  param {
    lr_mult: 1
    decay_mult: 1
  }
  param {
    lr_mult: 2
    decay_mult: 0
  }
  convolution_param {
    num_output: 64
    pad: 2
    kernel_size: 5
    weight_filler {
      type: "xavier"
    }
    bias_filler {
      type: "constant"
      value: 0.2
    }
  }
}
layer {
  name: "inception_4c/relu_5x5"
  type: "ReLU"
  bottom: "inception_4c/5x5"
  top: "inception_4c/5x5"
}
layer {
  name: "inception_4c/pool"
  type: "Pooling"
  bottom: "inception_4b/output"
  top: "inception_4c/pool"
  pooling_param {
    pool: MAX
    kernel_size: 3
    stride: 1
    pad: 1
  }
}
layer {
  name: "inception_4c/pool_proj"
  type: "Convolution"
  bottom: "inception_4c/pool"
  top: "inception_4c/pool_proj"
  param {
    lr_mult: 1
    decay_mult: 1
  }
  param {
    lr_mult: 2
    decay_mult: 0
  }
  convolution_param {
    num_output: 64
    kernel_size: 1
    weight_filler {
      type: "xavier"
    }
    bias_filler {
      type: "constant"
      value: 0.2
    }
  }
}
layer {
  name: "inception_4c/relu_pool_proj"
  type: "ReLU"
  bottom: "inception_4c/pool_proj"
  top: "inception_4c/pool_proj"
}
layer {
  name: "inception_4c/output"
  type: "Concat"
  bottom: "inception_4c/1x1"
  bottom: "inception_4c/3x3"
  bottom: "inception_4c/5x5"
  bottom: "inception_4c/pool_proj"
  top: "inception_4c/output"
}
layer {
  name: "inception_4d/1x1"
  type: "Convolution"
  bottom: "inception_4c/output"
  top: "inception_4d/1x1"
  param {
    lr_mult: 1
    decay_mult: 1
  }
  param {
    lr_mult: 2
    decay_mult: 0
  }
  convolution_param {
    num_output: 112
    kernel_size: 1
    weight_filler {
      type: "xavier"
    }
    bias_filler {
      type: "constant"
      value: 0.2
    }
  }
}
layer {
  name: "inception_4d/relu_1x1"
  type: "ReLU"
  bottom: "inception_4d/1x1"
  top: "inception_4d/1x1"
}
layer {
  name: "inception_4d/3x3_reduce"
  type: "Convolution"
  bottom: "inception_4c/output"
  top: "inception_4d/3x3_reduce"
  param {
    lr_mult: 1
    decay_mult: 1
  }
  param {
    lr_mult: 2
    decay_mult: 0
  }
  convolution_param {
    num_output: 144
    kernel_size: 1
    weight_filler {
      type: "xavier"
    }
    bias_filler {
      type: "constant"
      value: 0.2
    }
  }
}
layer {
  name: "inception_4d/relu_3x3_reduce"
  type: "ReLU"
  bottom: "inception_4d/3x3_reduce"
  top: "inception_4d/3x3_reduce"
}
layer {
  name: "inception_4d/3x3"
  type: "Convolution"
  bottom: "inception_4d/3x3_reduce"
  top: "inception_4d/3x3"
  param {
    lr_mult: 1
    decay_mult: 1
  }
  param {
    lr_mult: 2
    decay_mult: 0
  }
  convolution_param {
    num_output: 288
    pad: 1
    kernel_size: 3
    weight_filler {
      type: "xavier"
    }
    bias_filler {
      type: "constant"
      value: 0.2
    }
  }
}
layer {
  name: "inception_4d/relu_3x3"
  type: "ReLU"
  bottom: "inception_4d/3x3"
  top: "inception_4d/3x3"
}
layer {
  name: "inception_4d/5x5_reduce"
  type: "Convolution"
  bottom: "inception_4c/output"
  top: "inception_4d/5x5_reduce"
  param {
    lr_mult: 1
    decay_mult: 1
  }
  param {
    lr_mult: 2
    decay_mult: 0
  }
  convolution_param {
    num_output: 32
    kernel_size: 1
    weight_filler {
      type: "xavier"
    }
    bias_filler {
      type: "constant"
      value: 0.2
    }
  }
}
layer {
  name: "inception_4d/relu_5x5_reduce"
  type: "ReLU"
  bottom: "inception_4d/5x5_reduce"
  top: "inception_4d/5x5_reduce"
}
layer {
  name: "inception_4d/5x5"
  type: "Convolution"
  bottom: "inception_4d/5x5_reduce"
  top: "inception_4d/5x5"
  param {
    lr_mult: 1
    decay_mult: 1
  }
  param {
    lr_mult: 2
    decay_mult: 0
  }
  convolution_param {
    num_output: 64
    pad: 2
    kernel_size: 5
    weight_filler {
      type: "xavier"
    }
    bias_filler {
      type: "constant"
      value: 0.2
    }
  }
}
layer {
  name: "inception_4d/relu_5x5"
  type: "ReLU"
  bottom: "inception_4d/5x5"
  top: "inception_4d/5x5"
}
layer {
  name: "inception_4d/pool"
  type: "Pooling"
  bottom: "inception_4c/output"
  top: "inception_4d/pool"
  pooling_param {
    pool: MAX
    kernel_size: 3
    stride: 1
    pad: 1
  }
}
layer {
  name: "inception_4d/pool_proj"
  type: "Convolution"
  bottom: "inception_4d/pool"
  top: "inception_4d/pool_proj"
  param {
    lr_mult: 1
    decay_mult: 1
  }
  param {
    lr_mult: 2
    decay_mult: 0
  }
  convolution_param {
    num_output: 64
    kernel_size: 1
    weight_filler {
      type: "xavier"
    }
    bias_filler {
      type: "constant"
      value: 0.2
    }
  }
}
layer {
  name: "inception_4d/relu_pool_proj"
  type: "ReLU"
  bottom: "inception_4d/pool_proj"
  top: "inception_4d/pool_proj"
}
layer {
  name: "inception_4d/output"
  type: "Concat"
  bottom: "inception_4d/1x1"
  bottom: "inception_4d/3x3"
  bottom: "inception_4d/5x5"
  bottom: "inception_4d/pool_proj"
  top: "inception_4d/output"
}
layer {
  name: "loss2/ave_pool"
  type: "Pooling"
  bottom: "inception_4d/output"
  top: "loss2/ave_pool"
  pooling_param {
    pool: AVE
    kernel_size: 5
    stride: 3
  }
}
layer {
  name: "loss2/conv"
  type: "Convolution"
  bottom: "loss2/ave_pool"
  top: "loss2/conv"
  param {
    lr_mult: 1
    decay_mult: 1
  }
  param {
    lr_mult: 2
    decay_mult: 0
  }
  convolution_param {
    num_output: 128
    kernel_size: 1
    weight_filler {
      type: "xavier"
    }
    bias_filler {
      type: "constant"
      value: 0.2
    }
  }
}
layer {
  name: "loss2/relu_conv"
  type: "ReLU"
  bottom: "loss2/conv"
  top: "loss2/conv"
}
layer {
  name: "loss2/fc"
  type: "InnerProduct"
  bottom: "loss2/conv"
  top: "loss2/fc"
  param {
    lr_mult: 1
    decay_mult: 1
  }
  param {
    lr_mult: 2
    decay_mult: 0
  }
  inner_product_param {
    num_output: 1024
    weight_filler {
      type: "xavier"
    }
    bias_filler {
      type: "constant"
      value: 0.2
    }
  }
}
layer {
  name: "loss2/relu_fc"
  type: "ReLU"
  bottom: "loss2/fc"
  top: "loss2/fc"
}
layer {
  name: "loss2/drop_fc"
  type: "Dropout"
  bottom: "loss2/fc"
  top: "loss2/fc"
  dropout_param {
    dropout_ratio: 0.7
  }
}
layer {
  name: "loss2/classifier"
  type: "InnerProduct"
  bottom: "loss2/fc"
  top: "loss2/classifier"
  param {
    lr_mult: 1
    decay_mult: 1
  }
  param {
    lr_mult: 2
    decay_mult: 0
  }
  inner_product_param {
    num_output: 100
    weight_filler {
      type: "xavier"
    }
    bias_filler {
      type: "constant"
      value: 0
    }
  }
}
layer {
  name: "loss2/loss2"
  type: "SoftmaxWithLoss"
  bottom: "loss2/classifier"
  bottom: "label"
  top: "loss2/loss2"
  loss_weight: 1
}
layer {
  name: "inception_4e/1x1"
  type: "Convolution"
  bottom: "inception_4d/output"
  top: "inception_4e/1x1"
  param {
    lr_mult: 1
    decay_mult: 1
  }
  param {
    lr_mult: 2
    decay_mult: 0
  }
  convolution_param {
    num_output: 256
    kernel_size: 1
    weight_filler {
      type: "xavier"
    }
    bias_filler {
      type: "constant"
      value: 0.2
    }
  }
}
layer {
  name: "inception_4e/relu_1x1"
  type: "ReLU"
  bottom: "inception_4e/1x1"
  top: "inception_4e/1x1"
}
layer {
  name: "inception_4e/3x3_reduce"
  type: "Convolution"
  bottom: "inception_4d/output"
  top: "inception_4e/3x3_reduce"
  param {
    lr_mult: 1
    decay_mult: 1
  }
  param {
    lr_mult: 2
    decay_mult: 0
  }
  convolution_param {
    num_output: 160
    kernel_size: 1
    weight_filler {
      type: "xavier"
    }
    bias_filler {
      type: "constant"
      value: 0.2
    }
  }
}
layer {
  name: "inception_4e/relu_3x3_reduce"
  type: "ReLU"
  bottom: "inception_4e/3x3_reduce"
  top: "inception_4e/3x3_reduce"
}
layer {
  name: "inception_4e/3x3"
  type: "Convolution"
  bottom: "inception_4e/3x3_reduce"
  top: "inception_4e/3x3"
  param {
    lr_mult: 1
    decay_mult: 1
  }
  param {
    lr_mult: 2
    decay_mult: 0
  }
  convolution_param {
    num_output: 320
    pad: 1
    kernel_size: 3
    weight_filler {
      type: "xavier"
    }
    bias_filler {
      type: "constant"
      value: 0.2
    }
  }
}
layer {
  name: "inception_4e/relu_3x3"
  type: "ReLU"
  bottom: "inception_4e/3x3"
  top: "inception_4e/3x3"
}
layer {
  name: "inception_4e/5x5_reduce"
  type: "Convolution"
  bottom: "inception_4d/output"
  top: "inception_4e/5x5_reduce"
  param {
    lr_mult: 1
    decay_mult: 1
  }
  param {
    lr_mult: 2
    decay_mult: 0
  }
  convolution_param {
    num_output: 32
    kernel_size: 1
    weight_filler {
      type: "xavier"
    }
    bias_filler {
      type: "constant"
      value: 0.2
    }
  }
}
layer {
  name: "inception_4e/relu_5x5_reduce"
  type: "ReLU"
  bottom: "inception_4e/5x5_reduce"
  top: "inception_4e/5x5_reduce"
}
layer {
  name: "inception_4e/5x5"
  type: "Convolution"
  bottom: "inception_4e/5x5_reduce"
  top: "inception_4e/5x5"
  param {
    lr_mult: 1
    decay_mult: 1
  }
  param {
    lr_mult: 2
    decay_mult: 0
  }
  convolution_param {
    num_output: 128
    pad: 2
    kernel_size: 5
    weight_filler {
      type: "xavier"
    }
    bias_filler {
      type: "constant"
      value: 0.2
    }
  }
}
layer {
  name: "inception_4e/relu_5x5"
  type: "ReLU"
  bottom: "inception_4e/5x5"
  top: "inception_4e/5x5"
}
layer {
  name: "inception_4e/pool"
  type: "Pooling"
  bottom: "inception_4d/output"
  top: "inception_4e/pool"
  poolin
I0522 15:29:58.329483  7874 layer_factory.hpp:77] Creating layer data
I0522 15:29:58.329941  7874 net.cpp:91] Creating Layer data
I0522 15:29:58.329957  7874 net.cpp:399] data -> data
I0522 15:29:58.329983  7874 net.cpp:399] data -> label
I0522 15:29:58.330005  7874 data_transformer.cpp:25] Loading mean file from: /home/iis/Downloads/caffe-master/data/food_100/food100_mean.binaryproto
I0522 15:29:58.330886  7888 db_lmdb.cpp:35] Opened lmdb /home/iis/Downloads/caffe-master/examples/food_100/food100_train_lmdb
I0522 15:29:58.345324  7874 data_layer.cpp:41] output data size: 32,3,227,227
I0522 15:29:58.414266  7874 net.cpp:141] Setting up data
I0522 15:29:58.414338  7874 net.cpp:148] Top shape: 32 3 227 227 (4946784)
I0522 15:29:58.414350  7874 net.cpp:148] Top shape: 32 (32)
I0522 15:29:58.414356  7874 net.cpp:156] Memory required for data: 19787264
I0522 15:29:58.414383  7874 layer_factory.hpp:77] Creating layer label_data_1_split
I0522 15:29:58.414427  7874 net.cpp:91] Creating Layer label_data_1_split
I0522 15:29:58.414479  7874 net.cpp:425] label_data_1_split <- label
I0522 15:29:58.414510  7874 net.cpp:399] label_data_1_split -> label_data_1_split_0
I0522 15:29:58.414536  7874 net.cpp:399] label_data_1_split -> label_data_1_split_1
I0522 15:29:58.414556  7874 net.cpp:399] label_data_1_split -> label_data_1_split_2
I0522 15:29:58.414647  7874 net.cpp:141] Setting up label_data_1_split
I0522 15:29:58.414692  7874 net.cpp:148] Top shape: 32 (32)
I0522 15:29:58.414707  7874 net.cpp:148] Top shape: 32 (32)
I0522 15:29:58.414721  7874 net.cpp:148] Top shape: 32 (32)
I0522 15:29:58.414732  7874 net.cpp:156] Memory required for data: 19787648
I0522 15:29:58.414743  7874 layer_factory.hpp:77] Creating layer conv1/7x7_s2
I0522 15:29:58.414775  7874 net.cpp:91] Creating Layer conv1/7x7_s2
I0522 15:29:58.414789  7874 net.cpp:425] conv1/7x7_s2 <- data
I0522 15:29:58.414808  7874 net.cpp:399] conv1/7x7_s2 -> conv1/7x7_s2
I0522 15:29:58.419528  7874 net.cpp:141] Setting up conv1/7x7_s2
I0522 15:29:58.419632  7874 net.cpp:148] Top shape: 32 64 114 114 (26615808)
I0522 15:29:58.419653  7874 net.cpp:156] Memory required for data: 126250880
I0522 15:29:58.419734  7874 layer_factory.hpp:77] Creating layer conv1/relu_7x7
I0522 15:29:58.419785  7874 net.cpp:91] Creating Layer conv1/relu_7x7
I0522 15:29:58.419824  7874 net.cpp:425] conv1/relu_7x7 <- conv1/7x7_s2
I0522 15:29:58.419847  7874 net.cpp:386] conv1/relu_7x7 -> conv1/7x7_s2 (in-place)
I0522 15:29:58.419908  7874 net.cpp:141] Setting up conv1/relu_7x7
I0522 15:29:58.419945  7874 net.cpp:148] Top shape: 32 64 114 114 (26615808)
I0522 15:29:58.419960  7874 net.cpp:156] Memory required for data: 232714112
I0522 15:29:58.419972  7874 layer_factory.hpp:77] Creating layer pool1/3x3_s2
I0522 15:29:58.420001  7874 net.cpp:91] Creating Layer pool1/3x3_s2
I0522 15:29:58.420027  7874 net.cpp:425] pool1/3x3_s2 <- conv1/7x7_s2
I0522 15:29:58.420047  7874 net.cpp:399] pool1/3x3_s2 -> pool1/3x3_s2
I0522 15:29:58.420264  7874 net.cpp:141] Setting up pool1/3x3_s2
I0522 15:29:58.420310  7874 net.cpp:148] Top shape: 32 64 57 57 (6653952)
I0522 15:29:58.420323  7874 net.cpp:156] Memory required for data: 259329920
I0522 15:29:58.420343  7874 layer_factory.hpp:77] Creating layer pool1/norm1
I0522 15:29:58.420379  7874 net.cpp:91] Creating Layer pool1/norm1
I0522 15:29:58.420397  7874 net.cpp:425] pool1/norm1 <- pool1/3x3_s2
I0522 15:29:58.420418  7874 net.cpp:399] pool1/norm1 -> pool1/norm1
I0522 15:29:58.420560  7874 net.cpp:141] Setting up pool1/norm1
I0522 15:29:58.420598  7874 net.cpp:148] Top shape: 32 64 57 57 (6653952)
I0522 15:29:58.420617  7874 net.cpp:156] Memory required for data: 285945728
I0522 15:29:58.420630  7874 layer_factory.hpp:77] Creating layer conv2/3x3_reduce
I0522 15:29:58.420671  7874 net.cpp:91] Creating Layer conv2/3x3_reduce
I0522 15:29:58.420687  7874 net.cpp:425] conv2/3x3_reduce <- pool1/norm1
I0522 15:29:58.420722  7874 net.cpp:399] conv2/3x3_reduce -> conv2/3x3_reduce
I0522 15:29:58.423254  7874 net.cpp:141] Setting up conv2/3x3_reduce
I0522 15:29:58.423367  7874 net.cpp:148] Top shape: 32 64 57 57 (6653952)
I0522 15:29:58.423377  7874 net.cpp:156] Memory required for data: 312561536
I0522 15:29:58.423435  7874 layer_factory.hpp:77] Creating layer conv2/relu_3x3_reduce
I0522 15:29:58.423599  7874 net.cpp:91] Creating Layer conv2/relu_3x3_reduce
I0522 15:29:58.423629  7874 net.cpp:425] conv2/relu_3x3_reduce <- conv2/3x3_reduce
I0522 15:29:58.423660  7874 net.cpp:386] conv2/relu_3x3_reduce -> conv2/3x3_reduce (in-place)
I0522 15:29:58.423697  7874 net.cpp:141] Setting up conv2/relu_3x3_reduce
I0522 15:29:58.423732  7874 net.cpp:148] Top shape: 32 64 57 57 (6653952)
I0522 15:29:58.423744  7874 net.cpp:156] Memory required for data: 339177344
I0522 15:29:58.423804  7874 layer_factory.hpp:77] Creating layer conv2/3x3
I0522 15:29:58.423859  7874 net.cpp:91] Creating Layer conv2/3x3
I0522 15:29:58.423880  7874 net.cpp:425] conv2/3x3 <- conv2/3x3_reduce
I0522 15:29:58.423900  7874 net.cpp:399] conv2/3x3 -> conv2/3x3
I0522 15:29:58.427997  7874 net.cpp:141] Setting up conv2/3x3
I0522 15:29:58.428114  7874 net.cpp:148] Top shape: 32 192 57 57 (19961856)
I0522 15:29:58.428134  7874 net.cpp:156] Memory required for data: 419024768
I0522 15:29:58.428207  7874 layer_factory.hpp:77] Creating layer conv2/relu_3x3
I0522 15:29:58.428275  7874 net.cpp:91] Creating Layer conv2/relu_3x3
I0522 15:29:58.428294  7874 net.cpp:425] conv2/relu_3x3 <- conv2/3x3
I0522 15:29:58.428318  7874 net.cpp:386] conv2/relu_3x3 -> conv2/3x3 (in-place)
I0522 15:29:58.428352  7874 net.cpp:141] Setting up conv2/relu_3x3
I0522 15:29:58.428369  7874 net.cpp:148] Top shape: 32 192 57 57 (19961856)
I0522 15:29:58.428375  7874 net.cpp:156] Memory required for data: 498872192
I0522 15:29:58.428381  7874 layer_factory.hpp:77] Creating layer conv2/norm2
I0522 15:29:58.428405  7874 net.cpp:91] Creating Layer conv2/norm2
I0522 15:29:58.428416  7874 net.cpp:425] conv2/norm2 <- conv2/3x3
I0522 15:29:58.428426  7874 net.cpp:399] conv2/norm2 -> conv2/norm2
I0522 15:29:58.428503  7874 net.cpp:141] Setting up conv2/norm2
I0522 15:29:58.428524  7874 net.cpp:148] Top shape: 32 192 57 57 (19961856)
I0522 15:29:58.428531  7874 net.cpp:156] Memory required for data: 578719616
I0522 15:29:58.428539  7874 layer_factory.hpp:77] Creating layer pool2/3x3_s2
I0522 15:29:58.428562  7874 net.cpp:91] Creating Layer pool2/3x3_s2
I0522 15:29:58.428572  7874 net.cpp:425] pool2/3x3_s2 <- conv2/norm2
I0522 15:29:58.428586  7874 net.cpp:399] pool2/3x3_s2 -> pool2/3x3_s2
I0522 15:29:58.428656  7874 net.cpp:141] Setting up pool2/3x3_s2
I0522 15:29:58.428678  7874 net.cpp:148] Top shape: 32 192 28 28 (4816896)
I0522 15:29:58.428685  7874 net.cpp:156] Memory required for data: 597987200
I0522 15:29:58.428694  7874 layer_factory.hpp:77] Creating layer pool2/3x3_s2_pool2/3x3_s2_0_split
I0522 15:29:58.428714  7874 net.cpp:91] Creating Layer pool2/3x3_s2_pool2/3x3_s2_0_split
I0522 15:29:58.428721  7874 net.cpp:425] pool2/3x3_s2_pool2/3x3_s2_0_split <- pool2/3x3_s2
I0522 15:29:58.428733  7874 net.cpp:399] pool2/3x3_s2_pool2/3x3_s2_0_split -> pool2/3x3_s2_pool2/3x3_s2_0_split_0
I0522 15:29:58.428745  7874 net.cpp:399] pool2/3x3_s2_pool2/3x3_s2_0_split -> pool2/3x3_s2_pool2/3x3_s2_0_split_1
I0522 15:29:58.428755  7874 net.cpp:399] pool2/3x3_s2_pool2/3x3_s2_0_split -> pool2/3x3_s2_pool2/3x3_s2_0_split_2
I0522 15:29:58.428766  7874 net.cpp:399] pool2/3x3_s2_pool2/3x3_s2_0_split -> pool2/3x3_s2_pool2/3x3_s2_0_split_3
I0522 15:29:58.428848  7874 net.cpp:141] Setting up pool2/3x3_s2_pool2/3x3_s2_0_split
I0522 15:29:58.428863  7874 net.cpp:148] Top shape: 32 192 28 28 (4816896)
I0522 15:29:58.428870  7874 net.cpp:148] Top shape: 32 192 28 28 (4816896)
I0522 15:29:58.428877  7874 net.cpp:148] Top shape: 32 192 28 28 (4816896)
I0522 15:29:58.428884  7874 net.cpp:148] Top shape: 32 192 28 28 (4816896)
I0522 15:29:58.428890  7874 net.cpp:156] Memory required for data: 675057536
I0522 15:29:58.428897  7874 layer_factory.hpp:77] Creating layer inception_3a/1x1
I0522 15:29:58.428933  7874 net.cpp:91] Creating Layer inception_3a/1x1
I0522 15:29:58.428941  7874 net.cpp:425] inception_3a/1x1 <- pool2/3x3_s2_pool2/3x3_s2_0_split_0
I0522 15:29:58.428953  7874 net.cpp:399] inception_3a/1x1 -> inception_3a/1x1
I0522 15:29:58.431432  7874 net.cpp:141] Setting up inception_3a/1x1
I0522 15:29:58.431617  7874 net.cpp:148] Top shape: 32 64 28 28 (1605632)
I0522 15:29:58.431638  7874 net.cpp:156] Memory required for data: 681480064
I0522 15:29:58.431682  7874 layer_factory.hpp:77] Creating layer inception_3a/relu_1x1
I0522 15:29:58.431744  7874 net.cpp:91] Creating Layer inception_3a/relu_1x1
I0522 15:29:58.431772  7874 net.cpp:425] inception_3a/relu_1x1 <- inception_3a/1x1
I0522 15:29:58.431799  7874 net.cpp:386] inception_3a/relu_1x1 -> inception_3a/1x1 (in-place)
I0522 15:29:58.431845  7874 net.cpp:141] Setting up inception_3a/relu_1x1
I0522 15:29:58.431874  7874 net.cpp:148] Top shape: 32 64 28 28 (1605632)
I0522 15:29:58.431886  7874 net.cpp:156] Memory required for data: 687902592
I0522 15:29:58.431897  7874 layer_factory.hpp:77] Creating layer inception_3a/3x3_reduce
I0522 15:29:58.431951  7874 net.cpp:91] Creating Layer inception_3a/3x3_reduce
I0522 15:29:58.431970  7874 net.cpp:425] inception_3a/3x3_reduce <- pool2/3x3_s2_pool2/3x3_s2_0_split_1
I0522 15:29:58.431994  7874 net.cpp:399] inception_3a/3x3_reduce -> inception_3a/3x3_reduce
I0522 15:29:58.434168  7874 net.cpp:141] Setting up inception_3a/3x3_reduce
I0522 15:29:58.434250  7874 net.cpp:148] Top shape: 32 96 28 28 (2408448)
I0522 15:29:58.434257  7874 net.cpp:156] Memory required for data: 697536384
I0522 15:29:58.434298  7874 layer_factory.hpp:77] Creating layer inception_3a/relu_3x3_reduce
I0522 15:29:58.434340  7874 net.cpp:91] Creating Layer inception_3a/relu_3x3_reduce
I0522 15:29:58.434353  7874 net.cpp:425] inception_3a/relu_3x3_reduce <- inception_3a/3x3_reduce
I0522 15:29:58.434371  7874 net.cpp:386] inception_3a/relu_3x3_reduce -> inception_3a/3x3_reduce (in-place)
I0522 15:29:58.434397  7874 net.cpp:141] Setting up inception_3a/relu_3x3_reduce
I0522 15:29:58.434406  7874 net.cpp:148] Top shape: 32 96 28 28 (2408448)
I0522 15:29:58.434412  7874 net.cpp:156] Memory required for data: 707170176
I0522 15:29:58.434417  7874 layer_factory.hpp:77] Creating layer inception_3a/3x3
I0522 15:29:58.434448  7874 net.cpp:91] Creating Layer inception_3a/3x3
I0522 15:29:58.434456  7874 net.cpp:425] inception_3a/3x3 <- inception_3a/3x3_reduce
I0522 15:29:58.434466  7874 net.cpp:399] inception_3a/3x3 -> inception_3a/3x3
I0522 15:29:58.435950  7874 net.cpp:141] Setting up inception_3a/3x3
I0522 15:29:58.436022  7874 net.cpp:148] Top shape: 32 128 28 28 (3211264)
I0522 15:29:58.436029  7874 net.cpp:156] Memory required for data: 720015232
I0522 15:29:58.436053  7874 layer_factory.hpp:77] Creating layer inception_3a/relu_3x3
I0522 15:29:58.436079  7874 net.cpp:91] Creating Layer inception_3a/relu_3x3
I0522 15:29:58.436094  7874 net.cpp:425] inception_3a/relu_3x3 <- inception_3a/3x3
I0522 15:29:58.436111  7874 net.cpp:386] inception_3a/relu_3x3 -> inception_3a/3x3 (in-place)
I0522 15:29:58.436130  7874 net.cpp:141] Setting up inception_3a/relu_3x3
I0522 15:29:58.436141  7874 net.cpp:148] Top shape: 32 128 28 28 (3211264)
I0522 15:29:58.436146  7874 net.cpp:156] Memory required for data: 732860288
I0522 15:29:58.436151  7874 layer_factory.hpp:77] Creating layer inception_3a/5x5_reduce
I0522 15:29:58.436175  7874 net.cpp:91] Creating Layer inception_3a/5x5_reduce
I0522 15:29:58.436184  7874 net.cpp:425] inception_3a/5x5_reduce <- pool2/3x3_s2_pool2/3x3_s2_0_split_2
I0522 15:29:58.436197  7874 net.cpp:399] inception_3a/5x5_reduce -> inception_3a/5x5_reduce
I0522 15:29:58.436540  7874 net.cpp:141] Setting up inception_3a/5x5_reduce
I0522 15:29:58.436563  7874 net.cpp:148] Top shape: 32 16 28 28 (401408)
I0522 15:29:58.436570  7874 net.cpp:156] Memory required for data: 734465920
I0522 15:29:58.436581  7874 layer_factory.hpp:77] Creating layer inception_3a/relu_5x5_reduce
I0522 15:29:58.436592  7874 net.cpp:91] Creating Layer inception_3a/relu_5x5_reduce
I0522 15:29:58.436599  7874 net.cpp:425] inception_3a/relu_5x5_reduce <- inception_3a/5x5_reduce
I0522 15:29:58.436610  7874 net.cpp:386] inception_3a/relu_5x5_reduce -> inception_3a/5x5_reduce (in-place)
I0522 15:29:58.436622  7874 net.cpp:141] Setting up inception_3a/relu_5x5_reduce
I0522 15:29:58.436630  7874 net.cpp:148] Top shape: 32 16 28 28 (401408)
I0522 15:29:58.436635  7874 net.cpp:156] Memory required for data: 736071552
I0522 15:29:58.436640  7874 layer_factory.hpp:77] Creating layer inception_3a/5x5
I0522 15:29:58.436655  7874 net.cpp:91] Creating Layer inception_3a/5x5
I0522 15:29:58.436664  7874 net.cpp:425] inception_3a/5x5 <- inception_3a/5x5_reduce
I0522 15:29:58.436676  7874 net.cpp:399] inception_3a/5x5 -> inception_3a/5x5
I0522 15:29:58.437047  7874 net.cpp:141] Setting up inception_3a/5x5
I0522 15:29:58.437064  7874 net.cpp:148] Top shape: 32 32 28 28 (802816)
I0522 15:29:58.437069  7874 net.cpp:156] Memory required for data: 739282816
I0522 15:29:58.437079  7874 layer_factory.hpp:77] Creating layer inception_3a/relu_5x5
I0522 15:29:58.437098  7874 net.cpp:91] Creating Layer inception_3a/relu_5x5
I0522 15:29:58.437106  7874 net.cpp:425] inception_3a/relu_5x5 <- inception_3a/5x5
I0522 15:29:58.437119  7874 net.cpp:386] inception_3a/relu_5x5 -> inception_3a/5x5 (in-place)
I0522 15:29:58.437132  7874 net.cpp:141] Setting up inception_3a/relu_5x5
I0522 15:29:58.437144  7874 net.cpp:148] Top shape: 32 32 28 28 (802816)
I0522 15:29:58.437150  7874 net.cpp:156] Memory required for data: 742494080
I0522 15:29:58.437160  7874 layer_factory.hpp:77] Creating layer inception_3a/pool
I0522 15:29:58.437175  7874 net.cpp:91] Creating Layer inception_3a/pool
I0522 15:29:58.437183  7874 net.cpp:425] inception_3a/pool <- pool2/3x3_s2_pool2/3x3_s2_0_split_3
I0522 15:29:58.437196  7874 net.cpp:399] inception_3a/pool -> inception_3a/pool
I0522 15:29:58.437268  7874 net.cpp:141] Setting up inception_3a/pool
I0522 15:29:58.437284  7874 net.cpp:148] Top shape: 32 192 28 28 (4816896)
I0522 15:29:58.437290  7874 net.cpp:156] Memory required for data: 761761664
I0522 15:29:58.437296  7874 layer_factory.hpp:77] Creating layer inception_3a/pool_proj
I0522 15:29:58.437314  7874 net.cpp:91] Creating Layer inception_3a/pool_proj
I0522 15:29:58.437319  7874 net.cpp:425] inception_3a/pool_proj <- inception_3a/pool
I0522 15:29:58.437330  7874 net.cpp:399] inception_3a/pool_proj -> inception_3a/pool_proj
I0522 15:29:58.437728  7874 net.cpp:141] Setting up inception_3a/pool_proj
I0522 15:29:58.437767  7874 net.cpp:148] Top shape: 32 32 28 28 (802816)
I0522 15:29:58.437782  7874 net.cpp:156] Memory required for data: 764972928
I0522 15:29:58.437813  7874 layer_factory.hpp:77] Creating layer inception_3a/relu_pool_proj
I0522 15:29:58.437826  7874 net.cpp:91] Creating Layer inception_3a/relu_pool_proj
I0522 15:29:58.437834  7874 net.cpp:425] inception_3a/relu_pool_proj <- inception_3a/pool_proj
I0522 15:29:58.437844  7874 net.cpp:386] inception_3a/relu_pool_proj -> inception_3a/pool_proj (in-place)
I0522 15:29:58.437857  7874 net.cpp:141] Setting up inception_3a/relu_pool_proj
I0522 15:29:58.437865  7874 net.cpp:148] Top shape: 32 32 28 28 (802816)
I0522 15:29:58.437868  7874 net.cpp:156] Memory required for data: 768184192
I0522 15:29:58.437875  7874 layer_factory.hpp:77] Creating layer inception_3a/output
I0522 15:29:58.437888  7874 net.cpp:91] Creating Layer inception_3a/output
I0522 15:29:58.437897  7874 net.cpp:425] inception_3a/output <- inception_3a/1x1
I0522 15:29:58.437904  7874 net.cpp:425] inception_3a/output <- inception_3a/3x3
I0522 15:29:58.437911  7874 net.cpp:425] inception_3a/output <- inception_3a/5x5
I0522 15:29:58.437916  7874 net.cpp:425] inception_3a/output <- inception_3a/pool_proj
I0522 15:29:58.437923  7874 net.cpp:399] inception_3a/output -> inception_3a/output
I0522 15:29:58.437966  7874 net.cpp:141] Setting up inception_3a/output
I0522 15:29:58.437981  7874 net.cpp:148] Top shape: 32 256 28 28 (6422528)
I0522 15:29:58.437988  7874 net.cpp:156] Memory required for data: 793874304
I0522 15:29:58.437994  7874 layer_factory.hpp:77] Creating layer inception_3a/output_inception_3a/output_0_split
I0522 15:29:58.438009  7874 net.cpp:91] Creating Layer inception_3a/output_inception_3a/output_0_split
I0522 15:29:58.438017  7874 net.cpp:425] inception_3a/output_inception_3a/output_0_split <- inception_3a/output
I0522 15:29:58.438025  7874 net.cpp:399] inception_3a/output_inception_3a/output_0_split -> inception_3a/output_inception_3a/output_0_split_0
I0522 15:29:58.438035  7874 net.cpp:399] inception_3a/output_inception_3a/output_0_split -> inception_3a/output_inception_3a/output_0_split_1
I0522 15:29:58.438045  7874 net.cpp:399] inception_3a/output_inception_3a/output_0_split -> inception_3a/output_inception_3a/output_0_split_2
I0522 15:29:58.438055  7874 net.cpp:399] inception_3a/output_inception_3a/output_0_split -> inception_3a/output_inception_3a/output_0_split_3
I0522 15:29:58.438127  7874 net.cpp:141] Setting up inception_3a/output_inception_3a/output_0_split
I0522 15:29:58.438143  7874 net.cpp:148] Top shape: 32 256 28 28 (6422528)
I0522 15:29:58.438150  7874 net.cpp:148] Top shape: 32 256 28 28 (6422528)
I0522 15:29:58.438156  7874 net.cpp:148] Top shape: 32 256 28 28 (6422528)
I0522 15:29:58.438163  7874 net.cpp:148] Top shape: 32 256 28 28 (6422528)
I0522 15:29:58.438168  7874 net.cpp:156] Memory required for data: 896634752
I0522 15:29:58.438174  7874 layer_factory.hpp:77] Creating layer inception_3b/1x1
I0522 15:29:58.438194  7874 net.cpp:91] Creating Layer inception_3b/1x1
I0522 15:29:58.438200  7874 net.cpp:425] inception_3b/1x1 <- inception_3a/output_inception_3a/output_0_split_0
I0522 15:29:58.438212  7874 net.cpp:399] inception_3b/1x1 -> inception_3b/1x1
I0522 15:29:58.438844  7874 net.cpp:141] Setting up inception_3b/1x1
I0522 15:29:58.438872  7874 net.cpp:148] Top shape: 32 128 28 28 (3211264)
I0522 15:29:58.438879  7874 net.cpp:156] Memory required for data: 909479808
I0522 15:29:58.438891  7874 layer_factory.hpp:77] Creating layer inception_3b/relu_1x1
I0522 15:29:58.438906  7874 net.cpp:91] Creating Layer inception_3b/relu_1x1
I0522 15:29:58.438912  7874 net.cpp:425] inception_3b/relu_1x1 <- inception_3b/1x1
I0522 15:29:58.438922  7874 net.cpp:386] inception_3b/relu_1x1 -> inception_3b/1x1 (in-place)
I0522 15:29:58.438933  7874 net.cpp:141] Setting up inception_3b/relu_1x1
I0522 15:29:58.438941  7874 net.cpp:148] Top shape: 32 128 28 28 (3211264)
I0522 15:29:58.438946  7874 net.cpp:156] Memory required for data: 922324864
I0522 15:29:58.438952  7874 layer_factory.hpp:77] Creating layer inception_3b/3x3_reduce
I0522 15:29:58.438968  7874 net.cpp:91] Creating Layer inception_3b/3x3_reduce
I0522 15:29:58.438974  7874 net.cpp:425] inception_3b/3x3_reduce <- inception_3a/output_inception_3a/output_0_split_1
I0522 15:29:58.438984  7874 net.cpp:399] inception_3b/3x3_reduce -> inception_3b/3x3_reduce
I0522 15:29:58.439599  7874 net.cpp:141] Setting up inception_3b/3x3_reduce
I0522 15:29:58.439632  7874 net.cpp:148] Top shape: 32 128 28 28 (3211264)
I0522 15:29:58.439638  7874 net.cpp:156] Memory required for data: 935169920
I0522 15:29:58.439649  7874 layer_factory.hpp:77] Creating layer inception_3b/relu_3x3_reduce
I0522 15:29:58.439661  7874 net.cpp:91] Creating Layer inception_3b/relu_3x3_reduce
I0522 15:29:58.439668  7874 net.cpp:425] inception_3b/relu_3x3_reduce <- inception_3b/3x3_reduce
I0522 15:29:58.439677  7874 net.cpp:386] inception_3b/relu_3x3_reduce -> inception_3b/3x3_reduce (in-place)
I0522 15:29:58.439690  7874 net.cpp:141] Setting up inception_3b/relu_3x3_reduce
I0522 15:29:58.439697  7874 net.cpp:148] Top shape: 32 128 28 28 (3211264)
I0522 15:29:58.439702  7874 net.cpp:156] Memory required for data: 948014976
I0522 15:29:58.439707  7874 layer_factory.hpp:77] Creating layer inception_3b/3x3
I0522 15:29:58.439746  7874 net.cpp:91] Creating Layer inception_3b/3x3
I0522 15:29:58.439759  7874 net.cpp:425] inception_3b/3x3 <- inception_3b/3x3_reduce
I0522 15:29:58.439777  7874 net.cpp:399] inception_3b/3x3 -> inception_3b/3x3
I0522 15:29:58.443717  7874 net.cpp:141] Setting up inception_3b/3x3
I0522 15:29:58.443825  7874 net.cpp:148] Top shape: 32 192 28 28 (4816896)
I0522 15:29:58.443837  7874 net.cpp:156] Memory required for data: 967282560
I0522 15:29:58.443867  7874 layer_factory.hpp:77] Creating layer inception_3b/relu_3x3
I0522 15:29:58.443904  7874 net.cpp:91] Creating Layer inception_3b/relu_3x3
I0522 15:29:58.443923  7874 net.cpp:425] inception_3b/relu_3x3 <- inception_3b/3x3
I0522 15:29:58.443944  7874 net.cpp:386] inception_3b/relu_3x3 -> inception_3b/3x3 (in-place)
I0522 15:29:58.443974  7874 net.cpp:141] Setting up inception_3b/relu_3x3
I0522 15:29:58.443984  7874 net.cpp:148] Top shape: 32 192 28 28 (4816896)
I0522 15:29:58.443991  7874 net.cpp:156] Memory required for data: 986550144
I0522 15:29:58.444000  7874 layer_factory.hpp:77] Creating layer inception_3b/5x5_reduce
I0522 15:29:58.444030  7874 net.cpp:91] Creating Layer inception_3b/5x5_reduce
I0522 15:29:58.444039  7874 net.cpp:425] inception_3b/5x5_reduce <- inception_3a/output_inception_3a/output_0_split_2
I0522 15:29:58.444054  7874 net.cpp:399] inception_3b/5x5_reduce -> inception_3b/5x5_reduce
I0522 15:29:58.444587  7874 net.cpp:141] Setting up inception_3b/5x5_reduce
I0522 15:29:58.444614  7874 net.cpp:148] Top shape: 32 32 28 28 (802816)
I0522 15:29:58.444622  7874 net.cpp:156] Memory required for data: 989761408
I0522 15:29:58.444638  7874 layer_factory.hpp:77] Creating layer inception_3b/relu_5x5_reduce
I0522 15:29:58.444654  7874 net.cpp:91] Creating Layer inception_3b/relu_5x5_reduce
I0522 15:29:58.444663  7874 net.cpp:425] inception_3b/relu_5x5_reduce <- inception_3b/5x5_reduce
I0522 15:29:58.444674  7874 net.cpp:386] inception_3b/relu_5x5_reduce -> inception_3b/5x5_reduce (in-place)
I0522 15:29:58.444687  7874 net.cpp:141] Setting up inception_3b/relu_5x5_reduce
I0522 15:29:58.444700  7874 net.cpp:148] Top shape: 32 32 28 28 (802816)
I0522 15:29:58.444706  7874 net.cpp:156] Memory required for data: 992972672
I0522 15:29:58.444715  7874 layer_factory.hpp:77] Creating layer inception_3b/5x5
I0522 15:29:58.444736  7874 net.cpp:91] Creating Layer inception_3b/5x5
I0522 15:29:58.444744  7874 net.cpp:425] inception_3b/5x5 <- inception_3b/5x5_reduce
I0522 15:29:58.444758  7874 net.cpp:399] inception_3b/5x5 -> inception_3b/5x5
I0522 15:29:58.446521  7874 net.cpp:141] Setting up inception_3b/5x5
I0522 15:29:58.446563  7874 net.cpp:148] Top shape: 32 96 28 28 (2408448)
I0522 15:29:58.446568  7874 net.cpp:156] Memory required for data: 1002606464
I0522 15:29:58.446581  7874 layer_factory.hpp:77] Creating layer inception_3b/relu_5x5
I0522 15:29:58.446597  7874 net.cpp:91] Creating Layer inception_3b/relu_5x5
I0522 15:29:58.446606  7874 net.cpp:425] inception_3b/relu_5x5 <- inception_3b/5x5
I0522 15:29:58.446619  7874 net.cpp:386] inception_3b/relu_5x5 -> inception_3b/5x5 (in-place)
I0522 15:29:58.446635  7874 net.cpp:141] Setting up inception_3b/relu_5x5
I0522 15:29:58.446643  7874 net.cpp:148] Top shape: 32 96 28 28 (2408448)
I0522 15:29:58.446647  7874 net.cpp:156] Memory required for data: 1012240256
I0522 15:29:58.446652  7874 layer_factory.hpp:77] Creating layer inception_3b/pool
I0522 15:29:58.446661  7874 net.cpp:91] Creating Layer inception_3b/pool
I0522 15:29:58.446668  7874 net.cpp:425] inception_3b/pool <- inception_3a/output_inception_3a/output_0_split_3
I0522 15:29:58.446676  7874 net.cpp:399] inception_3b/pool -> inception_3b/pool
I0522 15:29:58.446722  7874 net.cpp:141] Setting up inception_3b/pool
I0522 15:29:58.446734  7874 net.cpp:148] Top shape: 32 256 28 28 (6422528)
I0522 15:29:58.446740  7874 net.cpp:156] Memory required for data: 1037930368
I0522 15:29:58.446745  7874 layer_factory.hpp:77] Creating layer inception_3b/pool_proj
I0522 15:29:58.446760  7874 net.cpp:91] Creating Layer inception_3b/pool_proj
I0522 15:29:58.446766  7874 net.cpp:425] inception_3b/pool_proj <- inception_3b/pool
I0522 15:29:58.446775  7874 net.cpp:399] inception_3b/pool_proj -> inception_3b/pool_proj
I0522 15:29:58.447154  7874 net.cpp:141] Setting up inception_3b/pool_proj
I0522 15:29:58.447170  7874 net.cpp:148] Top shape: 32 64 28 28 (1605632)
I0522 15:29:58.447175  7874 net.cpp:156] Memory required for data: 1044352896
I0522 15:29:58.447185  7874 layer_factory.hpp:77] Creating layer inception_3b/relu_pool_proj
I0522 15:29:58.447193  7874 net.cpp:91] Creating Layer inception_3b/relu_pool_proj
I0522 15:29:58.447199  7874 net.cpp:425] inception_3b/relu_pool_proj <- inception_3b/pool_proj
I0522 15:29:58.447206  7874 net.cpp:386] inception_3b/relu_pool_proj -> inception_3b/pool_proj (in-place)
I0522 15:29:58.447216  7874 net.cpp:141] Setting up inception_3b/relu_pool_proj
I0522 15:29:58.447221  7874 net.cpp:148] Top shape: 32 64 28 28 (1605632)
I0522 15:29:58.447227  7874 net.cpp:156] Memory required for data: 1050775424
I0522 15:29:58.447232  7874 layer_factory.hpp:77] Creating layer inception_3b/output
I0522 15:29:58.447239  7874 net.cpp:91] Creating Layer inception_3b/output
I0522 15:29:58.447244  7874 net.cpp:425] inception_3b/output <- inception_3b/1x1
I0522 15:29:58.447252  7874 net.cpp:425] inception_3b/output <- inception_3b/3x3
I0522 15:29:58.447257  7874 net.cpp:425] inception_3b/output <- inception_3b/5x5
I0522 15:29:58.447263  7874 net.cpp:425] inception_3b/output <- inception_3b/pool_proj
I0522 15:29:58.447269  7874 net.cpp:399] inception_3b/output -> inception_3b/output
I0522 15:29:58.447301  7874 net.cpp:141] Setting up inception_3b/output
I0522 15:29:58.447314  7874 net.cpp:148] Top shape: 32 480 28 28 (12042240)
I0522 15:29:58.447324  7874 net.cpp:156] Memory required for data: 1098944384
I0522 15:29:58.447337  7874 layer_factory.hpp:77] Creating layer pool3/3x3_s2
I0522 15:29:58.447345  7874 net.cpp:91] Creating Layer pool3/3x3_s2
I0522 15:29:58.447351  7874 net.cpp:425] pool3/3x3_s2 <- inception_3b/output
I0522 15:29:58.447361  7874 net.cpp:399] pool3/3x3_s2 -> pool3/3x3_s2
I0522 15:29:58.447405  7874 net.cpp:141] Setting up pool3/3x3_s2
I0522 15:29:58.447417  7874 net.cpp:148] Top shape: 32 480 14 14 (3010560)
I0522 15:29:58.447422  7874 net.cpp:156] Memory required for data: 1110986624
I0522 15:29:58.447428  7874 layer_factory.hpp:77] Creating layer pool3/3x3_s2_pool3/3x3_s2_0_split
I0522 15:29:58.447443  7874 net.cpp:91] Creating Layer pool3/3x3_s2_pool3/3x3_s2_0_split
I0522 15:29:58.447448  7874 net.cpp:425] pool3/3x3_s2_pool3/3x3_s2_0_split <- pool3/3x3_s2
I0522 15:29:58.447491  7874 net.cpp:399] pool3/3x3_s2_pool3/3x3_s2_0_split -> pool3/3x3_s2_pool3/3x3_s2_0_split_0
I0522 15:29:58.447511  7874 net.cpp:399] pool3/3x3_s2_pool3/3x3_s2_0_split -> pool3/3x3_s2_pool3/3x3_s2_0_split_1
I0522 15:29:58.447522  7874 net.cpp:399] pool3/3x3_s2_pool3/3x3_s2_0_split -> pool3/3x3_s2_pool3/3x3_s2_0_split_2
I0522 15:29:58.447532  7874 net.cpp:399] pool3/3x3_s2_pool3/3x3_s2_0_split -> pool3/3x3_s2_pool3/3x3_s2_0_split_3
I0522 15:29:58.447607  7874 net.cpp:141] Setting up pool3/3x3_s2_pool3/3x3_s2_0_split
I0522 15:29:58.447620  7874 net.cpp:148] Top shape: 32 480 14 14 (3010560)
I0522 15:29:58.447628  7874 net.cpp:148] Top shape: 32 480 14 14 (3010560)
I0522 15:29:58.447633  7874 net.cpp:148] Top shape: 32 480 14 14 (3010560)
I0522 15:29:58.447639  7874 net.cpp:148] Top shape: 32 480 14 14 (3010560)
I0522 15:29:58.447644  7874 net.cpp:156] Memory required for data: 1159155584
I0522 15:29:58.447649  7874 layer_factory.hpp:77] Creating layer inception_4a/1x1
I0522 15:29:58.447664  7874 net.cpp:91] Creating Layer inception_4a/1x1
I0522 15:29:58.447670  7874 net.cpp:425] inception_4a/1x1 <- pool3/3x3_s2_pool3/3x3_s2_0_split_0
I0522 15:29:58.447680  7874 net.cpp:399] inception_4a/1x1 -> inception_4a/1x1
I0522 15:29:58.448783  7874 net.cpp:141] Setting up inception_4a/1x1
I0522 15:29:58.448813  7874 net.cpp:148] Top shape: 32 192 14 14 (1204224)
I0522 15:29:58.448818  7874 net.cpp:156] Memory required for data: 1163972480
I0522 15:29:58.448832  7874 layer_factory.hpp:77] Creating layer inception_4a/relu_1x1
I0522 15:29:58.448844  7874 net.cpp:91] Creating Layer inception_4a/relu_1x1
I0522 15:29:58.448851  7874 net.cpp:425] inception_4a/relu_1x1 <- inception_4a/1x1
I0522 15:29:58.448860  7874 net.cpp:386] inception_4a/relu_1x1 -> inception_4a/1x1 (in-place)
I0522 15:29:58.448873  7874 net.cpp:141] Setting up inception_4a/relu_1x1
I0522 15:29:58.448879  7874 net.cpp:148] Top shape: 32 192 14 14 (1204224)
I0522 15:29:58.448884  7874 net.cpp:156] Memory required for data: 1168789376
I0522 15:29:58.448889  7874 layer_factory.hpp:77] Creating layer inception_4a/3x3_reduce
I0522 15:29:58.448900  7874 net.cpp:91] Creating Layer inception_4a/3x3_reduce
I0522 15:29:58.448907  7874 net.cpp:425] inception_4a/3x3_reduce <- pool3/3x3_s2_pool3/3x3_s2_0_split_1
I0522 15:29:58.448915  7874 net.cpp:399] inception_4a/3x3_reduce -> inception_4a/3x3_reduce
I0522 15:29:58.449558  7874 net.cpp:141] Setting up inception_4a/3x3_reduce
I0522 15:29:58.449575  7874 net.cpp:148] Top shape: 32 96 14 14 (602112)
I0522 15:29:58.449580  7874 net.cpp:156] Memory required for data: 1171197824
I0522 15:29:58.449599  7874 layer_factory.hpp:77] Creating layer inception_4a/relu_3x3_reduce
I0522 15:29:58.449609  7874 net.cpp:91] Creating Layer inception_4a/relu_3x3_reduce
I0522 15:29:58.449616  7874 net.cpp:425] inception_4a/relu_3x3_reduce <- inception_4a/3x3_reduce
I0522 15:29:58.449623  7874 net.cpp:386] inception_4a/relu_3x3_reduce -> inception_4a/3x3_reduce (in-place)
I0522 15:29:58.449632  7874 net.cpp:141] Setting up inception_4a/relu_3x3_reduce
I0522 15:29:58.449640  7874 net.cpp:148] Top shape: 32 96 14 14 (602112)
I0522 15:29:58.449643  7874 net.cpp:156] Memory required for data: 1173606272
I0522 15:29:58.449648  7874 layer_factory.hpp:77] Creating layer inception_4a/3x3
I0522 15:29:58.449659  7874 net.cpp:91] Creating Layer inception_4a/3x3
I0522 15:29:58.449666  7874 net.cpp:425] inception_4a/3x3 <- inception_4a/3x3_reduce
I0522 15:29:58.449673  7874 net.cpp:399] inception_4a/3x3 -> inception_4a/3x3
I0522 15:29:58.452303  7874 net.cpp:141] Setting up inception_4a/3x3
I0522 15:29:58.452366  7874 net.cpp:148] Top shape: 32 208 14 14 (1304576)
I0522 15:29:58.452373  7874 net.cpp:156] Memory required for data: 1178824576
I0522 15:29:58.452392  7874 layer_factory.hpp:77] Creating layer inception_4a/relu_3x3
I0522 15:29:58.452422  7874 net.cpp:91] Creating Layer inception_4a/relu_3x3
I0522 15:29:58.452438  7874 net.cpp:425] inception_4a/relu_3x3 <- inception_4a/3x3
I0522 15:29:58.452453  7874 net.cpp:386] inception_4a/relu_3x3 -> inception_4a/3x3 (in-place)
I0522 15:29:58.452471  7874 net.cpp:141] Setting up inception_4a/relu_3x3
I0522 15:29:58.452479  7874 net.cpp:148] Top shape: 32 208 14 14 (1304576)
I0522 15:29:58.452484  7874 net.cpp:156] Memory required for data: 1184042880
I0522 15:29:58.452489  7874 layer_factory.hpp:77] Creating layer inception_4a/5x5_reduce
I0522 15:29:58.452507  7874 net.cpp:91] Creating Layer inception_4a/5x5_reduce
I0522 15:29:58.452517  7874 net.cpp:425] inception_4a/5x5_reduce <- pool3/3x3_s2_pool3/3x3_s2_0_split_2
I0522 15:29:58.452527  7874 net.cpp:399] inception_4a/5x5_reduce -> inception_4a/5x5_reduce
I0522 15:29:58.452911  7874 net.cpp:141] Setting up inception_4a/5x5_reduce
I0522 15:29:58.452939  7874 net.cpp:148] Top shape: 32 16 14 14 (100352)
I0522 15:29:58.452947  7874 net.cpp:156] Memory required for data: 1184444288
I0522 15:29:58.452966  7874 layer_factory.hpp:77] Creating layer inception_4a/relu_5x5_reduce
I0522 15:29:58.452986  7874 net.cpp:91] Creating Layer inception_4a/relu_5x5_reduce
I0522 15:29:58.452998  7874 net.cpp:425] inception_4a/relu_5x5_reduce <- inception_4a/5x5_reduce
I0522 15:29:58.453014  7874 net.cpp:386] inception_4a/relu_5x5_reduce -> inception_4a/5x5_reduce (in-place)
I0522 15:29:58.453034  7874 net.cpp:141] Setting up inception_4a/relu_5x5_reduce
I0522 15:29:58.453047  7874 net.cpp:148] Top shape: 32 16 14 14 (100352)
I0522 15:29:58.453059  7874 net.cpp:156] Memory required for data: 1184845696
I0522 15:29:58.453069  7874 layer_factory.hpp:77] Creating layer inception_4a/5x5
I0522 15:29:58.453094  7874 net.cpp:91] Creating Layer inception_4a/5x5
I0522 15:29:58.453105  7874 net.cpp:425] inception_4a/5x5 <- inception_4a/5x5_reduce
I0522 15:29:58.453124  7874 net.cpp:399] inception_4a/5x5 -> inception_4a/5x5
I0522 15:29:58.453686  7874 net.cpp:141] Setting up inception_4a/5x5
I0522 15:29:58.453703  7874 net.cpp:148] Top shape: 32 48 14 14 (301056)
I0522 15:29:58.453709  7874 net.cpp:156] Memory required for data: 1186049920
I0522 15:29:58.453718  7874 layer_factory.hpp:77] Creating layer inception_4a/relu_5x5
I0522 15:29:58.453732  7874 net.cpp:91] Creating Layer inception_4a/relu_5x5
I0522 15:29:58.453738  7874 net.cpp:425] inception_4a/relu_5x5 <- inception_4a/5x5
I0522 15:29:58.453745  7874 net.cpp:386] inception_4a/relu_5x5 -> inception_4a/5x5 (in-place)
I0522 15:29:58.453754  7874 net.cpp:141] Setting up inception_4a/relu_5x5
I0522 15:29:58.453761  7874 net.cpp:148] Top shape: 32 48 14 14 (301056)
I0522 15:29:58.453766  7874 net.cpp:156] Memory required for data: 1187254144
I0522 15:29:58.453770  7874 layer_factory.hpp:77] Creating layer inception_4a/pool
I0522 15:29:58.453785  7874 net.cpp:91] Creating Layer inception_4a/pool
I0522 15:29:58.453793  7874 net.cpp:425] inception_4a/pool <- pool3/3x3_s2_pool3/3x3_s2_0_split_3
I0522 15:29:58.453800  7874 net.cpp:399] inception_4a/pool -> inception_4a/pool
I0522 15:29:58.453855  7874 net.cpp:141] Setting up inception_4a/pool
I0522 15:29:58.453868  7874 net.cpp:148] Top shape: 32 480 14 14 (3010560)
I0522 15:29:58.453876  7874 net.cpp:156] Memory required for data: 1199296384
I0522 15:29:58.453881  7874 layer_factory.hpp:77] Creating layer inception_4a/pool_proj
I0522 15:29:58.453896  7874 net.cpp:91] Creating Layer inception_4a/pool_proj
I0522 15:29:58.453902  7874 net.cpp:425] inception_4a/pool_proj <- inception_4a/pool
I0522 15:29:58.453913  7874 net.cpp:399] inception_4a/pool_proj -> inception_4a/pool_proj
I0522 15:29:58.457814  7874 net.cpp:141] Setting up inception_4a/pool_proj
I0522 15:29:58.457881  7874 net.cpp:148] Top shape: 32 64 14 14 (401408)
I0522 15:29:58.457911  7874 net.cpp:156] Memory required for data: 1200902016
I0522 15:29:58.457950  7874 layer_factory.hpp:77] Creating layer inception_4a/relu_pool_proj
I0522 15:29:58.457983  7874 net.cpp:91] Creating Layer inception_4a/relu_pool_proj
I0522 15:29:58.458006  7874 net.cpp:425] inception_4a/relu_pool_proj <- inception_4a/pool_proj
I0522 15:29:58.458040  7874 net.cpp:386] inception_4a/relu_pool_proj -> inception_4a/pool_proj (in-place)
I0522 15:29:58.458084  7874 net.cpp:141] Setting up inception_4a/relu_pool_proj
I0522 15:29:58.458106  7874 net.cpp:148] Top shape: 32 64 14 14 (401408)
I0522 15:29:58.458119  7874 net.cpp:156] Memory required for data: 1202507648
I0522 15:29:58.458135  7874 layer_factory.hpp:77] Creating layer inception_4a/output
I0522 15:29:58.458178  7874 net.cpp:91] Creating Layer inception_4a/output
I0522 15:29:58.458197  7874 net.cpp:425] inception_4a/output <- inception_4a/1x1
I0522 15:29:58.458219  7874 net.cpp:425] inception_4a/output <- inception_4a/3x3
I0522 15:29:58.458237  7874 net.cpp:425] inception_4a/output <- inception_4a/5x5
I0522 15:29:58.458256  7874 net.cpp:425] inception_4a/output <- inception_4a/pool_proj
I0522 15:29:58.458289  7874 net.cpp:399] inception_4a/output -> inception_4a/output
I0522 15:29:58.458403  7874 net.cpp:141] Setting up inception_4a/output
I0522 15:29:58.458441  7874 net.cpp:148] Top shape: 32 512 14 14 (3211264)
I0522 15:29:58.458458  7874 net.cpp:156] Memory required for data: 1215352704
I0522 15:29:58.458478  7874 layer_factory.hpp:77] Creating layer inception_4a/output_inception_4a/output_0_split
I0522 15:29:58.458509  7874 net.cpp:91] Creating Layer inception_4a/output_inception_4a/output_0_split
I0522 15:29:58.458530  7874 net.cpp:425] inception_4a/output_inception_4a/output_0_split <- inception_4a/output
I0522 15:29:58.458560  7874 net.cpp:399] inception_4a/output_inception_4a/output_0_split -> inception_4a/output_inception_4a/output_0_split_0
I0522 15:29:58.458621  7874 net.cpp:399] inception_4a/output_inception_4a/output_0_split -> inception_4a/output_inception_4a/output_0_split_1
I0522 15:29:58.458657  7874 net.cpp:399] inception_4a/output_inception_4a/output_0_split -> inception_4a/output_inception_4a/output_0_split_2
I0522 15:29:58.458703  7874 net.cpp:399] inception_4a/output_inception_4a/output_0_split -> inception_4a/output_inception_4a/output_0_split_3
I0522 15:29:58.458745  7874 net.cpp:399] inception_4a/output_inception_4a/output_0_split -> inception_4a/output_inception_4a/output_0_split_4
I0522 15:29:58.458978  7874 net.cpp:141] Setting up inception_4a/output_inception_4a/output_0_split
I0522 15:29:58.459028  7874 net.cpp:148] Top shape: 32 512 14 14 (3211264)
I0522 15:29:58.459048  7874 net.cpp:148] Top shape: 32 512 14 14 (3211264)
I0522 15:29:58.459065  7874 net.cpp:148] Top shape: 32 512 14 14 (3211264)
I0522 15:29:58.459095  7874 net.cpp:148] Top shape: 32 512 14 14 (3211264)
I0522 15:29:58.459111  7874 net.cpp:148] Top shape: 32 512 14 14 (3211264)
I0522 15:29:58.459125  7874 net.cpp:156] Memory required for data: 1279577984
I0522 15:29:58.459141  7874 layer_factory.hpp:77] Creating layer loss1/ave_pool
I0522 15:29:58.459187  7874 net.cpp:91] Creating Layer loss1/ave_pool
I0522 15:29:58.459208  7874 net.cpp:425] loss1/ave_pool <- inception_4a/output_inception_4a/output_0_split_0
I0522 15:29:58.459239  7874 net.cpp:399] loss1/ave_pool -> loss1/ave_pool
I0522 15:29:58.459334  7874 net.cpp:141] Setting up loss1/ave_pool
I0522 15:29:58.459398  7874 net.cpp:148] Top shape: 32 512 4 4 (262144)
I0522 15:29:58.459415  7874 net.cpp:156] Memory required for data: 1280626560
I0522 15:29:58.459431  7874 layer_factory.hpp:77] Creating layer loss1/conv
I0522 15:29:58.459491  7874 net.cpp:91] Creating Layer loss1/conv
I0522 15:29:58.459514  7874 net.cpp:425] loss1/conv <- loss1/ave_pool
I0522 15:29:58.459556  7874 net.cpp:399] loss1/conv -> loss1/conv
I0522 15:29:58.461320  7874 net.cpp:141] Setting up loss1/conv
I0522 15:29:58.461405  7874 net.cpp:148] Top shape: 32 128 4 4 (65536)
I0522 15:29:58.461418  7874 net.cpp:156] Memory required for data: 1280888704
I0522 15:29:58.461452  7874 layer_factory.hpp:77] Creating layer loss1/relu_conv
I0522 15:29:58.461499  7874 net.cpp:91] Creating Layer loss1/relu_conv
I0522 15:29:58.461524  7874 net.cpp:425] loss1/relu_conv <- loss1/conv
I0522 15:29:58.461549  7874 net.cpp:386] loss1/relu_conv -> loss1/conv (in-place)
I0522 15:29:58.461578  7874 net.cpp:141] Setting up loss1/relu_conv
I0522 15:29:58.461601  7874 net.cpp:148] Top shape: 32 128 4 4 (65536)
I0522 15:29:58.461630  7874 net.cpp:156] Memory required for data: 1281150848
I0522 15:29:58.461645  7874 layer_factory.hpp:77] Creating layer loss1/fc
I0522 15:29:58.461694  7874 net.cpp:91] Creating Layer loss1/fc
I0522 15:29:58.461725  7874 net.cpp:425] loss1/fc <- loss1/conv
I0522 15:29:58.461766  7874 net.cpp:399] loss1/fc -> loss1/fc
I0522 15:29:58.493433  7874 net.cpp:141] Setting up loss1/fc
I0522 15:29:58.493518  7874 net.cpp:148] Top shape: 32 1024 (32768)
I0522 15:29:58.493526  7874 net.cpp:156] Memory required for data: 1281281920
I0522 15:29:58.493552  7874 layer_factory.hpp:77] Creating layer loss1/relu_fc
I0522 15:29:58.493582  7874 net.cpp:91] Creating Layer loss1/relu_fc
I0522 15:29:58.493598  7874 net.cpp:425] loss1/relu_fc <- loss1/fc
I0522 15:29:58.493628  7874 net.cpp:386] loss1/relu_fc -> loss1/fc (in-place)
I0522 15:29:58.493655  7874 net.cpp:141] Setting up loss1/relu_fc
I0522 15:29:58.493674  7874 net.cpp:148] Top shape: 32 1024 (32768)
I0522 15:29:58.493683  7874 net.cpp:156] Memory required for data: 1281412992
I0522 15:29:58.493693  7874 layer_factory.hpp:77] Creating layer loss1/drop_fc
I0522 15:29:58.493782  7874 net.cpp:91] Creating Layer loss1/drop_fc
I0522 15:29:58.493806  7874 net.cpp:425] loss1/drop_fc <- loss1/fc
I0522 15:29:58.493823  7874 net.cpp:386] loss1/drop_fc -> loss1/fc (in-place)
I0522 15:29:58.493928  7874 net.cpp:141] Setting up loss1/drop_fc
I0522 15:29:58.493957  7874 net.cpp:148] Top shape: 32 1024 (32768)
I0522 15:29:58.493964  7874 net.cpp:156] Memory required for data: 1281544064
I0522 15:29:58.493975  7874 layer_factory.hpp:77] Creating layer loss1/classifier
I0522 15:29:58.494002  7874 net.cpp:91] Creating Layer loss1/classifier
I0522 15:29:58.494011  7874 net.cpp:425] loss1/classifier <- loss1/fc
I0522 15:29:58.494029  7874 net.cpp:399] loss1/classifier -> loss1/classifier
I0522 15:29:58.496948  7874 net.cpp:141] Setting up loss1/classifier
I0522 15:29:58.496991  7874 net.cpp:148] Top shape: 32 100 (3200)
I0522 15:29:58.496997  7874 net.cpp:156] Memory required for data: 1281556864
I0522 15:29:58.497011  7874 layer_factory.hpp:77] Creating layer loss1/loss1
I0522 15:29:58.497030  7874 net.cpp:91] Creating Layer loss1/loss1
I0522 15:29:58.497040  7874 net.cpp:425] loss1/loss1 <- loss1/classifier
I0522 15:29:58.497048  7874 net.cpp:425] loss1/loss1 <- label_data_1_split_0
I0522 15:29:58.497056  7874 net.cpp:399] loss1/loss1 -> loss1/loss1
I0522 15:29:58.497090  7874 layer_factory.hpp:77] Creating layer loss1/loss1
I0522 15:29:58.497267  7874 net.cpp:141] Setting up loss1/loss1
I0522 15:29:58.497288  7874 net.cpp:148] Top shape: (1)
I0522 15:29:58.497297  7874 net.cpp:151]     with loss weight 1
I0522 15:29:58.497325  7874 net.cpp:156] Memory required for data: 1281556868
I0522 15:29:58.497334  7874 layer_factory.hpp:77] Creating layer inception_4b/1x1
I0522 15:29:58.497359  7874 net.cpp:91] Creating Layer inception_4b/1x1
I0522 15:29:58.497370  7874 net.cpp:425] inception_4b/1x1 <- inception_4a/output_inception_4a/output_0_split_1
I0522 15:29:58.497382  7874 net.cpp:399] inception_4b/1x1 -> inception_4b/1x1
I0522 15:29:58.498845  7874 net.cpp:141] Setting up inception_4b/1x1
I0522 15:29:58.498872  7874 net.cpp:148] Top shape: 32 160 14 14 (1003520)
I0522 15:29:58.498883  7874 net.cpp:156] Memory required for data: 1285570948
I0522 15:29:58.498898  7874 layer_factory.hpp:77] Creating layer inception_4b/relu_1x1
I0522 15:29:58.498917  7874 net.cpp:91] Creating Layer inception_4b/relu_1x1
I0522 15:29:58.498929  7874 net.cpp:425] inception_4b/relu_1x1 <- inception_4b/1x1
I0522 15:29:58.498940  7874 net.cpp:386] inception_4b/relu_1x1 -> inception_4b/1x1 (in-place)
I0522 15:29:58.498955  7874 net.cpp:141] Setting up inception_4b/relu_1x1
I0522 15:29:58.498965  7874 net.cpp:148] Top shape: 32 160 14 14 (1003520)
I0522 15:29:58.498972  7874 net.cpp:156] Memory required for data: 1289585028
I0522 15:29:58.499006  7874 layer_factory.hpp:77] Creating layer inception_4b/3x3_reduce
I0522 15:29:58.499023  7874 net.cpp:91] Creating Layer inception_4b/3x3_reduce
I0522 15:29:58.499032  7874 net.cpp:425] inception_4b/3x3_reduce <- inception_4a/output_inception_4a/output_0_split_2
I0522 15:29:58.499047  7874 net.cpp:399] inception_4b/3x3_reduce -> inception_4b/3x3_reduce
I0522 15:29:58.501325  7874 net.cpp:141] Setting up inception_4b/3x3_reduce
I0522 15:29:58.501363  7874 net.cpp:148] Top shape: 32 112 14 14 (702464)
I0522 15:29:58.501372  7874 net.cpp:156] Memory required for data: 1292394884
I0522 15:29:58.501389  7874 layer_factory.hpp:77] Creating layer inception_4b/relu_3x3_reduce
I0522 15:29:58.501405  7874 net.cpp:91] Creating Layer inception_4b/relu_3x3_reduce
I0522 15:29:58.501420  7874 net.cpp:425] inception_4b/relu_3x3_reduce <- inception_4b/3x3_reduce
I0522 15:29:58.501433  7874 net.cpp:386] inception_4b/relu_3x3_reduce -> inception_4b/3x3_reduce (in-place)
I0522 15:29:58.501453  7874 net.cpp:141] Setting up inception_4b/relu_3x3_reduce
I0522 15:29:58.501471  7874 net.cpp:148] Top shape: 32 112 14 14 (702464)
I0522 15:29:58.501479  7874 net.cpp:156] Memory required for data: 1295204740
I0522 15:29:58.501488  7874 layer_factory.hpp:77] Creating layer inception_4b/3x3
I0522 15:29:58.501513  7874 net.cpp:91] Creating Layer inception_4b/3x3
I0522 15:29:58.501524  7874 net.cpp:425] inception_4b/3x3 <- inception_4b/3x3_reduce
I0522 15:29:58.501540  7874 net.cpp:399] inception_4b/3x3 -> inception_4b/3x3
I0522 15:29:58.506590  7874 net.cpp:141] Setting up inception_4b/3x3
I0522 15:29:58.506676  7874 net.cpp:148] Top shape: 32 224 14 14 (1404928)
I0522 15:29:58.506685  7874 net.cpp:156] Memory required for data: 1300824452
I0522 15:29:58.506721  7874 layer_factory.hpp:77] Creating layer inception_4b/relu_3x3
I0522 15:29:58.506778  7874 net.cpp:91] Creating Layer inception_4b/relu_3x3
I0522 15:29:58.506804  7874 net.cpp:425] inception_4b/relu_3x3 <- inception_4b/3x3
I0522 15:29:58.506836  7874 net.cpp:386] inception_4b/relu_3x3 -> inception_4b/3x3 (in-place)
I0522 15:29:58.506876  7874 net.cpp:141] Setting up inception_4b/relu_3x3
I0522 15:29:58.506886  7874 net.cpp:148] Top shape: 32 224 14 14 (1404928)
I0522 15:29:58.506891  7874 net.cpp:156] Memory required for data: 1306444164
I0522 15:29:58.506897  7874 layer_factory.hpp:77] Creating layer inception_4b/5x5_reduce
I0522 15:29:58.506935  7874 net.cpp:91] Creating Layer inception_4b/5x5_reduce
I0522 15:29:58.506950  7874 net.cpp:425] inception_4b/5x5_reduce <- inception_4a/output_inception_4a/output_0_split_3
I0522 15:29:58.506963  7874 net.cpp:399] inception_4b/5x5_reduce -> inception_4b/5x5_reduce
I0522 15:29:58.507592  7874 net.cpp:141] Setting up inception_4b/5x5_reduce
I0522 15:29:58.507630  7874 net.cpp:148] Top shape: 32 24 14 14 (150528)
I0522 15:29:58.507638  7874 net.cpp:156] Memory required for data: 1307046276
I0522 15:29:58.507660  7874 layer_factory.hpp:77] Creating layer inception_4b/relu_5x5_reduce
I0522 15:29:58.507678  7874 net.cpp:91] Creating Layer inception_4b/relu_5x5_reduce
I0522 15:29:58.507685  7874 net.cpp:425] inception_4b/relu_5x5_reduce <- inception_4b/5x5_reduce
I0522 15:29:58.507700  7874 net.cpp:386] inception_4b/relu_5x5_reduce -> inception_4b/5x5_reduce (in-place)
I0522 15:29:58.507714  7874 net.cpp:141] Setting up inception_4b/relu_5x5_reduce
I0522 15:29:58.507720  7874 net.cpp:148] Top shape: 32 24 14 14 (150528)
I0522 15:29:58.507725  7874 net.cpp:156] Memory required for data: 1307648388
I0522 15:29:58.507731  7874 layer_factory.hpp:77] Creating layer inception_4b/5x5
I0522 15:29:58.507750  7874 net.cpp:91] Creating Layer inception_4b/5x5
I0522 15:29:58.507755  7874 net.cpp:425] inception_4b/5x5 <- inception_4b/5x5_reduce
I0522 15:29:58.507771  7874 net.cpp:399] inception_4b/5x5 -> inception_4b/5x5
I0522 15:29:58.508551  7874 net.cpp:141] Setting up inception_4b/5x5
I0522 15:29:58.508595  7874 net.cpp:148] Top shape: 32 64 14 14 (401408)
I0522 15:29:58.508601  7874 net.cpp:156] Memory required for data: 1309254020
I0522 15:29:58.508615  7874 layer_factory.hpp:77] Creating layer inception_4b/relu_5x5
I0522 15:29:58.508631  7874 net.cpp:91] Creating Layer inception_4b/relu_5x5
I0522 15:29:58.508640  7874 net.cpp:425] inception_4b/relu_5x5 <- inception_4b/5x5
I0522 15:29:58.508649  7874 net.cpp:386] inception_4b/relu_5x5 -> inception_4b/5x5 (in-place)
I0522 15:29:58.508666  7874 net.cpp:141] Setting up inception_4b/relu_5x5
I0522 15:29:58.508673  7874 net.cpp:148] Top shape: 32 64 14 14 (401408)
I0522 15:29:58.508680  7874 net.cpp:156] Memory required for data: 1310859652
I0522 15:29:58.508688  7874 layer_factory.hpp:77] Creating layer inception_4b/pool
I0522 15:29:58.508710  7874 net.cpp:91] Creating Layer inception_4b/pool
I0522 15:29:58.508718  7874 net.cpp:425] inception_4b/pool <- inception_4a/output_inception_4a/output_0_split_4
I0522 15:29:58.508728  7874 net.cpp:399] inception_4b/pool -> inception_4b/pool
I0522 15:29:58.508867  7874 net.cpp:141] Setting up inception_4b/pool
I0522 15:29:58.508890  7874 net.cpp:148] Top shape: 32 512 14 14 (3211264)
I0522 15:29:58.508895  7874 net.cpp:156] Memory required for data: 1323704708
I0522 15:29:58.508901  7874 layer_factory.hpp:77] Creating layer inception_4b/pool_proj
I0522 15:29:58.508927  7874 net.cpp:91] Creating Layer inception_4b/pool_proj
I0522 15:29:58.508940  7874 net.cpp:425] inception_4b/pool_proj <- inception_4b/pool
I0522 15:29:58.508961  7874 net.cpp:399] inception_4b/pool_proj -> inception_4b/pool_proj
I0522 15:29:58.509637  7874 net.cpp:141] Setting up inception_4b/pool_proj
I0522 15:29:58.509687  7874 net.cpp:148] Top shape: 32 64 14 14 (401408)
I0522 15:29:58.509693  7874 net.cpp:156] Memory required for data: 1325310340
I0522 15:29:58.509706  7874 layer_factory.hpp:77] Creating layer inception_4b/relu_pool_proj
I0522 15:29:58.509723  7874 net.cpp:91] Creating Layer inception_4b/relu_pool_proj
I0522 15:29:58.509732  7874 net.cpp:425] inception_4b/relu_pool_proj <- inception_4b/pool_proj
I0522 15:29:58.509739  7874 net.cpp:386] inception_4b/relu_pool_proj -> inception_4b/pool_proj (in-place)
I0522 15:29:58.509755  7874 net.cpp:141] Setting up inception_4b/relu_pool_proj
I0522 15:29:58.509763  7874 net.cpp:148] Top shape: 32 64 14 14 (401408)
I0522 15:29:58.509766  7874 net.cpp:156] Memory required for data: 1326915972
I0522 15:29:58.509771  7874 layer_factory.hpp:77] Creating layer inception_4b/output
I0522 15:29:58.509789  7874 net.cpp:91] Creating Layer inception_4b/output
I0522 15:29:58.509795  7874 net.cpp:425] inception_4b/output <- inception_4b/1x1
I0522 15:29:58.509809  7874 net.cpp:425] inception_4b/output <- inception_4b/3x3
I0522 15:29:58.509819  7874 net.cpp:425] inception_4b/output <- inception_4b/5x5
I0522 15:29:58.509824  7874 net.cpp:425] inception_4b/output <- inception_4b/pool_proj
I0522 15:29:58.509832  7874 net.cpp:399] inception_4b/output -> inception_4b/output
I0522 15:29:58.509884  7874 net.cpp:141] Setting up inception_4b/output
I0522 15:29:58.509902  7874 net.cpp:148] Top shape: 32 512 14 14 (3211264)
I0522 15:29:58.509907  7874 net.cpp:156] Memory required for data: 1339761028
I0522 15:29:58.509912  7874 layer_factory.hpp:77] Creating layer inception_4b/output_inception_4b/output_0_split
I0522 15:29:58.509949  7874 net.cpp:91] Creating Layer inception_4b/output_inception_4b/output_0_split
I0522 15:29:58.509956  7874 net.cpp:425] inception_4b/output_inception_4b/output_0_split <- inception_4b/output
I0522 15:29:58.509964  7874 net.cpp:399] inception_4b/output_inception_4b/output_0_split -> inception_4b/output_inception_4b/output_0_split_0
I0522 15:29:58.509976  7874 net.cpp:399] inception_4b/output_inception_4b/output_0_split -> inception_4b/output_inception_4b/output_0_split_1
I0522 15:29:58.509985  7874 net.cpp:399] inception_4b/output_inception_4b/output_0_split -> inception_4b/output_inception_4b/output_0_split_2
I0522 15:29:58.509994  7874 net.cpp:399] inception_4b/output_inception_4b/output_0_split -> inception_4b/output_inception_4b/output_0_split_3
I0522 15:29:58.510084  7874 net.cpp:141] Setting up inception_4b/output_inception_4b/output_0_split
I0522 15:29:58.510107  7874 net.cpp:148] Top shape: 32 512 14 14 (3211264)
I0522 15:29:58.510113  7874 net.cpp:148] Top shape: 32 512 14 14 (3211264)
I0522 15:29:58.510119  7874 net.cpp:148] Top shape: 32 512 14 14 (3211264)
I0522 15:29:58.510125  7874 net.cpp:148] Top shape: 32 512 14 14 (3211264)
I0522 15:29:58.510130  7874 net.cpp:156] Memory required for data: 1391141252
I0522 15:29:58.510136  7874 layer_factory.hpp:77] Creating layer inception_4c/1x1
I0522 15:29:58.510162  7874 net.cpp:91] Creating Layer inception_4c/1x1
I0522 15:29:58.510174  7874 net.cpp:425] inception_4c/1x1 <- inception_4b/output_inception_4b/output_0_split_0
I0522 15:29:58.510190  7874 net.cpp:399] inception_4c/1x1 -> inception_4c/1x1
I0522 15:29:58.511245  7874 net.cpp:141] Setting up inception_4c/1x1
I0522 15:29:58.511279  7874 net.cpp:148] Top shape: 32 128 14 14 (802816)
I0522 15:29:58.511287  7874 net.cpp:156] Memory required for data: 1394352516
I0522 15:29:58.511306  7874 layer_factory.hpp:77] Creating layer inception_4c/relu_1x1
I0522 15:29:58.511322  7874 net.cpp:91] Creating Layer inception_4c/relu_1x1
I0522 15:29:58.511328  7874 net.cpp:425] inception_4c/relu_1x1 <- inception_4c/1x1
I0522 15:29:58.511338  7874 net.cpp:386] inception_4c/relu_1x1 -> inception_4c/1x1 (in-place)
I0522 15:29:58.511366  7874 net.cpp:141] Setting up inception_4c/relu_1x1
I0522 15:29:58.511376  7874 net.cpp:148] Top shape: 32 128 14 14 (802816)
I0522 15:29:58.511381  7874 net.cpp:156] Memory required for data: 1397563780
I0522 15:29:58.511387  7874 layer_factory.hpp:77] Creating layer inception_4c/3x3_reduce
I0522 15:29:58.511409  7874 net.cpp:91] Creating Layer inception_4c/3x3_reduce
I0522 15:29:58.511420  7874 net.cpp:425] inception_4c/3x3_reduce <- inception_4b/output_inception_4b/output_0_split_1
I0522 15:29:58.511433  7874 net.cpp:399] inception_4c/3x3_reduce -> inception_4c/3x3_reduce
I0522 15:29:58.512647  7874 net.cpp:141] Setting up inception_4c/3x3_reduce
I0522 15:29:58.512699  7874 net.cpp:148] Top shape: 32 128 14 14 (802816)
I0522 15:29:58.512707  7874 net.cpp:156] Memory required for data: 1400775044
I0522 15:29:58.512725  7874 layer_factory.hpp:77] Creating layer inception_4c/relu_3x3_reduce
I0522 15:29:58.512753  7874 net.cpp:91] Creating Layer inception_4c/relu_3x3_reduce
I0522 15:29:58.512768  7874 net.cpp:425] inception_4c/relu_3x3_reduce <- inception_4c/3x3_reduce
I0522 15:29:58.512784  7874 net.cpp:386] inception_4c/relu_3x3_reduce -> inception_4c/3x3_reduce (in-place)
I0522 15:29:58.512801  7874 net.cpp:141] Setting up inception_4c/relu_3x3_reduce
I0522 15:29:58.512809  7874 net.cpp:148] Top shape: 32 128 14 14 (802816)
I0522 15:29:58.512814  7874 net.cpp:156] Memory required for data: 1403986308
I0522 15:29:58.512818  7874 layer_factory.hpp:77] Creating layer inception_4c/3x3
I0522 15:29:58.512857  7874 net.cpp:91] Creating Layer inception_4c/3x3
I0522 15:29:58.512866  7874 net.cpp:425] inception_4c/3x3 <- inception_4c/3x3_reduce
I0522 15:29:58.512879  7874 net.cpp:399] inception_4c/3x3 -> inception_4c/3x3
I0522 15:29:58.519755  7874 net.cpp:141] Setting up inception_4c/3x3
I0522 15:29:58.519932  7874 net.cpp:148] Top shape: 32 256 14 14 (1605632)
I0522 15:29:58.519969  7874 net.cpp:156] Memory required for data: 1410408836
I0522 15:29:58.520105  7874 layer_factory.hpp:77] Creating layer inception_4c/relu_3x3
I0522 15:29:58.520190  7874 net.cpp:91] Creating Layer inception_4c/relu_3x3
I0522 15:29:58.520242  7874 net.cpp:425] inception_4c/relu_3x3 <- inception_4c/3x3
I0522 15:29:58.520303  7874 net.cpp:386] inception_4c/relu_3x3 -> inception_4c/3x3 (in-place)
I0522 15:29:58.520380  7874 net.cpp:141] Setting up inception_4c/relu_3x3
I0522 15:29:58.520418  7874 net.cpp:148] Top shape: 32 256 14 14 (1605632)
I0522 15:29:58.520431  7874 net.cpp:156] Memory required for data: 1416831364
I0522 15:29:58.520445  7874 layer_factory.hpp:77] Creating layer inception_4c/5x5_reduce
I0522 15:29:58.520509  7874 net.cpp:91] Creating Layer inception_4c/5x5_reduce
I0522 15:29:58.520542  7874 net.cpp:425] inception_4c/5x5_reduce <- inception_4b/output_inception_4b/output_0_split_2
I0522 15:29:58.520615  7874 net.cpp:399] inception_4c/5x5_reduce -> inception_4c/5x5_reduce
I0522 15:29:58.521908  7874 net.cpp:141] Setting up inception_4c/5x5_reduce
I0522 15:29:58.522006  7874 net.cpp:148] Top shape: 32 24 14 14 (150528)
I0522 15:29:58.522027  7874 net.cpp:156] Memory required for data: 1417433476
I0522 15:29:58.522073  7874 layer_factory.hpp:77] Creating layer inception_4c/relu_5x5_reduce
I0522 15:29:58.522127  7874 net.cpp:91] Creating Layer inception_4c/relu_5x5_reduce
I0522 15:29:58.522167  7874 net.cpp:425] inception_4c/relu_5x5_reduce <- inception_4c/5x5_reduce
I0522 15:29:58.522202  7874 net.cpp:386] inception_4c/relu_5x5_reduce -> inception_4c/5x5_reduce (in-place)
I0522 15:29:58.522227  7874 net.cpp:141] Setting up inception_4c/relu_5x5_reduce
I0522 15:29:58.522236  7874 net.cpp:148] Top shape: 32 24 14 14 (150528)
I0522 15:29:58.522240  7874 net.cpp:156] Memory required for data: 1418035588
I0522 15:29:58.522246  7874 layer_factory.hpp:77] Creating layer inception_4c/5x5
I0522 15:29:58.522284  7874 net.cpp:91] Creating Layer inception_4c/5x5
I0522 15:29:58.522311  7874 net.cpp:425] inception_4c/5x5 <- inception_4c/5x5_reduce
I0522 15:29:58.522351  7874 net.cpp:399] inception_4c/5x5 -> inception_4c/5x5
I0522 15:29:58.528033  7874 net.cpp:141] Setting up inception_4c/5x5
I0522 15:29:58.528201  7874 net.cpp:148] Top shape: 32 64 14 14 (401408)
I0522 15:29:58.528211  7874 net.cpp:156] Memory required for data: 1419641220
I0522 15:29:58.528244  7874 layer_factory.hpp:77] Creating layer inception_4c/relu_5x5
I0522 15:29:58.528287  7874 net.cpp:91] Creating Layer inception_4c/relu_5x5
I0522 15:29:58.528307  7874 net.cpp:425] inception_4c/relu_5x5 <- inception_4c/5x5
I0522 15:29:58.528328  7874 net.cpp:386] inception_4c/relu_5x5 -> inception_4c/5x5 (in-place)
I0522 15:29:58.528362  7874 net.cpp:141] Setting up inception_4c/relu_5x5
I0522 15:29:58.528369  7874 net.cpp:148] Top shape: 32 64 14 14 (401408)
I0522 15:29:58.528374  7874 net.cpp:156] Memory required for data: 1421246852
I0522 15:29:58.528379  7874 layer_factory.hpp:77] Creating layer inception_4c/pool
I0522 15:29:58.528404  7874 net.cpp:91] Creating Layer inception_4c/pool
I0522 15:29:58.528415  7874 net.cpp:425] inception_4c/pool <- inception_4b/output_inception_4b/output_0_split_3
I0522 15:29:58.528424  7874 net.cpp:399] inception_4c/pool -> inception_4c/pool
I0522 15:29:58.528524  7874 net.cpp:141] Setting up inception_4c/pool
I0522 15:29:58.528539  7874 net.cpp:148] Top shape: 32 512 14 14 (3211264)
I0522 15:29:58.528544  7874 net.cpp:156] Memory required for data: 1434091908
I0522 15:29:58.528550  7874 layer_factory.hpp:77] Creating layer inception_4c/pool_proj
I0522 15:29:58.528587  7874 net.cpp:91] Creating Layer inception_4c/pool_proj
I0522 15:29:58.528594  7874 net.cpp:425] inception_4c/pool_proj <- inception_4c/pool
I0522 15:29:58.528607  7874 net.cpp:399] inception_4c/pool_proj -> inception_4c/pool_proj
I0522 15:29:58.529207  7874 net.cpp:141] Setting up inception_4c/pool_proj
I0522 15:29:58.529229  7874 net.cpp:148] Top shape: 32 64 14 14 (401408)
I0522 15:29:58.529234  7874 net.cpp:156] Memory required for data: 1435697540
I0522 15:29:58.529244  7874 layer_factory.hpp:77] Creating layer inception_4c/relu_pool_proj
I0522 15:29:58.529259  7874 net.cpp:91] Creating Layer inception_4c/relu_pool_proj
I0522 15:29:58.529266  7874 net.cpp:425] inception_4c/relu_pool_proj <- inception_4c/pool_proj
I0522 15:29:58.529274  7874 net.cpp:386] inception_4c/relu_pool_proj -> inception_4c/pool_proj (in-place)
I0522 15:29:58.529284  7874 net.cpp:141] Setting up inception_4c/relu_pool_proj
I0522 15:29:58.529291  7874 net.cpp:148] Top shape: 32 64 14 14 (401408)
I0522 15:29:58.529295  7874 net.cpp:156] Memory required for data: 1437303172
I0522 15:29:58.529301  7874 layer_factory.hpp:77] Creating layer inception_4c/output
I0522 15:29:58.529311  7874 net.cpp:91] Creating Layer inception_4c/output
I0522 15:29:58.529317  7874 net.cpp:425] inception_4c/output <- inception_4c/1x1
I0522 15:29:58.529325  7874 net.cpp:425] inception_4c/output <- inception_4c/3x3
I0522 15:29:58.529331  7874 net.cpp:425] inception_4c/output <- inception_4c/5x5
I0522 15:29:58.529337  7874 net.cpp:425] inception_4c/output <- inception_4c/pool_proj
I0522 15:29:58.529346  7874 net.cpp:399] inception_4c/output -> inception_4c/output
I0522 15:29:58.529387  7874 net.cpp:141] Setting up inception_4c/output
I0522 15:29:58.529402  7874 net.cpp:148] Top shape: 32 512 14 14 (3211264)
I0522 15:29:58.529407  7874 net.cpp:156] Memory required for data: 1450148228
I0522 15:29:58.529413  7874 layer_factory.hpp:77] Creating layer inception_4c/output_inception_4c/output_0_split
I0522 15:29:58.529431  7874 net.cpp:91] Creating Layer inception_4c/output_inception_4c/output_0_split
I0522 15:29:58.529438  7874 net.cpp:425] inception_4c/output_inception_4c/output_0_split <- inception_4c/output
I0522 15:29:58.529445  7874 net.cpp:399] inception_4c/output_inception_4c/output_0_split -> inception_4c/output_inception_4c/output_0_split_0
I0522 15:29:58.529458  7874 net.cpp:399] inception_4c/output_inception_4c/output_0_split -> inception_4c/output_inception_4c/output_0_split_1
I0522 15:29:58.529469  7874 net.cpp:399] inception_4c/output_inception_4c/output_0_split -> inception_4c/output_inception_4c/output_0_split_2
I0522 15:29:58.529476  7874 net.cpp:399] inception_4c/output_inception_4c/output_0_split -> inception_4c/output_inception_4c/output_0_split_3
I0522 15:29:58.529789  7874 net.cpp:141] Setting up inception_4c/output_inception_4c/output_0_split
I0522 15:29:58.529819  7874 net.cpp:148] Top shape: 32 512 14 14 (3211264)
I0522 15:29:58.529826  7874 net.cpp:148] Top shape: 32 512 14 14 (3211264)
I0522 15:29:58.529832  7874 net.cpp:148] Top shape: 32 512 14 14 (3211264)
I0522 15:29:58.529839  7874 net.cpp:148] Top shape: 32 512 14 14 (3211264)
I0522 15:29:58.529842  7874 net.cpp:156] Memory required for data: 1501528452
I0522 15:29:58.529850  7874 layer_factory.hpp:77] Creating layer inception_4d/1x1
I0522 15:29:58.529888  7874 net.cpp:91] Creating Layer inception_4d/1x1
I0522 15:29:58.529906  7874 net.cpp:425] inception_4d/1x1 <- inception_4c/output_inception_4c/output_0_split_0
I0522 15:29:58.529928  7874 net.cpp:399] inception_4d/1x1 -> inception_4d/1x1
I0522 15:29:58.530956  7874 net.cpp:141] Setting up inception_4d/1x1
I0522 15:29:58.530987  7874 net.cpp:148] Top shape: 32 112 14 14 (702464)
I0522 15:29:58.530998  7874 net.cpp:156] Memory required for data: 1504338308
I0522 15:29:58.531028  7874 layer_factory.hpp:77] Creating layer inception_4d/relu_1x1
I0522 15:29:58.531044  7874 net.cpp:91] Creating Layer inception_4d/relu_1x1
I0522 15:29:58.531051  7874 net.cpp:425] inception_4d/relu_1x1 <- inception_4d/1x1
I0522 15:29:58.531061  7874 net.cpp:386] inception_4d/relu_1x1 -> inception_4d/1x1 (in-place)
I0522 15:29:58.531080  7874 net.cpp:141] Setting up inception_4d/relu_1x1
I0522 15:29:58.531093  7874 net.cpp:148] Top shape: 32 112 14 14 (702464)
I0522 15:29:58.531100  7874 net.cpp:156] Memory required for data: 1507148164
I0522 15:29:58.531105  7874 layer_factory.hpp:77] Creating layer inception_4d/3x3_reduce
I0522 15:29:58.531127  7874 net.cpp:91] Creating Layer inception_4d/3x3_reduce
I0522 15:29:58.531142  7874 net.cpp:425] inception_4d/3x3_reduce <- inception_4c/output_inception_4c/output_0_split_1
I0522 15:29:58.531154  7874 net.cpp:399] inception_4d/3x3_reduce -> inception_4d/3x3_reduce
I0522 15:29:58.532457  7874 net.cpp:141] Setting up inception_4d/3x3_reduce
I0522 15:29:58.532532  7874 net.cpp:148] Top shape: 32 144 14 14 (903168)
I0522 15:29:58.532546  7874 net.cpp:156] Memory required for data: 1510760836
I0522 15:29:58.532578  7874 layer_factory.hpp:77] Creating layer inception_4d/relu_3x3_reduce
I0522 15:29:58.532600  7874 net.cpp:91] Creating Layer inception_4d/relu_3x3_reduce
I0522 15:29:58.532611  7874 net.cpp:425] inception_4d/relu_3x3_reduce <- inception_4d/3x3_reduce
I0522 15:29:58.532624  7874 net.cpp:386] inception_4d/relu_3x3_reduce -> inception_4d/3x3_reduce (in-place)
I0522 15:29:58.532640  7874 net.cpp:141] Setting up inception_4d/relu_3x3_reduce
I0522 15:29:58.532656  7874 net.cpp:148] Top shape: 32 144 14 14 (903168)
I0522 15:29:58.532666  7874 net.cpp:156] Memory required for data: 1514373508
I0522 15:29:58.532673  7874 layer_factory.hpp:77] Creating layer inception_4d/3x3
I0522 15:29:58.532696  7874 net.cpp:91] Creating Layer inception_4d/3x3
I0522 15:29:58.532703  7874 net.cpp:425] inception_4d/3x3 <- inception_4d/3x3_reduce
I0522 15:29:58.532721  7874 net.cpp:399] inception_4d/3x3 -> inception_4d/3x3
I0522 15:29:58.537328  7874 net.cpp:141] Setting up inception_4d/3x3
I0522 15:29:58.537375  7874 net.cpp:148] Top shape: 32 288 14 14 (1806336)
I0522 15:29:58.537382  7874 net.cpp:156] Memory required for data: 1521598852
I0522 15:29:58.537396  7874 layer_factory.hpp:77] Creating layer inception_4d/relu_3x3
I0522 15:29:58.537410  7874 net.cpp:91] Creating Layer inception_4d/relu_3x3
I0522 15:29:58.537420  7874 net.cpp:425] inception_4d/relu_3x3 <- inception_4d/3x3
I0522 15:29:58.537430  7874 net.cpp:386] inception_4d/relu_3x3 -> inception_4d/3x3 (in-place)
I0522 15:29:58.537444  7874 net.cpp:141] Setting up inception_4d/relu_3x3
I0522 15:29:58.537452  7874 net.cpp:148] Top shape: 32 288 14 14 (1806336)
I0522 15:29:58.537457  7874 net.cpp:156] Memory required for data: 1528824196
I0522 15:29:58.537462  7874 layer_factory.hpp:77] Creating layer inception_4d/5x5_reduce
I0522 15:29:58.537477  7874 net.cpp:91] Creating Layer inception_4d/5x5_reduce
I0522 15:29:58.537484  7874 net.cpp:425] inception_4d/5x5_reduce <- inception_4c/output_inception_4c/output_0_split_2
I0522 15:29:58.537497  7874 net.cpp:399] inception_4d/5x5_reduce -> inception_4d/5x5_reduce
I0522 15:29:58.538091  7874 net.cpp:141] Setting up inception_4d/5x5_reduce
I0522 15:29:58.538112  7874 net.cpp:148] Top shape: 32 32 14 14 (200704)
I0522 15:29:58.538123  7874 net.cpp:156] Memory required for data: 1529627012
I0522 15:29:58.538166  7874 layer_factory.hpp:77] Creating layer inception_4d/relu_5x5_reduce
I0522 15:29:58.538182  7874 net.cpp:91] Creating Layer inception_4d/relu_5x5_reduce
I0522 15:29:58.538197  7874 net.cpp:425] inception_4d/relu_5x5_reduce <- inception_4d/5x5_reduce
I0522 15:29:58.538233  7874 net.cpp:386] inception_4d/relu_5x5_reduce -> inception_4d/5x5_reduce (in-place)
I0522 15:29:58.538254  7874 net.cpp:141] Setting up inception_4d/relu_5x5_reduce
I0522 15:29:58.538277  7874 net.cpp:148] Top shape: 32 32 14 14 (200704)
I0522 15:29:58.538292  7874 net.cpp:156] Memory required for data: 1530429828
I0522 15:29:58.538305  7874 layer_factory.hpp:77] Creating layer inception_4d/5x5
I0522 15:29:58.538336  7874 net.cpp:91] Creating Layer inception_4d/5x5
I0522 15:29:58.538349  7874 net.cpp:425] inception_4d/5x5 <- inception_4d/5x5_reduce
I0522 15:29:58.538372  7874 net.cpp:399] inception_4d/5x5 -> inception_4d/5x5
I0522 15:29:58.539285  7874 net.cpp:141] Setting up inception_4d/5x5
I0522 15:29:58.539332  7874 net.cpp:148] Top shape: 32 64 14 14 (401408)
I0522 15:29:58.539356  7874 net.cpp:156] Memory required for data: 1532035460
I0522 15:29:58.539379  7874 layer_factory.hpp:77] Creating layer inception_4d/relu_5x5
I0522 15:29:58.539405  7874 net.cpp:91] Creating Layer inception_4d/relu_5x5
I0522 15:29:58.539443  7874 net.cpp:425] inception_4d/relu_5x5 <- inception_4d/5x5
I0522 15:29:58.539533  7874 net.cpp:386] inception_4d/relu_5x5 -> inception_4d/5x5 (in-place)
I0522 15:29:58.539556  7874 net.cpp:141] Setting up inception_4d/relu_5x5
I0522 15:29:58.539572  7874 net.cpp:148] Top shape: 32 64 14 14 (401408)
I0522 15:29:58.539611  7874 net.cpp:156] Memory required for data: 1533641092
I0522 15:29:58.539647  7874 layer_factory.hpp:77] Creating layer inception_4d/pool
I0522 15:29:58.539707  7874 net.cpp:91] Creating Layer inception_4d/pool
I0522 15:29:58.539753  7874 net.cpp:425] inception_4d/pool <- inception_4c/output_inception_4c/output_0_split_3
I0522 15:29:58.539773  7874 net.cpp:399] inception_4d/pool -> inception_4d/pool
I0522 15:29:58.539865  7874 net.cpp:141] Setting up inception_4d/pool
I0522 15:29:58.539914  7874 net.cpp:148] Top shape: 32 512 14 14 (3211264)
I0522 15:29:58.539955  7874 net.cpp:156] Memory required for data: 1546486148
I0522 15:29:58.539991  7874 layer_factory.hpp:77] Creating layer inception_4d/pool_proj
I0522 15:29:58.540045  7874 net.cpp:91] Creating Layer inception_4d/pool_proj
I0522 15:29:58.540060  7874 net.cpp:425] inception_4d/pool_proj <- inception_4d/pool
I0522 15:29:58.540081  7874 net.cpp:399] inception_4d/pool_proj -> inception_4d/pool_proj
I0522 15:29:58.540709  7874 net.cpp:141] Setting up inception_4d/pool_proj
I0522 15:29:58.540729  7874 net.cpp:148] Top shape: 32 64 14 14 (401408)
I0522 15:29:58.540740  7874 net.cpp:156] Memory required for data: 1548091780
I0522 15:29:58.540758  7874 layer_factory.hpp:77] Creating layer inception_4d/relu_pool_proj
I0522 15:29:58.540777  7874 net.cpp:91] Creating Layer inception_4d/relu_pool_proj
I0522 15:29:58.540791  7874 net.cpp:425] inception_4d/relu_pool_proj <- inception_4d/pool_proj
I0522 15:29:58.540807  7874 net.cpp:386] inception_4d/relu_pool_proj -> inception_4d/pool_proj (in-place)
I0522 15:29:58.540827  7874 net.cpp:141] Setting up inception_4d/relu_pool_proj
I0522 15:29:58.540841  7874 net.cpp:148] Top shape: 32 64 14 14 (401408)
I0522 15:29:58.540853  7874 net.cpp:156] Memory required for data: 1549697412
I0522 15:29:58.540866  7874 layer_factory.hpp:77] Creating layer inception_4d/output
I0522 15:29:58.540887  7874 net.cpp:91] Creating Layer inception_4d/output
I0522 15:29:58.540901  7874 net.cpp:425] inception_4d/output <- inception_4d/1x1
I0522 15:29:58.540916  7874 net.cpp:425] inception_4d/output <- inception_4d/3x3
I0522 15:29:58.540931  7874 net.cpp:425] inception_4d/output <- inception_4d/5x5
I0522 15:29:58.540946  7874 net.cpp:425] inception_4d/output <- inception_4d/pool_proj
I0522 15:29:58.540966  7874 net.cpp:399] inception_4d/output -> inception_4d/output
I0522 15:29:58.541009  7874 net.cpp:141] Setting up inception_4d/output
I0522 15:29:58.541026  7874 net.cpp:148] Top shape: 32 528 14 14 (3311616)
I0522 15:29:58.541038  7874 net.cpp:156] Memory required for data: 1562943876
I0522 15:29:58.541050  7874 layer_factory.hpp:77] Creating layer inception_4d/output_inception_4d/output_0_split
I0522 15:29:58.541072  7874 net.cpp:91] Creating Layer inception_4d/output_inception_4d/output_0_split
I0522 15:29:58.541086  7874 net.cpp:425] inception_4d/output_inception_4d/output_0_split <- inception_4d/output
I0522 15:29:58.541103  7874 net.cpp:399] inception_4d/output_inception_4d/output_0_split -> inception_4d/output_inception_4d/output_0_split_0
I0522 15:29:58.541126  7874 net.cpp:399] inception_4d/output_inception_4d/output_0_split -> inception_4d/output_inception_4d/output_0_split_1
I0522 15:29:58.541144  7874 net.cpp:399] inception_4d/output_inception_4d/output_0_split -> inception_4d/output_inception_4d/output_0_split_2
I0522 15:29:58.541163  7874 net.cpp:399] inception_4d/output_inception_4d/output_0_split -> inception_4d/output_inception_4d/output_0_split_3
I0522 15:29:58.541182  7874 net.cpp:399] inception_4d/output_inception_4d/output_0_split -> inception_4d/output_inception_4d/output_0_split_4
I0522 15:29:58.541277  7874 net.cpp:141] Setting up inception_4d/output_inception_4d/output_0_split
I0522 15:29:58.541296  7874 net.cpp:148] Top shape: 32 528 14 14 (3311616)
I0522 15:29:58.541324  7874 net.cpp:148] Top shape: 32 528 14 14 (3311616)
I0522 15:29:58.541337  7874 net.cpp:148] Top shape: 32 528 14 14 (3311616)
I0522 15:29:58.541348  7874 net.cpp:148] Top shape: 32 528 14 14 (3311616)
I0522 15:29:58.541359  7874 net.cpp:148] Top shape: 32 528 14 14 (3311616)
I0522 15:29:58.541370  7874 net.cpp:156] Memory required for data: 1629176196
I0522 15:29:58.541383  7874 layer_factory.hpp:77] Creating layer loss2/ave_pool
I0522 15:29:58.541404  7874 net.cpp:91] Creating Layer loss2/ave_pool
I0522 15:29:58.541415  7874 net.cpp:425] loss2/ave_pool <- inception_4d/output_inception_4d/output_0_split_0
I0522 15:29:58.541432  7874 net.cpp:399] loss2/ave_pool -> loss2/ave_pool
I0522 15:29:58.541478  7874 net.cpp:141] Setting up loss2/ave_pool
I0522 15:29:58.541496  7874 net.cpp:148] Top shape: 32 528 4 4 (270336)
I0522 15:29:58.541507  7874 net.cpp:156] Memory required for data: 1630257540
I0522 15:29:58.541520  7874 layer_factory.hpp:77] Creating layer loss2/conv
I0522 15:29:58.541564  7874 net.cpp:91] Creating Layer loss2/conv
I0522 15:29:58.541579  7874 net.cpp:425] loss2/conv <- loss2/ave_pool
I0522 15:29:58.541600  7874 net.cpp:399] loss2/conv -> loss2/conv
I0522 15:29:58.542418  7874 net.cpp:141] Setting up loss2/conv
I0522 15:29:58.542438  7874 net.cpp:148] Top shape: 32 128 4 4 (65536)
I0522 15:29:58.542446  7874 net.cpp:156] Memory required for data: 1630519684
I0522 15:29:58.542467  7874 layer_factory.hpp:77] Creating layer loss2/relu_conv
I0522 15:29:58.542482  7874 net.cpp:91] Creating Layer loss2/relu_conv
I0522 15:29:58.542496  7874 net.cpp:425] loss2/relu_conv <- loss2/conv
I0522 15:29:58.542516  7874 net.cpp:386] loss2/relu_conv -> loss2/conv (in-place)
I0522 15:29:58.542533  7874 net.cpp:141] Setting up loss2/relu_conv
I0522 15:29:58.542548  7874 net.cpp:148] Top shape: 32 128 4 4 (65536)
I0522 15:29:58.542560  7874 net.cpp:156] Memory required for data: 1630781828
I0522 15:29:58.542573  7874 layer_factory.hpp:77] Creating layer loss2/fc
I0522 15:29:58.542593  7874 net.cpp:91] Creating Layer loss2/fc
I0522 15:29:58.542604  7874 net.cpp:425] loss2/fc <- loss2/conv
I0522 15:29:58.542624  7874 net.cpp:399] loss2/fc -> loss2/fc
I0522 15:29:58.570174  7874 net.cpp:141] Setting up loss2/fc
I0522 15:29:58.570227  7874 net.cpp:148] Top shape: 32 1024 (32768)
I0522 15:29:58.570243  7874 net.cpp:156] Memory required for data: 1630912900
I0522 15:29:58.570267  7874 layer_factory.hpp:77] Creating layer loss2/relu_fc
I0522 15:29:58.570298  7874 net.cpp:91] Creating Layer loss2/relu_fc
I0522 15:29:58.570315  7874 net.cpp:425] loss2/relu_fc <- loss2/fc
I0522 15:29:58.570340  7874 net.cpp:386] loss2/relu_fc -> loss2/fc (in-place)
I0522 15:29:58.570358  7874 net.cpp:141] Setting up loss2/relu_fc
I0522 15:29:58.570366  7874 net.cpp:148] Top shape: 32 1024 (32768)
I0522 15:29:58.570371  7874 net.cpp:156] Memory required for data: 1631043972
I0522 15:29:58.570376  7874 layer_factory.hpp:77] Creating layer loss2/drop_fc
I0522 15:29:58.570389  7874 net.cpp:91] Creating Layer loss2/drop_fc
I0522 15:29:58.570394  7874 net.cpp:425] loss2/drop_fc <- loss2/fc
I0522 15:29:58.570400  7874 net.cpp:386] loss2/drop_fc -> loss2/fc (in-place)
I0522 15:29:58.570446  7874 net.cpp:141] Setting up loss2/drop_fc
I0522 15:29:58.570461  7874 net.cpp:148] Top shape: 32 1024 (32768)
I0522 15:29:58.570466  7874 net.cpp:156] Memory required for data: 1631175044
I0522 15:29:58.570472  7874 layer_factory.hpp:77] Creating layer loss2/classifier
I0522 15:29:58.570494  7874 net.cpp:91] Creating Layer loss2/classifier
I0522 15:29:58.570502  7874 net.cpp:425] loss2/classifier <- loss2/fc
I0522 15:29:58.570520  7874 net.cpp:399] loss2/classifier -> loss2/classifier
I0522 15:29:58.572206  7874 net.cpp:141] Setting up loss2/classifier
I0522 15:29:58.572240  7874 net.cpp:148] Top shape: 32 100 (3200)
I0522 15:29:58.572271  7874 net.cpp:156] Memory required for data: 1631187844
I0522 15:29:58.572299  7874 layer_factory.hpp:77] Creating layer loss2/loss2
I0522 15:29:58.572322  7874 net.cpp:91] Creating Layer loss2/loss2
I0522 15:29:58.572338  7874 net.cpp:425] loss2/loss2 <- loss2/classifier
I0522 15:29:58.572363  7874 net.cpp:425] loss2/loss2 <- label_data_1_split_1
I0522 15:29:58.572381  7874 net.cpp:399] loss2/loss2 -> loss2/loss2
I0522 15:29:58.572413  7874 layer_factory.hpp:77] Creating layer loss2/loss2
I0522 15:29:58.572567  7874 net.cpp:141] Setting up loss2/loss2
I0522 15:29:58.572589  7874 net.cpp:148] Top shape: (1)
I0522 15:29:58.572602  7874 net.cpp:151]     with loss weight 1
I0522 15:29:58.572633  7874 net.cpp:156] Memory required for data: 1631187848
I0522 15:29:58.572648  7874 layer_factory.hpp:77] Creating layer inception_4e/1x1
I0522 15:29:58.572676  7874 net.cpp:91] Creating Layer inception_4e/1x1
I0522 15:29:58.572690  7874 net.cpp:425] inception_4e/1x1 <- inception_4d/output_inception_4d/output_0_split_1
I0522 15:29:58.572710  7874 net.cpp:399] inception_4e/1x1 -> inception_4e/1x1
I0522 15:29:58.574127  7874 net.cpp:141] Setting up inception_4e/1x1
I0522 15:29:58.574170  7874 net.cpp:148] Top shape: 32 256 14 14 (1605632)
I0522 15:29:58.574180  7874 net.cpp:156] Memory required for data: 1637610376
I0522 15:29:58.574200  7874 layer_factory.hpp:77] Creating layer inception_4e/relu_1x1
I0522 15:29:58.574223  7874 net.cpp:91] Creating Layer inception_4e/relu_1x1
I0522 15:29:58.574237  7874 net.cpp:425] inception_4e/relu_1x1 <- inception_4e/1x1
I0522 15:29:58.574266  7874 net.cpp:386] inception_4e/relu_1x1 -> inception_4e/1x1 (in-place)
I0522 15:29:58.574288  7874 net.cpp:141] Setting up inception_4e/relu_1x1
I0522 15:29:58.574303  7874 net.cpp:148] Top shape: 32 256 14 14 (1605632)
I0522 15:29:58.574316  7874 net.cpp:156] Memory required for data: 1644032904
I0522 15:29:58.574328  7874 layer_factory.hpp:77] Creating layer inception_4e/3x3_reduce
I0522 15:29:58.574352  7874 net.cpp:91] Creating Layer inception_4e/3x3_reduce
I0522 15:29:58.574364  7874 net.cpp:425] inception_4e/3x3_reduce <- inception_4d/output_inception_4d/output_0_split_2
I0522 15:29:58.574389  7874 net.cpp:399] inception_4e/3x3_reduce -> inception_4e/3x3_reduce
I0522 15:29:58.575518  7874 net.cpp:141] Setting up inception_4e/3x3_reduce
I0522 15:29:58.575553  7874 net.cpp:148] Top shape: 32 160 14 14 (1003520)
I0522 15:29:58.575563  7874 net.cpp:156] Memory required for data: 1648046984
I0522 15:29:58.575582  7874 layer_factory.hpp:77] Creating layer inception_4e/relu_3x3_reduce
I0522 15:29:58.575603  7874 net.cpp:91] Creating Layer inception_4e/relu_3x3_reduce
I0522 15:29:58.575619  7874 net.cpp:425] inception_4e/relu_3x3_reduce <- inception_4e/3x3_reduce
I0522 15:29:58.575642  7874 net.cpp:386] inception_4e/relu_3x3_reduce -> inception_4e/3x3_reduce (in-place)
I0522 15:29:58.575662  7874 net.cpp:141] Setting up inception_4e/relu_3x3_reduce
I0522 15:29:58.575678  7874 net.cpp:148] Top shape: 32 160 14 14 (1003520)
I0522 15:29:58.575690  7874 net.cpp:156] Memory required for data: 1652061064
I0522 15:29:58.575703  7874 layer_factory.hpp:77] Creating layer inception_4e/3x3
I0522 15:29:58.575731  7874 net.cpp:91] Creating Layer inception_4e/3x3
I0522 15:29:58.575743  7874 net.cpp:425] inception_4e/3x3 <- inception_4e/3x3_reduce
I0522 15:29:58.575759  7874 net.cpp:399] inception_4e/3x3 -> inception_4e/3x3
I0522 15:29:58.580672  7874 net.cpp:141] Setting up inception_4e/3x3
I0522 15:29:58.580729  7874 net.cpp:148] Top shape: 32 320 14 14 (2007040)
I0522 15:29:58.580739  7874 net.cpp:156] Memory required for data: 1660089224
I0522 15:29:58.580755  7874 layer_factory.hpp:77] Creating layer inception_4e/relu_3x3
I0522 15:29:58.580777  7874 net.cpp:91] Creating Layer inception_4e/relu_3x3
I0522 15:29:58.580792  7874 net.cpp:425] inception_4e/relu_3x3 <- inception_4e/3x3
I0522 15:29:58.580811  7874 net.cpp:386] inception_4e/relu_3x3 -> inception_4e/3x3 (in-place)
I0522 15:29:58.580826  7874 net.cpp:141] Setting up inception_4e/relu_3x3
I0522 15:29:58.580835  7874 net.cpp:148] Top shape: 32 320 14 14 (2007040)
I0522 15:29:58.580842  7874 net.cpp:156] Memory required for data: 1668117384
I0522 15:29:58.580847  7874 layer_factory.hpp:77] Creating layer inception_4e/5x5_reduce
I0522 15:29:58.580863  7874 net.cpp:91] Creating Layer inception_4e/5x5_reduce
I0522 15:29:58.580871  7874 net.cpp:425] inception_4e/5x5_reduce <- inception_4d/output_inception_4d/output_0_split_3
I0522 15:29:58.580883  7874 net.cpp:399] inception_4e/5x5_reduce -> inception_4e/5x5_reduce
I0522 15:29:58.581357  7874 net.cpp:141] Setting up inception_4e/5x5_reduce
I0522 15:29:58.581377  7874 net.cpp:148] Top shape: 32 32 14 14 (200704)
I0522 15:29:58.581387  7874 net.cpp:156] Memory required for data: 1668920200
I0522 15:29:58.581423  7874 layer_factory.hpp:77] Creating layer inception_4e/relu_5x5_reduce
I0522 15:29:58.581444  7874 net.cpp:91] Creating Layer inception_4e/relu_5x5_reduce
I0522 15:29:58.581450  7874 net.cpp:425] inception_4e/relu_5x5_reduce <- inception_4e/5x5_reduce
I0522 15:29:58.581461  7874 net.cpp:386] inception_4e/relu_5x5_reduce -> inception_4e/5x5_reduce (in-place)
I0522 15:29:58.581473  7874 net.cpp:141] Setting up inception_4e/relu_5x5_reduce
I0522 15:29:58.581481  7874 net.cpp:148] Top shape: 32 32 14 14 (200704)
I0522 15:29:58.581490  7874 net.cpp:156] Memory required for data: 1669723016
I0522 15:29:58.581498  7874 layer_factory.hpp:77] Creating layer inception_4e/5x5
I0522 15:29:58.581567  7874 net.cpp:91] Creating Layer inception_4e/5x5
I0522 15:29:58.581586  7874 net.cpp:425] inception_4e/5x5 <- inception_4e/5x5_reduce
I0522 15:29:58.581607  7874 net.cpp:399] inception_4e/5x5 -> inception_4e/5x5
I0522 15:29:58.583431  7874 net.cpp:141] Setting up inception_4e/5x5
I0522 15:29:58.583501  7874 net.cpp:148] Top shape: 32 128 14 14 (802816)
I0522 15:29:58.583513  7874 net.cpp:156] Memory required for data: 1672934280
I0522 15:29:58.583533  7874 layer_factory.hpp:77] Creating layer inception_4e/relu_5x5
I0522 15:29:58.583557  7874 net.cpp:91] Creating Layer inception_4e/relu_5x5
I0522 15:29:58.583569  7874 net.cpp:425] inception_4e/relu_5x5 <- inception_4e/5x5
I0522 15:29:58.583581  7874 net.cpp:386] inception_4e/relu_5x5 -> inception_4e/5x5 (in-place)
I0522 15:29:58.583596  7874 net.cpp:141] Setting up inception_4e/relu_5x5
I0522 15:29:58.583603  7874 net.cpp:148] Top shape: 32 128 14 14 (802816)
I0522 15:29:58.583608  7874 net.cpp:156] Memory required for data: 1676145544
I0522 15:29:58.583613  7874 layer_factory.hpp:77] Creating layer inception_4e/pool
I0522 15:29:58.583628  7874 net.cpp:91] Creating Layer inception_4e/pool
I0522 15:29:58.583644  7874 net.cpp:425] inception_4e/pool <- inception_4d/output_inception_4d/output_0_split_4
I0522 15:29:58.583659  7874 net.cpp:399] inception_4e/pool -> inception_4e/pool
I0522 15:29:58.583721  7874 net.cpp:141] Setting up inception_4e/pool
I0522 15:29:58.583734  7874 net.cpp:148] Top shape: 32 528 14 14 (3311616)
I0522 15:29:58.583739  7874 net.cpp:156] Memory required for data: 1689392008
I0522 15:29:58.583745  7874 layer_factory.hpp:77] Creating layer inception_4e/pool_proj
I0522 15:29:58.583762  7874 net.cpp:91] Creating Layer inception_4e/pool_proj
I0522 15:29:58.583768  7874 net.cpp:425] inception_4e/pool_proj <- inception_4e/pool
I0522 15:29:58.583778  7874 net.cpp:399] inception_4e/pool_proj -> inception_4e/pool_proj
I0522 15:29:58.584658  7874 net.cpp:141] Setting up inception_4e/pool_proj
I0522 15:29:58.584676  7874 net.cpp:148] Top shape: 32 128 14 14 (802816)
I0522 15:29:58.584687  7874 net.cpp:156] Memory required for data: 1692603272
I0522 15:29:58.584697  7874 layer_factory.hpp:77] Creating layer inception_4e/relu_pool_proj
I0522 15:29:58.584712  7874 net.cpp:91] Creating Layer inception_4e/relu_pool_proj
I0522 15:29:58.584723  7874 net.cpp:425] inception_4e/relu_pool_proj <- inception_4e/pool_proj
I0522 15:29:58.584740  7874 net.cpp:386] inception_4e/relu_pool_proj -> inception_4e/pool_proj (in-place)
I0522 15:29:58.584759  7874 net.cpp:141] Setting up inception_4e/relu_pool_proj
I0522 15:29:58.584769  7874 net.cpp:148] Top shape: 32 128 14 14 (802816)
I0522 15:29:58.584774  7874 net.cpp:156] Memory required for data: 1695814536
I0522 15:29:58.584779  7874 layer_factory.hpp:77] Creating layer inception_4e/output
I0522 15:29:58.584790  7874 net.cpp:91] Creating Layer inception_4e/output
I0522 15:29:58.584800  7874 net.cpp:425] inception_4e/output <- inception_4e/1x1
I0522 15:29:58.584812  7874 net.cpp:425] inception_4e/output <- inception_4e/3x3
I0522 15:29:58.584823  7874 net.cpp:425] inception_4e/output <- inception_4e/5x5
I0522 15:29:58.584863  7874 net.cpp:425] inception_4e/output <- inception_4e/pool_proj
I0522 15:29:58.584880  7874 net.cpp:399] inception_4e/output -> inception_4e/output
I0522 15:29:58.584940  7874 net.cpp:141] Setting up inception_4e/output
I0522 15:29:58.584959  7874 net.cpp:148] Top shape: 32 832 14 14 (5218304)
I0522 15:29:58.584970  7874 net.cpp:156] Memory required for data: 1716687752
I0522 15:29:58.584990  7874 layer_factory.hpp:77] Creating layer pool4/3x3_s2
I0522 15:29:58.585007  7874 net.cpp:91] Creating Layer pool4/3x3_s2
I0522 15:29:58.585019  7874 net.cpp:425] pool4/3x3_s2 <- inception_4e/output
I0522 15:29:58.585045  7874 net.cpp:399] pool4/3x3_s2 -> pool4/3x3_s2
I0522 15:29:58.585122  7874 net.cpp:141] Setting up pool4/3x3_s2
I0522 15:29:58.585139  7874 net.cpp:148] Top shape: 32 832 7 7 (1304576)
I0522 15:29:58.585150  7874 net.cpp:156] Memory required for data: 1721906056
I0522 15:29:58.585161  7874 layer_factory.hpp:77] Creating layer pool4/3x3_s2_pool4/3x3_s2_0_split
I0522 15:29:58.585188  7874 net.cpp:91] Creating Layer pool4/3x3_s2_pool4/3x3_s2_0_split
I0522 15:29:58.585202  7874 net.cpp:425] pool4/3x3_s2_pool4/3x3_s2_0_split <- pool4/3x3_s2
I0522 15:29:58.585216  7874 net.cpp:399] pool4/3x3_s2_pool4/3x3_s2_0_split -> pool4/3x3_s2_pool4/3x3_s2_0_split_0
I0522 15:29:58.585240  7874 net.cpp:399] pool4/3x3_s2_pool4/3x3_s2_0_split -> pool4/3x3_s2_pool4/3x3_s2_0_split_1
I0522 15:29:58.585263  7874 net.cpp:399] pool4/3x3_s2_pool4/3x3_s2_0_split -> pool4/3x3_s2_pool4/3x3_s2_0_split_2
I0522 15:29:58.585283  7874 net.cpp:399] pool4/3x3_s2_pool4/3x3_s2_0_split -> pool4/3x3_s2_pool4/3x3_s2_0_split_3
I0522 15:29:58.585373  7874 net.cpp:141] Setting up pool4/3x3_s2_pool4/3x3_s2_0_split
I0522 15:29:58.585397  7874 net.cpp:148] Top shape: 32 832 7 7 (1304576)
I0522 15:29:58.585409  7874 net.cpp:148] Top shape: 32 832 7 7 (1304576)
I0522 15:29:58.585422  7874 net.cpp:148] Top shape: 32 832 7 7 (1304576)
I0522 15:29:58.585443  7874 net.cpp:148] Top shape: 32 832 7 7 (1304576)
I0522 15:29:58.585455  7874 net.cpp:156] Memory required for data: 1742779272
I0522 15:29:58.585469  7874 layer_factory.hpp:77] Creating layer inception_5a/1x1
I0522 15:29:58.585485  7874 net.cpp:91] Creating Layer inception_5a/1x1
I0522 15:29:58.585494  7874 net.cpp:425] inception_5a/1x1 <- pool4/3x3_s2_pool4/3x3_s2_0_split_0
I0522 15:29:58.585512  7874 net.cpp:399] inception_5a/1x1 -> inception_5a/1x1
I0522 15:29:58.588105  7874 net.cpp:141] Setting up inception_5a/1x1
I0522 15:29:58.588125  7874 net.cpp:148] Top shape: 32 256 7 7 (401408)
I0522 15:29:58.588131  7874 net.cpp:156] Memory required for data: 1744384904
I0522 15:29:58.588140  7874 layer_factory.hpp:77] Creating layer inception_5a/relu_1x1
I0522 15:29:58.588152  7874 net.cpp:91] Creating Layer inception_5a/relu_1x1
I0522 15:29:58.588160  7874 net.cpp:425] inception_5a/relu_1x1 <- inception_5a/1x1
I0522 15:29:58.588179  7874 net.cpp:386] inception_5a/relu_1x1 -> inception_5a/1x1 (in-place)
I0522 15:29:58.588220  7874 net.cpp:141] Setting up inception_5a/relu_1x1
I0522 15:29:58.588243  7874 net.cpp:148] Top shape: 32 256 7 7 (401408)
I0522 15:29:58.588255  7874 net.cpp:156] Memory required for data: 1745990536
I0522 15:29:58.588268  7874 layer_factory.hpp:77] Creating layer inception_5a/3x3_reduce
I0522 15:29:58.588285  7874 net.cpp:91] Creating Layer inception_5a/3x3_reduce
I0522 15:29:58.588294  7874 net.cpp:425] inception_5a/3x3_reduce <- pool4/3x3_s2_pool4/3x3_s2_0_split_1
I0522 15:29:58.588302  7874 net.cpp:399] inception_5a/3x3_reduce -> inception_5a/3x3_reduce
I0522 15:29:58.590220  7874 net.cpp:141] Setting up inception_5a/3x3_reduce
I0522 15:29:58.590272  7874 net.cpp:148] Top shape: 32 160 7 7 (250880)
I0522 15:29:58.590289  7874 net.cpp:156] Memory required for data: 1746994056
I0522 15:29:58.590322  7874 layer_factory.hpp:77] Creating layer inception_5a/relu_3x3_reduce
I0522 15:29:58.590355  7874 net.cpp:91] Creating Layer inception_5a/relu_3x3_reduce
I0522 15:29:58.590410  7874 net.cpp:425] inception_5a/relu_3x3_reduce <- inception_5a/3x3_reduce
I0522 15:29:58.590430  7874 net.cpp:386] inception_5a/relu_3x3_reduce -> inception_5a/3x3_reduce (in-place)
I0522 15:29:58.590458  7874 net.cpp:141] Setting up inception_5a/relu_3x3_reduce
I0522 15:29:58.590481  7874 net.cpp:148] Top shape: 32 160 7 7 (250880)
I0522 15:29:58.590494  7874 net.cpp:156] Memory required for data: 1747997576
I0522 15:29:58.590508  7874 layer_factory.hpp:77] Creating layer inception_5a/3x3
I0522 15:29:58.590553  7874 net.cpp:91] Creating Layer inception_5a/3x3
I0522 15:29:58.590567  7874 net.cpp:425] inception_5a/3x3 <- inception_5a/3x3_reduce
I0522 15:29:58.590589  7874 net.cpp:399] inception_5a/3x3 -> inception_5a/3x3
I0522 15:29:58.596787  7874 net.cpp:141] Setting up inception_5a/3x3
I0522 15:29:58.596937  7874 net.cpp:148] Top shape: 32 320 7 7 (501760)
I0522 15:29:58.596957  7874 net.cpp:156] Memory required for data: 1750004616
I0522 15:29:58.596987  7874 layer_factory.hpp:77] Creating layer inception_5a/relu_3x3
I0522 15:29:58.597030  7874 net.cpp:91] Creating Layer inception_5a/relu_3x3
I0522 15:29:58.597059  7874 net.cpp:425] inception_5a/relu_3x3 <- inception_5a/3x3
I0522 15:29:58.597084  7874 net.cpp:386] inception_5a/relu_3x3 -> inception_5a/3x3 (in-place)
I0522 15:29:58.597110  7874 net.cpp:141] Setting up inception_5a/relu_3x3
I0522 15:29:58.597118  7874 net.cpp:148] Top shape: 32 320 7 7 (501760)
I0522 15:29:58.597124  7874 net.cpp:156] Memory required for data: 1752011656
I0522 15:29:58.597131  7874 layer_factory.hpp:77] Creating layer inception_5a/5x5_reduce
I0522 15:29:58.597157  7874 net.cpp:91] Creating Layer inception_5a/5x5_reduce
I0522 15:29:58.597167  7874 net.cpp:425] inception_5a/5x5_reduce <- pool4/3x3_s2_pool4/3x3_s2_0_split_2
I0522 15:29:58.597203  7874 net.cpp:399] inception_5a/5x5_reduce -> inception_5a/5x5_reduce
I0522 15:29:58.597863  7874 net.cpp:141] Setting up inception_5a/5x5_reduce
I0522 15:29:58.597883  7874 net.cpp:148] Top shape: 32 32 7 7 (50176)
I0522 15:29:58.597888  7874 net.cpp:156] Memory required for data: 1752212360
I0522 15:29:58.597898  7874 layer_factory.hpp:77] Creating layer inception_5a/relu_5x5_reduce
I0522 15:29:58.597910  7874 net.cpp:91] Creating Layer inception_5a/relu_5x5_reduce
I0522 15:29:58.597918  7874 net.cpp:425] inception_5a/relu_5x5_reduce <- inception_5a/5x5_reduce
I0522 15:29:58.597931  7874 net.cpp:386] inception_5a/relu_5x5_reduce -> inception_5a/5x5_reduce (in-place)
I0522 15:29:58.597949  7874 net.cpp:141] Setting up inception_5a/relu_5x5_reduce
I0522 15:29:58.597965  7874 net.cpp:148] Top shape: 32 32 7 7 (50176)
I0522 15:29:58.597978  7874 net.cpp:156] Memory required for data: 1752413064
I0522 15:29:58.597990  7874 layer_factory.hpp:77] Creating layer inception_5a/5x5
I0522 15:29:58.598018  7874 net.cpp:91] Creating Layer inception_5a/5x5
I0522 15:29:58.598027  7874 net.cpp:425] inception_5a/5x5 <- inception_5a/5x5_reduce
I0522 15:29:58.598049  7874 net.cpp:399] inception_5a/5x5 -> inception_5a/5x5
I0522 15:29:58.599407  7874 net.cpp:141] Setting up inception_5a/5x5
I0522 15:29:58.599498  7874 net.cpp:148] Top shape: 32 128 7 7 (200704)
I0522 15:29:58.599509  7874 net.cpp:156] Memory required for data: 1753215880
I0522 15:29:58.599539  7874 layer_factory.hpp:77] Creating layer inception_5a/relu_5x5
I0522 15:29:58.599598  7874 net.cpp:91] Creating Layer inception_5a/relu_5x5
I0522 15:29:58.599617  7874 net.cpp:425] inception_5a/relu_5x5 <- inception_5a/5x5
I0522 15:29:58.599632  7874 net.cpp:386] inception_5a/relu_5x5 -> inception_5a/5x5 (in-place)
I0522 15:29:58.599651  7874 net.cpp:141] Setting up inception_5a/relu_5x5
I0522 15:29:58.599660  7874 net.cpp:148] Top shape: 32 128 7 7 (200704)
I0522 15:29:58.599666  7874 net.cpp:156] Memory required for data: 1754018696
I0522 15:29:58.599673  7874 layer_factory.hpp:77] Creating layer inception_5a/pool
I0522 15:29:58.599697  7874 net.cpp:91] Creating Layer inception_5a/pool
I0522 15:29:58.599709  7874 net.cpp:425] inception_5a/pool <- pool4/3x3_s2_pool4/3x3_s2_0_split_3
I0522 15:29:58.599720  7874 net.cpp:399] inception_5a/pool -> inception_5a/pool
I0522 15:29:58.599817  7874 net.cpp:141] Setting up inception_5a/pool
I0522 15:29:58.599849  7874 net.cpp:148] Top shape: 32 832 7 7 (1304576)
I0522 15:29:58.599884  7874 net.cpp:156] Memory required for data: 1759237000
I0522 15:29:58.599905  7874 layer_factory.hpp:77] Creating layer inception_5a/pool_proj
I0522 15:29:58.599946  7874 net.cpp:91] Creating Layer inception_5a/pool_proj
I0522 15:29:58.599962  7874 net.cpp:425] inception_5a/pool_proj <- inception_5a/pool
I0522 15:29:58.599987  7874 net.cpp:399] inception_5a/pool_proj -> inception_5a/pool_proj
I0522 15:29:58.602174  7874 net.cpp:141] Setting up inception_5a/pool_proj
I0522 15:29:58.602274  7874 net.cpp:148] Top shape: 32 128 7 7 (200704)
I0522 15:29:58.602286  7874 net.cpp:156] Memory required for data: 1760039816
I0522 15:29:58.602319  7874 layer_factory.hpp:77] Creating layer inception_5a/relu_pool_proj
I0522 15:29:58.602362  7874 net.cpp:91] Creating Layer inception_5a/relu_pool_proj
I0522 15:29:58.602391  7874 net.cpp:425] inception_5a/relu_pool_proj <- inception_5a/pool_proj
I0522 15:29:58.602428  7874 net.cpp:386] inception_5a/relu_pool_proj -> inception_5a/pool_proj (in-place)
I0522 15:29:58.602466  7874 net.cpp:141] Setting up inception_5a/relu_pool_proj
I0522 15:29:58.602485  7874 net.cpp:148] Top shape: 32 128 7 7 (200704)
I0522 15:29:58.602496  7874 net.cpp:156] Memory required for data: 1760842632
I0522 15:29:58.602507  7874 layer_factory.hpp:77] Creating layer inception_5a/output
I0522 15:29:58.602531  7874 net.cpp:91] Creating Layer inception_5a/output
I0522 15:29:58.602547  7874 net.cpp:425] inception_5a/output <- inception_5a/1x1
I0522 15:29:58.602563  7874 net.cpp:425] inception_5a/output <- inception_5a/3x3
I0522 15:29:58.602581  7874 net.cpp:425] inception_5a/output <- inception_5a/5x5
I0522 15:29:58.602594  7874 net.cpp:425] inception_5a/output <- inception_5a/pool_proj
I0522 15:29:58.602612  7874 net.cpp:399] inception_5a/output -> inception_5a/output
I0522 15:29:58.602699  7874 net.cpp:141] Setting up inception_5a/output
I0522 15:29:58.602720  7874 net.cpp:148] Top shape: 32 832 7 7 (1304576)
I0522 15:29:58.602730  7874 net.cpp:156] Memory required for data: 1766060936
I0522 15:29:58.602741  7874 layer_factory.hpp:77] Creating layer inception_5a/output_inception_5a/output_0_split
I0522 15:29:58.602759  7874 net.cpp:91] Creating Layer inception_5a/output_inception_5a/output_0_split
I0522 15:29:58.602774  7874 net.cpp:425] inception_5a/output_inception_5a/output_0_split <- inception_5a/output
I0522 15:29:58.602794  7874 net.cpp:399] inception_5a/output_inception_5a/output_0_split -> inception_5a/output_inception_5a/output_0_split_0
I0522 15:29:58.602816  7874 net.cpp:399] inception_5a/output_inception_5a/output_0_split -> inception_5a/output_inception_5a/output_0_split_1
I0522 15:29:58.602838  7874 net.cpp:399] inception_5a/output_inception_5a/output_0_split -> inception_5a/output_inception_5a/output_0_split_2
I0522 15:29:58.602859  7874 net.cpp:399] inception_5a/output_inception_5a/output_0_split -> inception_5a/output_inception_5a/output_0_split_3
I0522 15:29:58.602953  7874 net.cpp:141] Setting up inception_5a/output_inception_5a/output_0_split
I0522 15:29:58.602972  7874 net.cpp:148] Top shape: 32 832 7 7 (1304576)
I0522 15:29:58.602985  7874 net.cpp:148] Top shape: 32 832 7 7 (1304576)
I0522 15:29:58.602998  7874 net.cpp:148] Top shape: 32 832 7 7 (1304576)
I0522 15:29:58.603009  7874 net.cpp:148] Top shape: 32 832 7 7 (1304576)
I0522 15:29:58.603021  7874 net.cpp:156] Memory required for data: 1786934152
I0522 15:29:58.603032  7874 layer_factory.hpp:77] Creating layer inception_5b/1x1
I0522 15:29:58.603070  7874 net.cpp:91] Creating Layer inception_5b/1x1
I0522 15:29:58.603085  7874 net.cpp:425] inception_5b/1x1 <- inception_5a/output_inception_5a/output_0_split_0
I0522 15:29:58.603101  7874 net.cpp:399] inception_5b/1x1 -> inception_5b/1x1
I0522 15:29:58.606739  7874 net.cpp:141] Setting up inception_5b/1x1
I0522 15:29:58.606815  7874 net.cpp:148] Top shape: 32 384 7 7 (602112)
I0522 15:29:58.606827  7874 net.cpp:156] Memory required for data: 1789342600
I0522 15:29:58.606853  7874 layer_factory.hpp:77] Creating layer inception_5b/relu_1x1
I0522 15:29:58.606884  7874 net.cpp:91] Creating Layer inception_5b/relu_1x1
I0522 15:29:58.606904  7874 net.cpp:425] inception_5b/relu_1x1 <- inception_5b/1x1
I0522 15:29:58.606972  7874 net.cpp:386] inception_5b/relu_1x1 -> inception_5b/1x1 (in-place)
I0522 15:29:58.607018  7874 net.cpp:141] Setting up inception_5b/relu_1x1
I0522 15:29:58.607051  7874 net.cpp:148] Top shape: 32 384 7 7 (602112)
I0522 15:29:58.607079  7874 net.cpp:156] Memory required for data: 1791751048
I0522 15:29:58.607110  7874 layer_factory.hpp:77] Creating layer inception_5b/3x3_reduce
I0522 15:29:58.607162  7874 net.cpp:91] Creating Layer inception_5b/3x3_reduce
I0522 15:29:58.607200  7874 net.cpp:425] inception_5b/3x3_reduce <- inception_5a/output_inception_5a/output_0_split_1
I0522 15:29:58.607239  7874 net.cpp:399] inception_5b/3x3_reduce -> inception_5b/3x3_reduce
I0522 15:29:58.610754  7874 net.cpp:141] Setting up inception_5b/3x3_reduce
I0522 15:29:58.610800  7874 net.cpp:148] Top shape: 32 192 7 7 (301056)
I0522 15:29:58.610810  7874 net.cpp:156] Memory required for data: 1792955272
I0522 15:29:58.610826  7874 layer_factory.hpp:77] Creating layer inception_5b/relu_3x3_reduce
I0522 15:29:58.610842  7874 net.cpp:91] Creating Layer inception_5b/relu_3x3_reduce
I0522 15:29:58.610855  7874 net.cpp:425] inception_5b/relu_3x3_reduce <- inception_5b/3x3_reduce
I0522 15:29:58.610870  7874 net.cpp:386] inception_5b/relu_3x3_reduce -> inception_5b/3x3_reduce (in-place)
I0522 15:29:58.610898  7874 net.cpp:141] Setting up inception_5b/relu_3x3_reduce
I0522 15:29:58.610915  7874 net.cpp:148] Top shape: 32 192 7 7 (301056)
I0522 15:29:58.610925  7874 net.cpp:156] Memory required for data: 1794159496
I0522 15:29:58.610936  7874 layer_factory.hpp:77] Creating layer inception_5b/3x3
I0522 15:29:58.610957  7874 net.cpp:91] Creating Layer inception_5b/3x3
I0522 15:29:58.610968  7874 net.cpp:425] inception_5b/3x3 <- inception_5b/3x3_reduce
I0522 15:29:58.610986  7874 net.cpp:399] inception_5b/3x3 -> inception_5b/3x3
I0522 15:29:58.618993  7874 net.cpp:141] Setting up inception_5b/3x3
I0522 15:29:58.619045  7874 net.cpp:148] Top shape: 32 384 7 7 (602112)
I0522 15:29:58.619052  7874 net.cpp:156] Memory required for data: 1796567944
I0522 15:29:58.619067  7874 layer_factory.hpp:77] Creating layer inception_5b/relu_3x3
I0522 15:29:58.619082  7874 net.cpp:91] Creating Layer inception_5b/relu_3x3
I0522 15:29:58.619097  7874 net.cpp:425] inception_5b/relu_3x3 <- inception_5b/3x3
I0522 15:29:58.619107  7874 net.cpp:386] inception_5b/relu_3x3 -> inception_5b/3x3 (in-place)
I0522 15:29:58.619123  7874 net.cpp:141] Setting up inception_5b/relu_3x3
I0522 15:29:58.619132  7874 net.cpp:148] Top shape: 32 384 7 7 (602112)
I0522 15:29:58.619138  7874 net.cpp:156] Memory required for data: 1798976392
I0522 15:29:58.619143  7874 layer_factory.hpp:77] Creating layer inception_5b/5x5_reduce
I0522 15:29:58.619158  7874 net.cpp:91] Creating Layer inception_5b/5x5_reduce
I0522 15:29:58.619164  7874 net.cpp:425] inception_5b/5x5_reduce <- inception_5a/output_inception_5a/output_0_split_2
I0522 15:29:58.619182  7874 net.cpp:399] inception_5b/5x5_reduce -> inception_5b/5x5_reduce
I0522 15:29:58.620327  7874 net.cpp:141] Setting up inception_5b/5x5_reduce
I0522 15:29:58.620345  7874 net.cpp:148] Top shape: 32 48 7 7 (75264)
I0522 15:29:58.620352  7874 net.cpp:156] Memory required for data: 1799277448
I0522 15:29:58.620360  7874 layer_factory.hpp:77] Creating layer inception_5b/relu_5x5_reduce
I0522 15:29:58.620373  7874 net.cpp:91] Creating Layer inception_5b/relu_5x5_reduce
I0522 15:29:58.620379  7874 net.cpp:425] inception_5b/relu_5x5_reduce <- inception_5b/5x5_reduce
I0522 15:29:58.620388  7874 net.cpp:386] inception_5b/relu_5x5_reduce -> inception_5b/5x5_reduce (in-place)
I0522 15:29:58.620398  7874 net.cpp:141] Setting up inception_5b/relu_5x5_reduce
I0522 15:29:58.620405  7874 net.cpp:148] Top shape: 32 48 7 7 (75264)
I0522 15:29:58.620410  7874 net.cpp:156] Memory required for data: 1799578504
I0522 15:29:58.620415  7874 layer_factory.hpp:77] Creating layer inception_5b/5x5
I0522 15:29:58.620429  7874 net.cpp:91] Creating Layer inception_5b/5x5
I0522 15:29:58.620436  7874 net.cpp:425] inception_5b/5x5 <- inception_5b/5x5_reduce
I0522 15:29:58.620445  7874 net.cpp:399] inception_5b/5x5 -> inception_5b/5x5
I0522 15:29:58.622138  7874 net.cpp:141] Setting up inception_5b/5x5
I0522 15:29:58.622155  7874 net.cpp:148] Top shape: 32 128 7 7 (200704)
I0522 15:29:58.622161  7874 net.cpp:156] Memory required for data: 1800381320
I0522 15:29:58.622182  7874 layer_factory.hpp:77] Creating layer inception_5b/relu_5x5
I0522 15:29:58.622201  7874 net.cpp:91] Creating Layer inception_5b/relu_5x5
I0522 15:29:58.622217  7874 net.cpp:425] inception_5b/relu_5x5 <- inception_5b/5x5
I0522 15:29:58.622244  7874 net.cpp:386] inception_5b/relu_5x5 -> inception_5b/5x5 (in-place)
I0522 15:29:58.622259  7874 net.cpp:141] Setting up inception_5b/relu_5x5
I0522 15:29:58.622267  7874 net.cpp:148] Top shape: 32 128 7 7 (200704)
I0522 15:29:58.622273  7874 net.cpp:156] Memory required for data: 1801184136
I0522 15:29:58.622279  7874 layer_factory.hpp:77] Creating layer inception_5b/pool
I0522 15:29:58.622287  7874 net.cpp:91] Creating Layer inception_5b/pool
I0522 15:29:58.622299  7874 net.cpp:425] inception_5b/pool <- inception_5a/output_inception_5a/output_0_split_3
I0522 15:29:58.622311  7874 net.cpp:399] inception_5b/pool -> inception_5b/pool
I0522 15:29:58.622373  7874 net.cpp:141] Setting up inception_5b/pool
I0522 15:29:58.622387  7874 net.cpp:148] Top shape: 32 832 7 7 (1304576)
I0522 15:29:58.622393  7874 net.cpp:156] Memory required for data: 1806402440
I0522 15:29:58.622398  7874 layer_factory.hpp:77] Creating layer inception_5b/pool_proj
I0522 15:29:58.622417  7874 net.cpp:91] Creating Layer inception_5b/pool_proj
I0522 15:29:58.622426  7874 net.cpp:425] inception_5b/pool_proj <- inception_5b/pool
I0522 15:29:58.622437  7874 net.cpp:399] inception_5b/pool_proj -> inception_5b/pool_proj
I0522 15:29:58.624100  7874 net.cpp:141] Setting up inception_5b/pool_proj
I0522 15:29:58.624125  7874 net.cpp:148] Top shape: 32 128 7 7 (200704)
I0522 15:29:58.624130  7874 net.cpp:156] Memory required for data: 1807205256
I0522 15:29:58.624140  7874 layer_factory.hpp:77] Creating layer inception_5b/relu_pool_proj
I0522 15:29:58.624151  7874 net.cpp:91] Creating Layer inception_5b/relu_pool_proj
I0522 15:29:58.624158  7874 net.cpp:425] inception_5b/relu_pool_proj <- inception_5b/pool_proj
I0522 15:29:58.624171  7874 net.cpp:386] inception_5b/relu_pool_proj -> inception_5b/pool_proj (in-place)
I0522 15:29:58.624215  7874 net.cpp:141] Setting up inception_5b/relu_pool_proj
I0522 15:29:58.624234  7874 net.cpp:148] Top shape: 32 128 7 7 (200704)
I0522 15:29:58.624241  7874 net.cpp:156] Memory required for data: 1808008072
I0522 15:29:58.624248  7874 layer_factory.hpp:77] Creating layer inception_5b/output
I0522 15:29:58.624258  7874 net.cpp:91] Creating Layer inception_5b/output
I0522 15:29:58.624266  7874 net.cpp:425] inception_5b/output <- inception_5b/1x1
I0522 15:29:58.624274  7874 net.cpp:425] inception_5b/output <- inception_5b/3x3
I0522 15:29:58.624281  7874 net.cpp:425] inception_5b/output <- inception_5b/5x5
I0522 15:29:58.624294  7874 net.cpp:425] inception_5b/output <- inception_5b/pool_proj
I0522 15:29:58.624301  7874 net.cpp:399] inception_5b/output -> inception_5b/output
I0522 15:29:58.624338  7874 net.cpp:141] Setting up inception_5b/output
I0522 15:29:58.624356  7874 net.cpp:148] Top shape: 32 1024 7 7 (1605632)
I0522 15:29:58.624362  7874 net.cpp:156] Memory required for data: 1814430600
I0522 15:29:58.624368  7874 layer_factory.hpp:77] Creating layer pool5/7x7_s1
I0522 15:29:58.624379  7874 net.cpp:91] Creating Layer pool5/7x7_s1
I0522 15:29:58.624387  7874 net.cpp:425] pool5/7x7_s1 <- inception_5b/output
I0522 15:29:58.624398  7874 net.cpp:399] pool5/7x7_s1 -> pool5/7x7_s1
I0522 15:29:58.624436  7874 net.cpp:141] Setting up pool5/7x7_s1
I0522 15:29:58.624449  7874 net.cpp:148] Top shape: 32 1024 1 1 (32768)
I0522 15:29:58.624456  7874 net.cpp:156] Memory required for data: 1814561672
I0522 15:29:58.624474  7874 layer_factory.hpp:77] Creating layer pool5/drop_7x7_s1
I0522 15:29:58.624495  7874 net.cpp:91] Creating Layer pool5/drop_7x7_s1
I0522 15:29:58.624506  7874 net.cpp:425] pool5/drop_7x7_s1 <- pool5/7x7_s1
I0522 15:29:58.624516  7874 net.cpp:386] pool5/drop_7x7_s1 -> pool5/7x7_s1 (in-place)
I0522 15:29:58.624559  7874 net.cpp:141] Setting up pool5/drop_7x7_s1
I0522 15:29:58.624575  7874 net.cpp:148] Top shape: 32 1024 1 1 (32768)
I0522 15:29:58.624583  7874 net.cpp:156] Memory required for data: 1814692744
I0522 15:29:58.624596  7874 layer_factory.hpp:77] Creating layer loss3/classifier
I0522 15:29:58.624614  7874 net.cpp:91] Creating Layer loss3/classifier
I0522 15:29:58.624629  7874 net.cpp:425] loss3/classifier <- pool5/7x7_s1
I0522 15:29:58.624657  7874 net.cpp:399] loss3/classifier -> loss3/classifier
I0522 15:29:58.625612  7874 net.cpp:141] Setting up loss3/classifier
I0522 15:29:58.625628  7874 net.cpp:148] Top shape: 32 100 (3200)
I0522 15:29:58.625633  7874 net.cpp:156] Memory required for data: 1814705544
I0522 15:29:58.625654  7874 layer_factory.hpp:77] Creating layer loss3/loss3
I0522 15:29:58.625674  7874 net.cpp:91] Creating Layer loss3/loss3
I0522 15:29:58.625685  7874 net.cpp:425] loss3/loss3 <- loss3/classifier
I0522 15:29:58.625694  7874 net.cpp:425] loss3/loss3 <- label_data_1_split_2
I0522 15:29:58.625710  7874 net.cpp:399] loss3/loss3 -> loss3/loss3
…
I0522 15:29:58.631134  7874 net.cpp:313] The NetState phase (1) differed from the phase (0) specified by a rule in layer data
I0522 15:29:58.632516  7874 net.cpp:49] Initializing net from parameters: 
name: "GoogleNet"
state {
  phase: TEST
}
layer {
  name: "data"
  type: "Data"
  top: "data"
  top: "label"
  include {
    phase: TEST
  }
  transform_param {
    mirror: false
    crop_size: 227
    mean_file: "/home/iis/Downloads/caffe-master/data/food_100/food100_mean.binaryproto"
  }
  data_param {
    source: "/home/iis/Downloads/caffe-master/examples/food_100/food100_val_lmdb"
    batch_size: 1
    backend: LMDB
  }
}
layer {
  name: "conv1/7x7_s2"
  type: "Convolution"
  bottom: "data"
  top: "conv1/7x7_s2"
  param {
    lr_mult: 1
    decay_mult: 1
  }
  param {
    lr_mult: 2
    decay_mult: 0
  }
  convolution_param {
    num_output: 64
    pad: 3
    kernel_size: 7
    stride: 2
    weight_filler {
      type: "xavier"
    }
    bias_filler {
      type: "constant"
      value: 0.2
    }
  }
}
layer {
  name: "conv1/relu_7x7"
  type: "ReLU"
  bottom: "conv1/7x7_s2"
  top: "conv1/7x7_s2"
}
layer {
  name: "pool1/3x3_s2"
  type: "Pooling"
  bottom: "conv1/7x7_s2"
  top: "pool1/3x3_s2"
  pooling_param {
    pool: MAX
    kernel_size: 3
    stride: 2
  }
}
layer {
  name: "pool1/norm1"
  type: "LRN"
  bottom: "pool1/3x3_s2"
  top: "pool1/norm1"
  lrn_param {
    local_size: 5
    alpha: 0.0001
    beta: 0.75
  }
}
layer {
  name: "conv2/3x3_reduce"
  type: "Convolution"
  bottom: "pool1/norm1"
  top: "conv2/3x3_reduce"
  param {
    lr_mult: 1
    decay_mult: 1
  }
  param {
    lr_mult: 2
    decay_mult: 0
  }
  convolution_param {
    num_output: 64
    kernel_size: 1
    weight_filler {
      type: "xavier"
    }
    bias_filler {
      type: "constant"
      value: 0.2
    }
  }
}
layer {
  name: "conv2/relu_3x3_reduce"
  type: "ReLU"
  bottom: "conv2/3x3_reduce"
  top: "conv2/3x3_reduce"
}
layer {
  name: "conv2/3x3"
  type: "Convolution"
  bottom: "conv2/3x3_reduce"
  top: "conv2/3x3"
  param {
    lr_mult: 1
    decay_mult: 1
  }
  param {
    lr_mult: 2
    decay_mult: 0
  }
  convolution_param {
    num_output: 192
    pad: 1
    kernel_size: 3
    weight_filler {
      type: "xavier"
    }
    bias_filler {
      type: "constant"
      value: 0.2
    }
  }
}
layer {
  name: "conv2/relu_3x3"
  type: "ReLU"
  bottom: "conv2/3x3"
  top: "conv2/3x3"
}
layer {
  name: "conv2/norm2"
  type: "LRN"
  bottom: "conv2/3x3"
  top: "conv2/norm2"
  lrn_param {
    local_size: 5
    alpha: 0.0001
    beta: 0.75
  }
}
layer {
  name: "pool2/3x3_s2"
  type: "Pooling"
  bottom: "conv2/norm2"
  top: "pool2/3x3_s2"
  pooling_param {
    pool: MAX
    kernel_size: 3
    stride: 2
  }
}
layer {
  name: "inception_3a/1x1"
  type: "Convolution"
  bottom: "pool2/3x3_s2"
  top: "inception_3a/1x1"
  param {
    lr_mult: 1
    decay_mult: 1
  }
  param {
    lr_mult: 2
    decay_mult: 0
  }
  convolution_param {
    num_output: 64
    kernel_size: 1
    weight_filler {
      type: "xavier"
    }
    bias_filler {
      type: "constant"
      value: 0.2
    }
  }
}
layer {
  name: "inception_3a/relu_1x1"
  type: "ReLU"
  bottom: "inception_3a/1x1"
  top: "inception_3a/1x1"
}
layer {
  name: "inception_3a/3x3_reduce"
  type: "Convolution"
  bottom: "pool2/3x3_s2"
  top: "inception_3a/3x3_reduce"
  param {
    lr_mult: 1
    decay_mult: 1
  }
  param {
    lr_mult: 2
    decay_mult: 0
  }
  convolution_param {
    num_output: 96
    kernel_size: 1
    weight_filler {
      type: "xavier"
    }
    bias_filler {
      type: "constant"
      value: 0.2
    }
  }
}
layer {
  name: "inception_3a/relu_3x3_reduce"
  type: "ReLU"
  bottom: "inception_3a/3x3_reduce"
  top: "inception_3a/3x3_reduce"
}
layer {
  name: "inception_3a/3x3"
  type: "Convolution"
  bottom: "inception_3a/3x3_reduce"
  top: "inception_3a/3x3"
  param {
    lr_mult: 1
    decay_mult: 1
  }
  param {
    lr_mult: 2
    decay_mult: 0
  }
  convolution_param {
    num_output: 128
    pad: 1
    kernel_size: 3
    weight_filler {
      type: "xavier"
    }
    bias_filler {
      type: "constant"
      value: 0.2
    }
  }
}
layer {
  name: "inception_3a/relu_3x3"
  type: "ReLU"
  bottom: "inception_3a/3x3"
  top: "inception_3a/3x3"
}
layer {
  name: "inception_3a/5x5_reduce"
  type: "Convolution"
  bottom: "pool2/3x3_s2"
  top: "inception_3a/5x5_reduce"
  param {
    lr_mult: 1
    decay_mult: 1
  }
  param {
    lr_mult: 2
    decay_mult: 0
  }
  convolution_param {
    num_output: 16
    kernel_size: 1
    weight_filler {
      type: "xavier"
    }
    bias_filler {
      type: "constant"
      value: 0.2
    }
  }
}
layer {
  name: "inception_3a/relu_5x5_reduce"
  type: "ReLU"
  bottom: "inception_3a/5x5_reduce"
  top: "inception_3a/5x5_reduce"
}
layer {
  name: "inception_3a/5x5"
  type: "Convolution"
  bottom: "inception_3a/5x5_reduce"
  top: "inception_3a/5x5"
  param {
    lr_mult: 1
    decay_mult: 1
  }
  param {
    lr_mult: 2
    decay_mult: 0
  }
  convolution_param {
    num_output: 32
    pad: 2
    kernel_size: 5
    weight_filler {
      type: "xavier"
    }
    bias_filler {
      type: "constant"
      value: 0.2
    }
  }
}
layer {
  name: "inception_3a/relu_5x5"
  type: "ReLU"
  bottom: "inception_3a/5x5"
  top: "inception_3a/5x5"
}
layer {
  name: "inception_3a/pool"
  type: "Pooling"
  bottom: "pool2/3x3_s2"
  top: "inception_3a/pool"
  pooling_param {
    pool: MAX
    kernel_size: 3
    stride: 1
    pad: 1
  }
}
layer {
  name: "inception_3a/pool_proj"
  type: "Convolution"
  bottom: "inception_3a/pool"
  top: "inception_3a/pool_proj"
  param {
    lr_mult: 1
    decay_mult: 1
  }
  param {
    lr_mult: 2
    decay_mult: 0
  }
  convolution_param {
    num_output: 32
    kernel_size: 1
    weight_filler {
      type: "xavier"
    }
    bias_filler {
      type: "constant"
      value: 0.2
    }
  }
}
layer {
  name: "inception_3a/relu_pool_proj"
  type: "ReLU"
  bottom: "inception_3a/pool_proj"
  top: "inception_3a/pool_proj"
}
layer {
  name: "inception_3a/output"
  type: "Concat"
  bottom: "inception_3a/1x1"
  bottom: "inception_3a/3x3"
  bottom: "inception_3a/5x5"
  bottom: "inception_3a/pool_proj"
  top: "inception_3a/output"
}
layer {
  name: "inception_3b/1x1"
  type: "Convolution"
  bottom: "inception_3a/output"
  top: "inception_3b/1x1"
  param {
    lr_mult: 1
    decay_mult: 1
  }
  param {
    lr_mult: 2
    decay_mult: 0
  }
  convolution_param {
    num_output: 128
    kernel_size: 1
    weight_filler {
      type: "xavier"
    }
    bias_filler {
      type: "constant"
      value: 0.2
    }
  }
}
layer {
  name: "inception_3b/relu_1x1"
  type: "ReLU"
  bottom: "inception_3b/1x1"
  top: "inception_3b/1x1"
}
layer {
  name: "inception_3b/3x3_reduce"
  type: "Convolution"
  bottom: "inception_3a/output"
  top: "inception_3b/3x3_reduce"
  param {
    lr_mult: 1
    decay_mult: 1
  }
  param {
    lr_mult: 2
    decay_mult: 0
  }
  convolution_param {
    num_output: 128
    kernel_size: 1
    weight_filler {
      type: "xavier"
    }
    bias_filler {
      type: "constant"
      value: 0.2
    }
  }
}
layer {
  name: "inception_3b/relu_3x3_reduce"
  type: "ReLU"
  bottom: "inception_3b/3x3_reduce"
  top: "inception_3b/3x3_reduce"
}
layer {
  name: "inception_3b/3x3"
  type: "Convolution"
  bottom: "inception_3b/3x3_reduce"
  top: "inception_3b/3x3"
  param {
    lr_mult: 1
    decay_mult: 1
  }
  param {
    lr_mult: 2
    decay_mult: 0
  }
  convolution_param {
    num_output: 192
    pad: 1
    kernel_size: 3
    weight_filler {
      type: "xavier"
    }
    bias_filler {
      type: "constant"
      value: 0.2
    }
  }
}
layer {
  name: "inception_3b/relu_3x3"
  type: "ReLU"
  bottom: "inception_3b/3x3"
  top: "inception_3b/3x3"
}
layer {
  name: "inception_3b/5x5_reduce"
  type: "Convolution"
  bottom: "inception_3a/output"
  top: "inception_3b/5x5_reduce"
  param {
    lr_mult: 1
    decay_mult: 1
  }
  param {
    lr_mult: 2
    decay_mult: 0
  }
  convolution_param {
    num_output: 32
    kernel_size: 1
    weight_filler {
      type: "xavier"
    }
    bias_filler {
      type: "constant"
      value: 0.2
    }
  }
}
layer {
  name: "inception_3b/relu_5x5_reduce"
  type: "ReLU"
  bottom: "inception_3b/5x5_reduce"
  top: "inception_3b/5x5_reduce"
}
layer {
  name: "inception_3b/5x5"
  type: "Convolution"
  bottom: "inception_3b/5x5_reduce"
  top: "inception_3b/5x5"
  param {
    lr_mult: 1
    decay_mult: 1
  }
  param {
    lr_mult: 2
    decay_mult: 0
  }
  convolution_param {
    num_output: 96
    pad: 2
    kernel_size: 5
    weight_filler {
      type: "xavier"
    }
    bias_filler {
      type: "constant"
      value: 0.2
    }
  }
}
layer {
  name: "inception_3b/relu_5x5"
  type: "ReLU"
  bottom: "inception_3b/5x5"
  top: "inception_3b/5x5"
}
layer {
  name: "inception_3b/pool"
  type: "Pooling"
  bottom: "inception_3a/output"
  top: "inception_3b/pool"
  pooling_param {
    pool: MAX
    kernel_size: 3
    stride: 1
    pad: 1
  }
}
layer {
  name: "inception_3b/pool_proj"
  type: "Convolution"
  bottom: "inception_3b/pool"
  top: "inception_3b/pool_proj"
  param {
    lr_mult: 1
    decay_mult: 1
  }
  param {
    lr_mult: 2
    decay_mult: 0
  }
  convolution_param {
    num_output: 64
    kernel_size: 1
    weight_filler {
      type: "xavier"
    }
    bias_filler {
      type: "constant"
      value: 0.2
    }
  }
}
layer {
  name: "inception_3b/relu_pool_proj"
  type: "ReLU"
  bottom: "inception_3b/pool_proj"
  top: "inception_3b/pool_proj"
}
layer {
  name: "inception_3b/output"
  type: "Concat"
  bottom: "inception_3b/1x1"
  bottom: "inception_3b/3x3"
  bottom: "inception_3b/5x5"
  bottom: "inception_3b/pool_proj"
  top: "inception_3b/output"
}
layer {
  name: "pool3/3x3_s2"
  type: "Pooling"
  bottom: "inception_3b/output"
  top: "pool3/3x3_s2"
  pooling_param {
    pool: MAX
    kernel_size: 3
    stride: 2
  }
}
layer {
  name: "inception_4a/1x1"
  type: "Convolution"
  bottom: "pool3/3x3_s2"
  top: "inception_4a/1x1"
  param {
    lr_mult: 1
    decay_mult: 1
  }
  param {
    lr_mult: 2
    decay_mult: 0
  }
  convolution_param {
    num_output: 192
    kernel_size: 1
    weight_filler {
      type: "xavier"
    }
    bias_filler {
      type: "constant"
      value: 0.2
    }
  }
}
layer {
  name: "inception_4a/relu_1x1"
  type: "ReLU"
  bottom: "inception_4a/1x1"
  top: "inception_4a/1x1"
}
layer {
  name: "inception_4a/3x3_reduce"
  type: "Convolution"
  bottom: "pool3/3x3_s2"
  top: "inception_4a/3x3_reduce"
  param {
    lr_mult: 1
    decay_mult: 1
  }
  param {
    lr_mult: 2
    decay_mult: 0
  }
  convolution_param {
    num_output: 96
    kernel_size: 1
    weight_filler {
      type: "xavier"
    }
    bias_filler {
      type: "constant"
      value: 0.2
    }
  }
}
layer {
  name: "inception_4a/relu_3x3_reduce"
  type: "ReLU"
  bottom: "inception_4a/3x3_reduce"
  top: "inception_4a/3x3_reduce"
}
layer {
  name: "inception_4a/3x3"
  type: "Convolution"
  bottom: "inception_4a/3x3_reduce"
  top: "inception_4a/3x3"
  param {
    lr_mult: 1
    decay_mult: 1
  }
  param {
    lr_mult: 2
    decay_mult: 0
  }
  convolution_param {
    num_output: 208
    pad: 1
    kernel_size: 3
    weight_filler {
      type: "xavier"
    }
    bias_filler {
      type: "constant"
      value: 0.2
    }
  }
}
layer {
  name: "inception_4a/relu_3x3"
  type: "ReLU"
  bottom: "inception_4a/3x3"
  top: "inception_4a/3x3"
}
layer {
  name: "inception_4a/5x5_reduce"
  type: "Convolution"
  bottom: "pool3/3x3_s2"
  top: "inception_4a/5x5_reduce"
  param {
    lr_mult: 1
    decay_mult: 1
  }
  param {
    lr_mult: 2
    decay_mult: 0
  }
  convolution_param {
    num_output: 16
    kernel_size: 1
    weight_filler {
      type: "xavier"
    }
    bias_filler {
      type: "constant"
      value: 0.2
    }
  }
}
layer {
  name: "inception_4a/relu_5x5_reduce"
  type: "ReLU"
  bottom: "inception_4a/5x5_reduce"
  top: "inception_4a/5x5_reduce"
}
layer {
  name: "inception_4a/5x5"
  type: "Convolution"
  bottom: "inception_4a/5x5_reduce"
  top: "inception_4a/5x5"
  param {
    lr_mult: 1
    decay_mult: 1
  }
  param {
    lr_mult: 2
    decay_mult: 0
  }
  convolution_param {
    num_output: 48
    pad: 2
    kernel_size: 5
    weight_filler {
      type: "xavier"
    }
    bias_filler {
      type: "constant"
      value: 0.2
    }
  }
}
layer {
  name: "inception_4a/relu_5x5"
  type: "ReLU"
  bottom: "inception_4a/5x5"
  top: "inception_4a/5x5"
}
layer {
  name: "inception_4a/pool"
  type: "Pooling"
  bottom: "pool3/3x3_s2"
  top: "inception_4a/pool"
  pooling_param {
    pool: MAX
    kernel_size: 3
    stride: 1
    pad: 1
  }
}
layer {
  name: "inception_4a/pool_proj"
  type: "Convolution"
  bottom: "inception_4a/pool"
  top: "inception_4a/pool_proj"
  param {
    lr_mult: 1
    decay_mult: 1
  }
  param {
    lr_mult: 2
    decay_mult: 0
  }
  convolution_param {
    num_output: 64
    kernel_size: 1
    weight_filler {
      type: "xavier"
    }
    bias_filler {
      type: "constant"
      value: 0.2
    }
  }
}
layer {
  name: "inception_4a/relu_pool_proj"
  type: "ReLU"
  bottom: "inception_4a/pool_proj"
  top: "inception_4a/pool_proj"
}
layer {
  name: "inception_4a/output"
  type: "Concat"
  bottom: "inception_4a/1x1"
  bottom: "inception_4a/3x3"
  bottom: "inception_4a/5x5"
  bottom: "inception_4a/pool_proj"
  top: "inception_4a/output"
}
layer {
  name: "loss1/ave_pool"
  type: "Pooling"
  bottom: "inception_4a/output"
  top: "loss1/ave_pool"
  pooling_param {
    pool: AVE
    kernel_size: 5
    stride: 3
  }
}
layer {
  name: "loss1/conv"
  type: "Convolution"
  bottom: "loss1/ave_pool"
  top: "loss1/conv"
  param {
    lr_mult: 1
    decay_mult: 1
  }
  param {
    lr_mult: 2
    decay_mult: 0
  }
  convolution_param {
    num_output: 128
    kernel_size: 1
    weight_filler {
      type: "xavier"
    }
    bias_filler {
      type: "constant"
      value: 0.2
    }
  }
}
layer {
  name: "loss1/relu_conv"
  type: "ReLU"
  bottom: "loss1/conv"
  top: "loss1/conv"
}
layer {
  name: "loss1/fc"
  type: "InnerProduct"
  bottom: "loss1/conv"
  top: "loss1/fc"
  param {
    lr_mult: 1
    decay_mult: 1
  }
  param {
    lr_mult: 2
    decay_mult: 0
  }
  inner_product_param {
    num_output: 1024
    weight_filler {
      type: "xavier"
    }
    bias_filler {
      type: "constant"
      value: 0.2
    }
  }
}
layer {
  name: "loss1/relu_fc"
  type: "ReLU"
  bottom: "loss1/fc"
  top: "loss1/fc"
}
layer {
  name: "loss1/drop_fc"
  type: "Dropout"
  bottom: "loss1/fc"
  top: "loss1/fc"
  dropout_param {
    dropout_ratio: 0.7
  }
}
layer {
…
I0522 15:29:58.723202  7874 layer_factory.hpp:77] Creating layer inception_4c/relu_5x5
I0522 15:29:58.723214  7874 net.cpp:91] Creating Layer inception_4c/relu_5x5
I0522 15:29:58.723222  7874 net.cpp:425] inception_4c/relu_5x5 <- inception_4c/5x5
I0522 15:29:58.723230  7874 net.cpp:386] inception_4c/relu_5x5 -> inception_4c/5x5 (in-place)
I0522 15:29:58.723240  7874 net.cpp:141] Setting up inception_4c/relu_5x5
I0522 15:29:58.723249  7874 net.cpp:148] Top shape: 1 64 14 14 (12544)
I0522 15:29:58.723254  7874 net.cpp:156] Memory required for data: 44415200
I0522 15:29:58.723259  7874 layer_factory.hpp:77] Creating layer inception_4c/pool
I0522 15:29:58.723269  7874 net.cpp:91] Creating Layer inception_4c/pool
I0522 15:29:58.723276  7874 net.cpp:425] inception_4c/pool <- inception_4b/output_inception_4b/output_0_split_3
I0522 15:29:58.723286  7874 net.cpp:399] inception_4c/pool -> inception_4c/pool
I0522 15:29:58.723343  7874 net.cpp:141] Setting up inception_4c/pool
I0522 15:29:58.723358  7874 net.cpp:148] Top shape: 1 512 14 14 (100352)
I0522 15:29:58.723364  7874 net.cpp:156] Memory required for data: 44816608
I0522 15:29:58.723369  7874 layer_factory.hpp:77] Creating layer inception_4c/pool_proj
I0522 15:29:58.723383  7874 net.cpp:91] Creating Layer inception_4c/pool_proj
I0522 15:29:58.723392  7874 net.cpp:425] inception_4c/pool_proj <- inception_4c/pool
I0522 15:29:58.723400  7874 net.cpp:399] inception_4c/pool_proj -> inception_4c/pool_proj
I0522 15:29:58.723987  7874 net.cpp:141] Setting up inception_4c/pool_proj
I0522 15:29:58.724005  7874 net.cpp:148] Top shape: 1 64 14 14 (12544)
I0522 15:29:58.724010  7874 net.cpp:156] Memory required for data: 44866784
I0522 15:29:58.724020  7874 layer_factory.hpp:77] Creating layer inception_4c/relu_pool_proj
I0522 15:29:58.724027  7874 net.cpp:91] Creating Layer inception_4c/relu_pool_proj
I0522 15:29:58.724035  7874 net.cpp:425] inception_4c/relu_pool_proj <- inception_4c/pool_proj
I0522 15:29:58.724045  7874 net.cpp:386] inception_4c/relu_pool_proj -> inception_4c/pool_proj (in-place)
I0522 15:29:58.724054  7874 net.cpp:141] Setting up inception_4c/relu_pool_proj
I0522 15:29:58.724061  7874 net.cpp:148] Top shape: 1 64 14 14 (12544)
I0522 15:29:58.724066  7874 net.cpp:156] Memory required for data: 44916960
I0522 15:29:58.724071  7874 layer_factory.hpp:77] Creating layer inception_4c/output
I0522 15:29:58.724077  7874 net.cpp:91] Creating Layer inception_4c/output
I0522 15:29:58.724083  7874 net.cpp:425] inception_4c/output <- inception_4c/1x1
I0522 15:29:58.724089  7874 net.cpp:425] inception_4c/output <- inception_4c/3x3
I0522 15:29:58.724095  7874 net.cpp:425] inception_4c/output <- inception_4c/5x5
I0522 15:29:58.724102  7874 net.cpp:425] inception_4c/output <- inception_4c/pool_proj
I0522 15:29:58.724113  7874 net.cpp:399] inception_4c/output -> inception_4c/output
I0522 15:29:58.724166  7874 net.cpp:141] Setting up inception_4c/output
I0522 15:29:58.724184  7874 net.cpp:148] Top shape: 1 512 14 14 (100352)
I0522 15:29:58.724197  7874 net.cpp:156] Memory required for data: 45318368
I0522 15:29:58.724207  7874 layer_factory.hpp:77] Creating layer inception_4c/output_inception_4c/output_0_split
I0522 15:29:58.724218  7874 net.cpp:91] Creating Layer inception_4c/output_inception_4c/output_0_split
I0522 15:29:58.724225  7874 net.cpp:425] inception_4c/output_inception_4c/output_0_split <- inception_4c/output
I0522 15:29:58.724234  7874 net.cpp:399] inception_4c/output_inception_4c/output_0_split -> inception_4c/output_inception_4c/output_0_split_0
I0522 15:29:58.724246  7874 net.cpp:399] inception_4c/output_inception_4c/output_0_split -> inception_4c/output_inception_4c/output_0_split_1
I0522 15:29:58.724254  7874 net.cpp:399] inception_4c/output_inception_4c/output_0_split -> inception_4c/output_inception_4c/output_0_split_2
I0522 15:29:58.724267  7874 net.cpp:399] inception_4c/output_inception_4c/output_0_split -> inception_4c/output_inception_4c/output_0_split_3
I0522 15:29:58.724354  7874 net.cpp:141] Setting up inception_4c/output_inception_4c/output_0_split
I0522 15:29:58.724366  7874 net.cpp:148] Top shape: 1 512 14 14 (100352)
I0522 15:29:58.724375  7874 net.cpp:148] Top shape: 1 512 14 14 (100352)
I0522 15:29:58.724381  7874 net.cpp:148] Top shape: 1 512 14 14 (100352)
I0522 15:29:58.724388  7874 net.cpp:148] Top shape: 1 512 14 14 (100352)
I0522 15:29:58.724393  7874 net.cpp:156] Memory required for data: 46924000
I0522 15:29:58.724400  7874 layer_factory.hpp:77] Creating layer inception_4d/1x1
I0522 15:29:58.724413  7874 net.cpp:91] Creating Layer inception_4d/1x1
I0522 15:29:58.724421  7874 net.cpp:425] inception_4d/1x1 <- inception_4c/output_inception_4c/output_0_split_0
I0522 15:29:58.724431  7874 net.cpp:399] inception_4d/1x1 -> inception_4d/1x1
I0522 15:29:58.725375  7874 net.cpp:141] Setting up inception_4d/1x1
I0522 15:29:58.725450  7874 net.cpp:148] Top shape: 1 112 14 14 (21952)
I0522 15:29:58.725481  7874 net.cpp:156] Memory required for data: 47011808
I0522 15:29:58.725520  7874 layer_factory.hpp:77] Creating layer inception_4d/relu_1x1
I0522 15:29:58.725559  7874 net.cpp:91] Creating Layer inception_4d/relu_1x1
I0522 15:29:58.725591  7874 net.cpp:425] inception_4d/relu_1x1 <- inception_4d/1x1
I0522 15:29:58.725628  7874 net.cpp:386] inception_4d/relu_1x1 -> inception_4d/1x1 (in-place)
I0522 15:29:58.725670  7874 net.cpp:141] Setting up inception_4d/relu_1x1
I0522 15:29:58.725704  7874 net.cpp:148] Top shape: 1 112 14 14 (21952)
I0522 15:29:58.725733  7874 net.cpp:156] Memory required for data: 47099616
I0522 15:29:58.725762  7874 layer_factory.hpp:77] Creating layer inception_4d/3x3_reduce
I0522 15:29:58.725807  7874 net.cpp:91] Creating Layer inception_4d/3x3_reduce
I0522 15:29:58.725841  7874 net.cpp:425] inception_4d/3x3_reduce <- inception_4c/output_inception_4c/output_0_split_1
I0522 15:29:58.725881  7874 net.cpp:399] inception_4d/3x3_reduce -> inception_4d/3x3_reduce
I0522 15:29:58.727229  7874 net.cpp:141] Setting up inception_4d/3x3_reduce
I0522 15:29:58.727303  7874 net.cpp:148] Top shape: 1 144 14 14 (28224)
I0522 15:29:58.727326  7874 net.cpp:156] Memory required for data: 47212512
I0522 15:29:58.727357  7874 layer_factory.hpp:77] Creating layer inception_4d/relu_3x3_reduce
I0522 15:29:58.727391  7874 net.cpp:91] Creating Layer inception_4d/relu_3x3_reduce
I0522 15:29:58.727418  7874 net.cpp:425] inception_4d/relu_3x3_reduce <- inception_4d/3x3_reduce
I0522 15:29:58.727452  7874 net.cpp:386] inception_4d/relu_3x3_reduce -> inception_4d/3x3_reduce (in-place)
I0522 15:29:58.727519  7874 net.cpp:141] Setting up inception_4d/relu_3x3_reduce
I0522 15:29:58.727550  7874 net.cpp:148] Top shape: 1 144 14 14 (28224)
I0522 15:29:58.727581  7874 net.cpp:156] Memory required for data: 47325408
I0522 15:29:58.727612  7874 layer_factory.hpp:77] Creating layer inception_4d/3x3
I0522 15:29:58.727658  7874 net.cpp:91] Creating Layer inception_4d/3x3
I0522 15:29:58.727691  7874 net.cpp:425] inception_4d/3x3 <- inception_4d/3x3_reduce
I0522 15:29:58.727730  7874 net.cpp:399] inception_4d/3x3 -> inception_4d/3x3
I0522 15:29:58.733148  7874 net.cpp:141] Setting up inception_4d/3x3
I0522 15:29:58.733217  7874 net.cpp:148] Top shape: 1 288 14 14 (56448)
I0522 15:29:58.733223  7874 net.cpp:156] Memory required for data: 47551200
I0522 15:29:58.733239  7874 layer_factory.hpp:77] Creating layer inception_4d/relu_3x3
I0522 15:29:58.733263  7874 net.cpp:91] Creating Layer inception_4d/relu_3x3
I0522 15:29:58.733276  7874 net.cpp:425] inception_4d/relu_3x3 <- inception_4d/3x3
I0522 15:29:58.733294  7874 net.cpp:386] inception_4d/relu_3x3 -> inception_4d/3x3 (in-place)
I0522 15:29:58.733314  7874 net.cpp:141] Setting up inception_4d/relu_3x3
I0522 15:29:58.733321  7874 net.cpp:148] Top shape: 1 288 14 14 (56448)
I0522 15:29:58.733326  7874 net.cpp:156] Memory required for data: 47776992
I0522 15:29:58.733331  7874 layer_factory.hpp:77] Creating layer inception_4d/5x5_reduce
I0522 15:29:58.733362  7874 net.cpp:91] Creating Layer inception_4d/5x5_reduce
I0522 15:29:58.733381  7874 net.cpp:425] inception_4d/5x5_reduce <- inception_4c/output_inception_4c/output_0_split_2
I0522 15:29:58.733402  7874 net.cpp:399] inception_4d/5x5_reduce -> inception_4d/5x5_reduce
I0522 15:29:58.733914  7874 net.cpp:141] Setting up inception_4d/5x5_reduce
I0522 15:29:58.733930  7874 net.cpp:148] Top shape: 1 32 14 14 (6272)
I0522 15:29:58.733935  7874 net.cpp:156] Memory required for data: 47802080
I0522 15:29:58.733944  7874 layer_factory.hpp:77] Creating layer inception_4d/relu_5x5_reduce
I0522 15:29:58.733953  7874 net.cpp:91] Creating Layer inception_4d/relu_5x5_reduce
I0522 15:29:58.733958  7874 net.cpp:425] inception_4d/relu_5x5_reduce <- inception_4d/5x5_reduce
I0522 15:29:58.733968  7874 net.cpp:386] inception_4d/relu_5x5_reduce -> inception_4d/5x5_reduce (in-place)
I0522 15:29:58.733978  7874 net.cpp:141] Setting up inception_4d/relu_5x5_reduce
I0522 15:29:58.733984  7874 net.cpp:148] Top shape: 1 32 14 14 (6272)
I0522 15:29:58.733989  7874 net.cpp:156] Memory required for data: 47827168
I0522 15:29:58.733999  7874 layer_factory.hpp:77] Creating layer inception_4d/5x5
I0522 15:29:58.734022  7874 net.cpp:91] Creating Layer inception_4d/5x5
I0522 15:29:58.734040  7874 net.cpp:425] inception_4d/5x5 <- inception_4d/5x5_reduce
I0522 15:29:58.734058  7874 net.cpp:399] inception_4d/5x5 -> inception_4d/5x5
I0522 15:29:58.734855  7874 net.cpp:141] Setting up inception_4d/5x5
I0522 15:29:58.734879  7874 net.cpp:148] Top shape: 1 64 14 14 (12544)
I0522 15:29:58.734884  7874 net.cpp:156] Memory required for data: 47877344
I0522 15:29:58.734894  7874 layer_factory.hpp:77] Creating layer inception_4d/relu_5x5
I0522 15:29:58.734902  7874 net.cpp:91] Creating Layer inception_4d/relu_5x5
I0522 15:29:58.734910  7874 net.cpp:425] inception_4d/relu_5x5 <- inception_4d/5x5
I0522 15:29:58.734920  7874 net.cpp:386] inception_4d/relu_5x5 -> inception_4d/5x5 (in-place)
I0522 15:29:58.734936  7874 net.cpp:141] Setting up inception_4d/relu_5x5
I0522 15:29:58.734951  7874 net.cpp:148] Top shape: 1 64 14 14 (12544)
I0522 15:29:58.734963  7874 net.cpp:156] Memory required for data: 47927520
I0522 15:29:58.734975  7874 layer_factory.hpp:77] Creating layer inception_4d/pool
I0522 15:29:58.734993  7874 net.cpp:91] Creating Layer inception_4d/pool
I0522 15:29:58.735009  7874 net.cpp:425] inception_4d/pool <- inception_4c/output_inception_4c/output_0_split_3
I0522 15:29:58.735031  7874 net.cpp:399] inception_4d/pool -> inception_4d/pool
I0522 15:29:58.735106  7874 net.cpp:141] Setting up inception_4d/pool
I0522 15:29:58.735126  7874 net.cpp:148] Top shape: 1 512 14 14 (100352)
I0522 15:29:58.735136  7874 net.cpp:156] Memory required for data: 48328928
I0522 15:29:58.735147  7874 layer_factory.hpp:77] Creating layer inception_4d/pool_proj
I0522 15:29:58.735173  7874 net.cpp:91] Creating Layer inception_4d/pool_proj
I0522 15:29:58.735188  7874 net.cpp:425] inception_4d/pool_proj <- inception_4d/pool
I0522 15:29:58.735208  7874 net.cpp:399] inception_4d/pool_proj -> inception_4d/pool_proj
I0522 15:29:58.735839  7874 net.cpp:141] Setting up inception_4d/pool_proj
I0522 15:29:58.735862  7874 net.cpp:148] Top shape: 1 64 14 14 (12544)
I0522 15:29:58.735872  7874 net.cpp:156] Memory required for data: 48379104
I0522 15:29:58.735904  7874 layer_factory.hpp:77] Creating layer inception_4d/relu_pool_proj
I0522 15:29:58.735920  7874 net.cpp:91] Creating Layer inception_4d/relu_pool_proj
I0522 15:29:58.735931  7874 net.cpp:425] inception_4d/relu_pool_proj <- inception_4d/pool_proj
I0522 15:29:58.735944  7874 net.cpp:386] inception_4d/relu_pool_proj -> inception_4d/pool_proj (in-place)
I0522 15:29:58.735962  7874 net.cpp:141] Setting up inception_4d/relu_pool_proj
I0522 15:29:58.735978  7874 net.cpp:148] Top shape: 1 64 14 14 (12544)
I0522 15:29:58.735991  7874 net.cpp:156] Memory required for data: 48429280
I0522 15:29:58.736003  7874 layer_factory.hpp:77] Creating layer inception_4d/output
I0522 15:29:58.736026  7874 net.cpp:91] Creating Layer inception_4d/output
I0522 15:29:58.736039  7874 net.cpp:425] inception_4d/output <- inception_4d/1x1
I0522 15:29:58.736054  7874 net.cpp:425] inception_4d/output <- inception_4d/3x3
I0522 15:29:58.736069  7874 net.cpp:425] inception_4d/output <- inception_4d/5x5
I0522 15:29:58.736084  7874 net.cpp:425] inception_4d/output <- inception_4d/pool_proj
I0522 15:29:58.736101  7874 net.cpp:399] inception_4d/output -> inception_4d/output
I0522 15:29:58.736156  7874 net.cpp:141] Setting up inception_4d/output
I0522 15:29:58.736173  7874 net.cpp:148] Top shape: 1 528 14 14 (103488)
I0522 15:29:58.736183  7874 net.cpp:156] Memory required for data: 48843232
I0522 15:29:58.736196  7874 layer_factory.hpp:77] Creating layer inception_4d/output_inception_4d/output_0_split
I0522 15:29:58.736212  7874 net.cpp:91] Creating Layer inception_4d/output_inception_4d/output_0_split
I0522 15:29:58.736225  7874 net.cpp:425] inception_4d/output_inception_4d/output_0_split <- inception_4d/output
I0522 15:29:58.736246  7874 net.cpp:399] inception_4d/output_inception_4d/output_0_split -> inception_4d/output_inception_4d/output_0_split_0
I0522 15:29:58.736266  7874 net.cpp:399] inception_4d/output_inception_4d/output_0_split -> inception_4d/output_inception_4d/output_0_split_1
I0522 15:29:58.736285  7874 net.cpp:399] inception_4d/output_inception_4d/output_0_split -> inception_4d/output_inception_4d/output_0_split_2
I0522 15:29:58.736305  7874 net.cpp:399] inception_4d/output_inception_4d/output_0_split -> inception_4d/output_inception_4d/output_0_split_3
I0522 15:29:58.736325  7874 net.cpp:399] inception_4d/output_inception_4d/output_0_split -> inception_4d/output_inception_4d/output_0_split_4
I0522 15:29:58.736444  7874 net.cpp:141] Setting up inception_4d/output_inception_4d/output_0_split
I0522 15:29:58.736467  7874 net.cpp:148] Top shape: 1 528 14 14 (103488)
I0522 15:29:58.736480  7874 net.cpp:148] Top shape: 1 528 14 14 (103488)
I0522 15:29:58.736495  7874 net.cpp:148] Top shape: 1 528 14 14 (103488)
I0522 15:29:58.736510  7874 net.cpp:148] Top shape: 1 528 14 14 (103488)
I0522 15:29:58.736526  7874 net.cpp:148] Top shape: 1 528 14 14 (103488)
I0522 15:29:58.736538  7874 net.cpp:156] Memory required for data: 50912992
I0522 15:29:58.736552  7874 layer_factory.hpp:77] Creating layer loss2/ave_pool
I0522 15:29:58.736569  7874 net.cpp:91] Creating Layer loss2/ave_pool
I0522 15:29:58.736582  7874 net.cpp:425] loss2/ave_pool <- inception_4d/output_inception_4d/output_0_split_0
I0522 15:29:58.736600  7874 net.cpp:399] loss2/ave_pool -> loss2/ave_pool
I0522 15:29:58.736654  7874 net.cpp:141] Setting up loss2/ave_pool
I0522 15:29:58.736670  7874 net.cpp:148] Top shape: 1 528 4 4 (8448)
I0522 15:29:58.736680  7874 net.cpp:156] Memory required for data: 50946784
I0522 15:29:58.736692  7874 layer_factory.hpp:77] Creating layer loss2/conv
I0522 15:29:58.736719  7874 net.cpp:91] Creating Layer loss2/conv
I0522 15:29:58.736732  7874 net.cpp:425] loss2/conv <- loss2/ave_pool
I0522 15:29:58.736768  7874 net.cpp:399] loss2/conv -> loss2/conv
I0522 15:29:58.737622  7874 net.cpp:141] Setting up loss2/conv
I0522 15:29:58.737642  7874 net.cpp:148] Top shape: 1 128 4 4 (2048)
I0522 15:29:58.737651  7874 net.cpp:156] Memory required for data: 50954976
I0522 15:29:58.737670  7874 layer_factory.hpp:77] Creating layer loss2/relu_conv
I0522 15:29:58.737686  7874 net.cpp:91] Creating Layer loss2/relu_conv
I0522 15:29:58.737700  7874 net.cpp:425] loss2/relu_conv <- loss2/conv
I0522 15:29:58.737715  7874 net.cpp:386] loss2/relu_conv -> loss2/conv (in-place)
I0522 15:29:58.737735  7874 net.cpp:141] Setting up loss2/relu_conv
I0522 15:29:58.737751  7874 net.cpp:148] Top shape: 1 128 4 4 (2048)
I0522 15:29:58.737763  7874 net.cpp:156] Memory required for data: 50963168
I0522 15:29:58.737776  7874 layer_factory.hpp:77] Creating layer loss2/fc
I0522 15:29:58.737797  7874 net.cpp:91] Creating Layer loss2/fc
I0522 15:29:58.737810  7874 net.cpp:425] loss2/fc <- loss2/conv
I0522 15:29:58.737828  7874 net.cpp:399] loss2/fc -> loss2/fc
I0522 15:29:58.759014  7874 net.cpp:141] Setting up loss2/fc
I0522 15:29:58.759157  7874 net.cpp:148] Top shape: 1 1024 (1024)
I0522 15:29:58.759171  7874 net.cpp:156] Memory required for data: 50967264
I0522 15:29:58.759214  7874 layer_factory.hpp:77] Creating layer loss2/relu_fc
I0522 15:29:58.759258  7874 net.cpp:91] Creating Layer loss2/relu_fc
I0522 15:29:58.759294  7874 net.cpp:425] loss2/relu_fc <- loss2/fc
I0522 15:29:58.759333  7874 net.cpp:386] loss2/relu_fc -> loss2/fc (in-place)
I0522 15:29:58.759378  7874 net.cpp:141] Setting up loss2/relu_fc
I0522 15:29:58.759398  7874 net.cpp:148] Top shape: 1 1024 (1024)
I0522 15:29:58.759449  7874 net.cpp:156] Memory required for data: 50971360
I0522 15:29:58.759491  7874 layer_factory.hpp:77] Creating layer loss2/drop_fc
I0522 15:29:58.759521  7874 net.cpp:91] Creating Layer loss2/drop_fc
I0522 15:29:58.759538  7874 net.cpp:425] loss2/drop_fc <- loss2/fc
I0522 15:29:58.759564  7874 net.cpp:386] loss2/drop_fc -> loss2/fc (in-place)
I0522 15:29:58.759621  7874 net.cpp:141] Setting up loss2/drop_fc
I0522 15:29:58.759637  7874 net.cpp:148] Top shape: 1 1024 (1024)
I0522 15:29:58.759644  7874 net.cpp:156] Memory required for data: 50975456
I0522 15:29:58.759649  7874 layer_factory.hpp:77] Creating layer loss2/classifier
I0522 15:29:58.759672  7874 net.cpp:91] Creating Layer loss2/classifier
I0522 15:29:58.759680  7874 net.cpp:425] loss2/classifier <- loss2/fc
I0522 15:29:58.759691  7874 net.cpp:399] loss2/classifier -> loss2/classifier
I0522 15:29:58.761979  7874 net.cpp:141] Setting up loss2/classifier
I0522 15:29:58.762086  7874 net.cpp:148] Top shape: 1 100 (100)
I0522 15:29:58.762094  7874 net.cpp:156] Memory required for data: 50975856
I0522 15:29:58.762122  7874 layer_factory.hpp:77] Creating layer loss2/classifier_loss2/classifier_0_split
I0522 15:29:58.762151  7874 net.cpp:91] Creating Layer loss2/classifier_loss2/classifier_0_split
I0522 15:29:58.762169  7874 net.cpp:425] loss2/classifier_loss2/classifier_0_split <- loss2/classifier
I0522 15:29:58.762193  7874 net.cpp:399] loss2/classifier_loss2/classifier_0_split -> loss2/classifier_loss2/classifier_0_split_0
I0522 15:29:58.762215  7874 net.cpp:399] loss2/classifier_loss2/classifier_0_split -> loss2/classifier_loss2/classifier_0_split_1
I0522 15:29:58.762229  7874 net.cpp:399] loss2/classifier_loss2/classifier_0_split -> loss2/classifier_loss2/classifier_0_split_2
I0522 15:29:58.762310  7874 net.cpp:141] Setting up loss2/classifier_loss2/classifier_0_split
I0522 15:29:58.762322  7874 net.cpp:148] Top shape: 1 100 (100)
I0522 15:29:58.762329  7874 net.cpp:148] Top shape: 1 100 (100)
I0522 15:29:58.762336  7874 net.cpp:148] Top shape: 1 100 (100)
I0522 15:29:58.762339  7874 net.cpp:156] Memory required for data: 50977056
I0522 15:29:58.762346  7874 layer_factory.hpp:77] Creating layer loss2/loss2
I0522 15:29:58.762358  7874 net.cpp:91] Creating Layer loss2/loss2
I0522 15:29:58.762364  7874 net.cpp:425] loss2/loss2 <- loss2/classifier_loss2/classifier_0_split_0
I0522 15:29:58.762374  7874 net.cpp:425] loss2/loss2 <- label_data_1_split_3
…
I0522 15:29:58.762787  7874 net.cpp:141] Setting up loss2/top-5
I0522 15:29:58.762799  7874 net.cpp:148] Top shape: (1)
I0522 15:29:58.762804  7874 net.cpp:156] Memory required for data: 50977068
I0522 15:29:58.762809  7874 layer_factory.hpp:77] Creating layer inception_4e/1x1
I0522 15:29:58.762840  7874 net.cpp:91] Creating Layer inception_4e/1x1
I0522 15:29:58.762850  7874 net.cpp:425] inception_4e/1x1 <- inception_4d/output_inception_4d/output_0_split_1
I0522 15:29:58.762861  7874 net.cpp:399] inception_4e/1x1 -> inception_4e/1x1
I0522 15:29:58.764482  7874 net.cpp:141] Setting up inception_4e/1x1
I0522 15:29:58.764511  7874 net.cpp:148] Top shape: 1 256 14 14 (50176)
I0522 15:29:58.764518  7874 net.cpp:156] Memory required for data: 51177772
I0522 15:29:58.764528  7874 layer_factory.hpp:77] Creating layer inception_4e/relu_1x1
I0522 15:29:58.764539  7874 net.cpp:91] Creating Layer inception_4e/relu_1x1
I0522 15:29:58.764544  7874 net.cpp:425] inception_4e/relu_1x1 <- inception_4e/1x1
I0522 15:29:58.764559  7874 net.cpp:386] inception_4e/relu_1x1 -> inception_4e/1x1 (in-place)
I0522 15:29:58.764580  7874 net.cpp:141] Setting up inception_4e/relu_1x1
I0522 15:29:58.764595  7874 net.cpp:148] Top shape: 1 256 14 14 (50176)
I0522 15:29:58.764602  7874 net.cpp:156] Memory required for data: 51378476
I0522 15:29:58.764611  7874 layer_factory.hpp:77] Creating layer inception_4e/3x3_reduce
I0522 15:29:58.764655  7874 net.cpp:91] Creating Layer inception_4e/3x3_reduce
I0522 15:29:58.764669  7874 net.cpp:425] inception_4e/3x3_reduce <- inception_4d/output_inception_4d/output_0_split_2
I0522 15:29:58.764683  7874 net.cpp:399] inception_4e/3x3_reduce -> inception_4e/3x3_reduce
I0522 15:29:58.766830  7874 net.cpp:141] Setting up inception_4e/3x3_reduce
I0522 15:29:58.767006  7874 net.cpp:148] Top shape: 1 160 14 14 (31360)
I0522 15:29:58.767048  7874 net.cpp:156] Memory required for data: 51503916
I0522 15:29:58.767107  7874 layer_factory.hpp:77] Creating layer inception_4e/relu_3x3_reduce
I0522 15:29:58.767164  7874 net.cpp:91] Creating Layer inception_4e/relu_3x3_reduce
I0522 15:29:58.767212  7874 net.cpp:425] inception_4e/relu_3x3_reduce <- inception_4e/3x3_reduce
I0522 15:29:58.767256  7874 net.cpp:386] inception_4e/relu_3x3_reduce -> inception_4e/3x3_reduce (in-place)
I0522 15:29:58.767310  7874 net.cpp:141] Setting up inception_4e/relu_3x3_reduce
I0522 15:29:58.767349  7874 net.cpp:148] Top shape: 1 160 14 14 (31360)
I0522 15:29:58.767380  7874 net.cpp:156] Memory required for data: 51629356
I0522 15:29:58.767412  7874 layer_factory.hpp:77] Creating layer inception_4e/3x3
I0522 15:29:58.767503  7874 net.cpp:91] Creating Layer inception_4e/3x3
I0522 15:29:58.767550  7874 net.cpp:425] inception_4e/3x3 <- inception_4e/3x3_reduce
I0522 15:29:58.767590  7874 net.cpp:399] inception_4e/3x3 -> inception_4e/3x3
I0522 15:29:58.773936  7874 net.cpp:141] Setting up inception_4e/3x3
I0522 15:29:58.773985  7874 net.cpp:148] Top shape: 1 320 14 14 (62720)
I0522 15:29:58.773991  7874 net.cpp:156] Memory required for data: 51880236
I0522 15:29:58.774004  7874 layer_factory.hpp:77] Creating layer inception_4e/relu_3x3
I0522 15:29:58.774021  7874 net.cpp:91] Creating Layer inception_4e/relu_3x3
I0522 15:29:58.774032  7874 net.cpp:425] inception_4e/relu_3x3 <- inception_4e/3x3
I0522 15:29:58.774044  7874 net.cpp:386] inception_4e/relu_3x3 -> inception_4e/3x3 (in-place)
I0522 15:29:58.774056  7874 net.cpp:141] Setting up inception_4e/relu_3x3
I0522 15:29:58.774062  7874 net.cpp:148] Top shape: 1 320 14 14 (62720)
I0522 15:29:58.774071  7874 net.cpp:156] Memory required for data: 52131116
I0522 15:29:58.774077  7874 layer_factory.hpp:77] Creating layer inception_4e/5x5_reduce
I0522 15:29:58.774093  7874 net.cpp:91] Creating Layer inception_4e/5x5_reduce
I0522 15:29:58.774106  7874 net.cpp:425] inception_4e/5x5_reduce <- inception_4d/output_inception_4d/output_0_split_3
I0522 15:29:58.774122  7874 net.cpp:399] inception_4e/5x5_reduce -> inception_4e/5x5_reduce
I0522 15:29:58.774554  7874 net.cpp:141] Setting up inception_4e/5x5_reduce
I0522 15:29:58.774572  7874 net.cpp:148] Top shape: 1 32 14 14 (6272)
I0522 15:29:58.774581  7874 net.cpp:156] Memory required for data: 52156204
I0522 15:29:58.774601  7874 layer_factory.hpp:77] Creating layer inception_4e/relu_5x5_reduce
I0522 15:29:58.774615  7874 net.cpp:91] Creating Layer inception_4e/relu_5x5_reduce
I0522 15:29:58.774621  7874 net.cpp:425] inception_4e/relu_5x5_reduce <- inception_4e/5x5_reduce
I0522 15:29:58.774633  7874 net.cpp:386] inception_4e/relu_5x5_reduce -> inception_4e/5x5_reduce (in-place)
I0522 15:29:58.774643  7874 net.cpp:141] Setting up inception_4e/relu_5x5_reduce
I0522 15:29:58.774652  7874 net.cpp:148] Top shape: 1 32 14 14 (6272)
I0522 15:29:58.774657  7874 net.cpp:156] Memory required for data: 52181292
I0522 15:29:58.774662  7874 layer_factory.hpp:77] Creating layer inception_4e/5x5
I0522 15:29:58.774677  7874 net.cpp:91] Creating Layer inception_4e/5x5
I0522 15:29:58.774685  7874 net.cpp:425] inception_4e/5x5 <- inception_4e/5x5_reduce
I0522 15:29:58.774693  7874 net.cpp:399] inception_4e/5x5 -> inception_4e/5x5
I0522 15:29:58.775816  7874 net.cpp:141] Setting up inception_4e/5x5
I0522 15:29:58.775837  7874 net.cpp:148] Top shape: 1 128 14 14 (25088)
I0522 15:29:58.775842  7874 net.cpp:156] Memory required for data: 52281644
I0522 15:29:58.775851  7874 layer_factory.hpp:77] Creating layer inception_4e/relu_5x5
I0522 15:29:58.775861  7874 net.cpp:91] Creating Layer inception_4e/relu_5x5
I0522 15:29:58.775868  7874 net.cpp:425] inception_4e/relu_5x5 <- inception_4e/5x5
I0522 15:29:58.775876  7874 net.cpp:386] inception_4e/relu_5x5 -> inception_4e/5x5 (in-place)
I0522 15:29:58.775887  7874 net.cpp:141] Setting up inception_4e/relu_5x5
I0522 15:29:58.775894  7874 net.cpp:148] Top shape: 1 128 14 14 (25088)
I0522 15:29:58.775900  7874 net.cpp:156] Memory required for data: 52381996
I0522 15:29:58.775908  7874 layer_factory.hpp:77] Creating layer inception_4e/pool
I0522 15:29:58.775918  7874 net.cpp:91] Creating Layer inception_4e/pool
I0522 15:29:58.775928  7874 net.cpp:425] inception_4e/pool <- inception_4d/output_inception_4d/output_0_split_4
I0522 15:29:58.775936  7874 net.cpp:399] inception_4e/pool -> inception_4e/pool
I0522 15:29:58.775988  7874 net.cpp:141] Setting up inception_4e/pool
I0522 15:29:58.776000  7874 net.cpp:148] Top shape: 1 528 14 14 (103488)
I0522 15:29:58.776006  7874 net.cpp:156] Memory required for data: 52795948
I0522 15:29:58.776011  7874 layer_factory.hpp:77] Creating layer inception_4e/pool_proj
I0522 15:29:58.776026  7874 net.cpp:91] Creating Layer inception_4e/pool_proj
I0522 15:29:58.776032  7874 net.cpp:425] inception_4e/pool_proj <- inception_4e/pool
I0522 15:29:58.776044  7874 net.cpp:399] inception_4e/pool_proj -> inception_4e/pool_proj
I0522 15:29:58.776821  7874 net.cpp:141] Setting up inception_4e/pool_proj
I0522 15:29:58.776837  7874 net.cpp:148] Top shape: 1 128 14 14 (25088)
I0522 15:29:58.776842  7874 net.cpp:156] Memory required for data: 52896300
I0522 15:29:58.776850  7874 layer_factory.hpp:77] Creating layer inception_4e/relu_pool_proj
I0522 15:29:58.776859  7874 net.cpp:91] Creating Layer inception_4e/relu_pool_proj
I0522 15:29:58.776865  7874 net.cpp:425] inception_4e/relu_pool_proj <- inception_4e/pool_proj
I0522 15:29:58.776871  7874 net.cpp:386] inception_4e/relu_pool_proj -> inception_4e/pool_proj (in-place)
I0522 15:29:58.776885  7874 net.cpp:141] Setting up inception_4e/relu_pool_proj
I0522 15:29:58.776899  7874 net.cpp:148] Top shape: 1 128 14 14 (25088)
I0522 15:29:58.776911  7874 net.cpp:156] Memory required for data: 52996652
I0522 15:29:58.776926  7874 layer_factory.hpp:77] Creating layer inception_4e/output
I0522 15:29:58.776937  7874 net.cpp:91] Creating Layer inception_4e/output
I0522 15:29:58.776945  7874 net.cpp:425] inception_4e/output <- inception_4e/1x1
I0522 15:29:58.776957  7874 net.cpp:425] inception_4e/output <- inception_4e/3x3
I0522 15:29:58.776969  7874 net.cpp:425] inception_4e/output <- inception_4e/5x5
I0522 15:29:58.776985  7874 net.cpp:425] inception_4e/output <- inception_4e/pool_proj
I0522 15:29:58.777004  7874 net.cpp:399] inception_4e/output -> inception_4e/output
I0522 15:29:58.777053  7874 net.cpp:141] Setting up inception_4e/output
I0522 15:29:58.777070  7874 net.cpp:148] Top shape: 1 832 14 14 (163072)
I0522 15:29:58.777081  7874 net.cpp:156] Memory required for data: 53648940
I0522 15:29:58.777092  7874 layer_factory.hpp:77] Creating layer pool4/3x3_s2
I0522 15:29:58.777112  7874 net.cpp:91] Creating Layer pool4/3x3_s2
I0522 15:29:58.777127  7874 net.cpp:425] pool4/3x3_s2 <- inception_4e/output
I0522 15:29:58.777144  7874 net.cpp:399] pool4/3x3_s2 -> pool4/3x3_s2
I0522 15:29:58.777199  7874 net.cpp:141] Setting up pool4/3x3_s2
I0522 15:29:58.777211  7874 net.cpp:148] Top shape: 1 832 7 7 (40768)
I0522 15:29:58.777217  7874 net.cpp:156] Memory required for data: 53812012
I0522 15:29:58.777222  7874 layer_factory.hpp:77] Creating layer pool4/3x3_s2_pool4/3x3_s2_0_split
I0522 15:29:58.777231  7874 net.cpp:91] Creating Layer pool4/3x3_s2_pool4/3x3_s2_0_split
I0522 15:29:58.777238  7874 net.cpp:425] pool4/3x3_s2_pool4/3x3_s2_0_split <- pool4/3x3_s2
I0522 15:29:58.777247  7874 net.cpp:399] pool4/3x3_s2_pool4/3x3_s2_0_split -> pool4/3x3_s2_pool4/3x3_s2_0_split_0
I0522 15:29:58.777257  7874 net.cpp:399] pool4/3x3_s2_pool4/3x3_s2_0_split -> pool4/3x3_s2_pool4/3x3_s2_0_split_1
I0522 15:29:58.777267  7874 net.cpp:399] pool4/3x3_s2_pool4/3x3_s2_0_split -> pool4/3x3_s2_pool4/3x3_s2_0_split_2
I0522 15:29:58.777297  7874 net.cpp:399] pool4/3x3_s2_pool4/3x3_s2_0_split -> pool4/3x3_s2_pool4/3x3_s2_0_split_3
I0522 15:29:58.777367  7874 net.cpp:141] Setting up pool4/3x3_s2_pool4/3x3_s2_0_split
I0522 15:29:58.777379  7874 net.cpp:148] Top shape: 1 832 7 7 (40768)
I0522 15:29:58.777386  7874 net.cpp:148] Top shape: 1 832 7 7 (40768)
I0522 15:29:58.777395  7874 net.cpp:148] Top shape: 1 832 7 7 (40768)
I0522 15:29:58.777401  7874 net.cpp:148] Top shape: 1 832 7 7 (40768)
I0522 15:29:58.777407  7874 net.cpp:156] Memory required for data: 54464300
I0522 15:29:58.777415  7874 layer_factory.hpp:77] Creating layer inception_5a/1x1
I0522 15:29:58.777431  7874 net.cpp:91] Creating Layer inception_5a/1x1
I0522 15:29:58.777437  7874 net.cpp:425] inception_5a/1x1 <- pool4/3x3_s2_pool4/3x3_s2_0_split_0
I0522 15:29:58.777448  7874 net.cpp:399] inception_5a/1x1 -> inception_5a/1x1
I0522 15:29:58.779841  7874 net.cpp:141] Setting up inception_5a/1x1
I0522 15:29:58.779865  7874 net.cpp:148] Top shape: 1 256 7 7 (12544)
I0522 15:29:58.779870  7874 net.cpp:156] Memory required for data: 54514476
I0522 15:29:58.779881  7874 layer_factory.hpp:77] Creating layer inception_5a/relu_1x1
I0522 15:29:58.779891  7874 net.cpp:91] Creating Layer inception_5a/relu_1x1
I0522 15:29:58.779897  7874 net.cpp:425] inception_5a/relu_1x1 <- inception_5a/1x1
I0522 15:29:58.779906  7874 net.cpp:386] inception_5a/relu_1x1 -> inception_5a/1x1 (in-place)
I0522 15:29:58.779916  7874 net.cpp:141] Setting up inception_5a/relu_1x1
I0522 15:29:58.779923  7874 net.cpp:148] Top shape: 1 256 7 7 (12544)
I0522 15:29:58.779929  7874 net.cpp:156] Memory required for data: 54564652
I0522 15:29:58.779934  7874 layer_factory.hpp:77] Creating layer inception_5a/3x3_reduce
I0522 15:29:58.779948  7874 net.cpp:91] Creating Layer inception_5a/3x3_reduce
I0522 15:29:58.779958  7874 net.cpp:425] inception_5a/3x3_reduce <- pool4/3x3_s2_pool4/3x3_s2_0_split_1
I0522 15:29:58.779965  7874 net.cpp:399] inception_5a/3x3_reduce -> inception_5a/3x3_reduce
I0522 15:29:58.781675  7874 net.cpp:141] Setting up inception_5a/3x3_reduce
I0522 15:29:58.781693  7874 net.cpp:148] Top shape: 1 160 7 7 (7840)
I0522 15:29:58.781698  7874 net.cpp:156] Memory required for data: 54596012
I0522 15:29:58.781709  7874 layer_factory.hpp:77] Creating layer inception_5a/relu_3x3_reduce
I0522 15:29:58.781719  7874 net.cpp:91] Creating Layer inception_5a/relu_3x3_reduce
I0522 15:29:58.781728  7874 net.cpp:425] inception_5a/relu_3x3_reduce <- inception_5a/3x3_reduce
I0522 15:29:58.781736  7874 net.cpp:386] inception_5a/relu_3x3_reduce -> inception_5a/3x3_reduce (in-place)
I0522 15:29:58.781747  7874 net.cpp:141] Setting up inception_5a/relu_3x3_reduce
I0522 15:29:58.781755  7874 net.cpp:148] Top shape: 1 160 7 7 (7840)
I0522 15:29:58.781761  7874 net.cpp:156] Memory required for data: 54627372
I0522 15:29:58.781766  7874 layer_factory.hpp:77] Creating layer inception_5a/3x3
I0522 15:29:58.781780  7874 net.cpp:91] Creating Layer inception_5a/3x3
I0522 15:29:58.781788  7874 net.cpp:425] inception_5a/3x3 <- inception_5a/3x3_reduce
I0522 15:29:58.781796  7874 net.cpp:399] inception_5a/3x3 -> inception_5a/3x3
I0522 15:29:58.786173  7874 net.cpp:141] Setting up inception_5a/3x3
I0522 15:29:58.786196  7874 net.cpp:148] Top shape: 1 320 7 7 (15680)
I0522 15:29:58.786201  7874 net.cpp:156] Memory required for data: 54690092
I0522 15:29:58.786211  7874 layer_factory.hpp:77] Creating layer inception_5a/relu_3x3
I0522 15:29:58.786223  7874 net.cpp:91] Creating Layer inception_5a/relu_3x3
I0522 15:29:58.786231  7874 net.cpp:425] inception_5a/relu_3x3 <- inception_5a/3x3
I0522 15:29:58.786240  7874 net.cpp:386] inception_5a/relu_3x3 -> inception_5a/3x3 (in-place)
I0522 15:29:58.786258  7874 net.cpp:141] Setting up inception_5a/relu_3x3
I0522 15:29:58.786273  7874 net.cpp:148] Top shape: 1 320 7 7 (15680)
I0522 15:29:58.786284  7874 net.cpp:156] Memory required for data: 54752812
I0522 15:29:58.786300  7874 layer_factory.hpp:77] Creating layer inception_5a/5x5_reduce
I0522 15:29:58.786319  7874 net.cpp:91] Creating Layer inception_5a/5x5_reduce
I0522 15:29:58.786326  7874 net.cpp:425] inception_5a/5x5_reduce <- pool4/3x3_s2_pool4/3x3_s2_0_split_2
I0522 15:29:58.786334  7874 net.cpp:399] inception_5a/5x5_reduce -> inception_5a/5x5_reduce
I0522 15:29:58.787477  7874 net.cpp:141] Setting up inception_5a/5x5_reduce
I0522 15:29:58.787495  7874 net.cpp:148] Top shape: 1 32 7 7 (1568)
I0522 15:29:58.787502  7874 net.cpp:156] Memory required for data: 54759084
I0522 15:29:58.787510  7874 layer_factory.hpp:77] Creating layer inception_5a/relu_5x5_reduce
I0522 15:29:58.787519  7874 net.cpp:91] Creating Layer inception_5a/relu_5x5_reduce
I0522 15:29:58.787528  7874 net.cpp:425] inception_5a/relu_5x5_reduce <- inception_5a/5x5_reduce
I0522 15:29:58.787539  7874 net.cpp:386] inception_5a/relu_5x5_reduce -> inception_5a/5x5_reduce (in-place)
I0522 15:29:58.787549  7874 net.cpp:141] Setting up inception_5a/relu_5x5_reduce
I0522 15:29:58.787556  7874 net.cpp:148] Top shape: 1 32 7 7 (1568)
I0522 15:29:58.787561  7874 net.cpp:156] Memory required for data: 54765356
I0522 15:29:58.787567  7874 layer_factory.hpp:77] Creating layer inception_5a/5x5
I0522 15:29:58.787580  7874 net.cpp:91] Creating Layer inception_5a/5x5
I0522 15:29:58.787587  7874 net.cpp:425] inception_5a/5x5 <- inception_5a/5x5_reduce
I0522 15:29:58.787596  7874 net.cpp:399] inception_5a/5x5 -> inception_5a/5x5
I0522 15:29:58.788686  7874 net.cpp:141] Setting up inception_5a/5x5
I0522 15:29:58.788707  7874 net.cpp:148] Top shape: 1 128 7 7 (6272)
I0522 15:29:58.788712  7874 net.cpp:156] Memory required for data: 54790444
I0522 15:29:58.788722  7874 layer_factory.hpp:77] Creating layer inception_5a/relu_5x5
I0522 15:29:58.788731  7874 net.cpp:91] Creating Layer inception_5a/relu_5x5
I0522 15:29:58.788738  7874 net.cpp:425] inception_5a/relu_5x5 <- inception_5a/5x5
I0522 15:29:58.788748  7874 net.cpp:386] inception_5a/relu_5x5 -> inception_5a/5x5 (in-place)
I0522 15:29:58.788758  7874 net.cpp:141] Setting up inception_5a/relu_5x5
I0522 15:29:58.788764  7874 net.cpp:148] Top shape: 1 128 7 7 (6272)
I0522 15:29:58.788769  7874 net.cpp:156] Memory required for data: 54815532
I0522 15:29:58.788775  7874 layer_factory.hpp:77] Creating layer inception_5a/pool
I0522 15:29:58.788786  7874 net.cpp:91] Creating Layer inception_5a/pool
I0522 15:29:58.788794  7874 net.cpp:425] inception_5a/pool <- pool4/3x3_s2_pool4/3x3_s2_0_split_3
I0522 15:29:58.788801  7874 net.cpp:399] inception_5a/pool -> inception_5a/pool
I0522 15:29:58.788868  7874 net.cpp:141] Setting up inception_5a/pool
I0522 15:29:58.788883  7874 net.cpp:148] Top shape: 1 832 7 7 (40768)
I0522 15:29:58.788888  7874 net.cpp:156] Memory required for data: 54978604
I0522 15:29:58.788893  7874 layer_factory.hpp:77] Creating layer inception_5a/pool_proj
I0522 15:29:58.788926  7874 net.cpp:91] Creating Layer inception_5a/pool_proj
I0522 15:29:58.788933  7874 net.cpp:425] inception_5a/pool_proj <- inception_5a/pool
I0522 15:29:58.788944  7874 net.cpp:399] inception_5a/pool_proj -> inception_5a/pool_proj
I0522 15:29:58.791184  7874 net.cpp:141] Setting up inception_5a/pool_proj
I0522 15:29:58.791255  7874 net.cpp:148] Top shape: 1 128 7 7 (6272)
I0522 15:29:58.791261  7874 net.cpp:156] Memory required for data: 55003692
I0522 15:29:58.791276  7874 layer_factory.hpp:77] Creating layer inception_5a/relu_pool_proj
I0522 15:29:58.791296  7874 net.cpp:91] Creating Layer inception_5a/relu_pool_proj
I0522 15:29:58.791317  7874 net.cpp:425] inception_5a/relu_pool_proj <- inception_5a/pool_proj
I0522 15:29:58.791326  7874 net.cpp:386] inception_5a/relu_pool_proj -> inception_5a/pool_proj (in-place)
I0522 15:29:58.791342  7874 net.cpp:141] Setting up inception_5a/relu_pool_proj
I0522 15:29:58.791355  7874 net.cpp:148] Top shape: 1 128 7 7 (6272)
I0522 15:29:58.791360  7874 net.cpp:156] Memory required for data: 55028780
I0522 15:29:58.791365  7874 layer_factory.hpp:77] Creating layer inception_5a/output
I0522 15:29:58.791388  7874 net.cpp:91] Creating Layer inception_5a/output
I0522 15:29:58.791395  7874 net.cpp:425] inception_5a/output <- inception_5a/1x1
I0522 15:29:58.791402  7874 net.cpp:425] inception_5a/output <- inception_5a/3x3
I0522 15:29:58.791409  7874 net.cpp:425] inception_5a/output <- inception_5a/5x5
I0522 15:29:58.791415  7874 net.cpp:425] inception_5a/output <- inception_5a/pool_proj
I0522 15:29:58.791425  7874 net.cpp:399] inception_5a/output -> inception_5a/output
I0522 15:29:58.791525  7874 net.cpp:141] Setting up inception_5a/output
I0522 15:29:58.791545  7874 net.cpp:148] Top shape: 1 832 7 7 (40768)
I0522 15:29:58.791551  7874 net.cpp:156] Memory required for data: 55191852
I0522 15:29:58.791558  7874 layer_factory.hpp:77] Creating layer inception_5a/output_inception_5a/output_0_split
I0522 15:29:58.791570  7874 net.cpp:91] Creating Layer inception_5a/output_inception_5a/output_0_split
I0522 15:29:58.791579  7874 net.cpp:425] inception_5a/output_inception_5a/output_0_split <- inception_5a/output
I0522 15:29:58.791585  7874 net.cpp:399] inception_5a/output_inception_5a/output_0_split -> inception_5a/output_inception_5a/output_0_split_0
I0522 15:29:58.791595  7874 net.cpp:399] inception_5a/output_inception_5a/output_0_split -> inception_5a/output_inception_5a/output_0_split_1
I0522 15:29:58.791615  7874 net.cpp:399] inception_5a/output_inception_5a/output_0_split -> inception_5a/output_inception_5a/output_0_split_2
I0522 15:29:58.791625  7874 net.cpp:399] inception_5a/output_inception_5a/output_0_split -> inception_5a/output_inception_5a/output_0_split_3
I0522 15:29:58.791707  7874 net.cpp:141] Setting up inception_5a/output_inception_5a/output_0_split
I0522 15:29:58.791721  7874 net.cpp:148] Top shape: 1 832 7 7 (40768)
I0522 15:29:58.791728  7874 net.cpp:148] Top shape: 1 832 7 7 (40768)
I0522 15:29:58.791733  7874 net.cpp:148] Top shape: 1 832 7 7 (40768)
I0522 15:29:58.791739  7874 net.cpp:148] Top shape: 1 832 7 7 (40768)
I0522 15:29:58.791744  7874 net.cpp:156] Memory required for data: 55844140
I0522 15:29:58.791750  7874 layer_factory.hpp:77] Creating layer inception_5b/1x1
I0522 15:29:58.791786  7874 net.cpp:91] Creating Layer inception_5b/1x1
I0522 15:29:58.791793  7874 net.cpp:425] inception_5b/1x1 <- inception_5a/output_inception_5a/output_0_split_0
I0522 15:29:58.791805  7874 net.cpp:399] inception_5b/1x1 -> inception_5b/1x1
I0522 15:29:58.796161  7874 net.cpp:141] Setting up inception_5b/1x1
I0522 15:29:58.796262  7874 net.cpp:148] Top shape: 1 384 7 7 (18816)
I0522 15:29:58.796269  7874 net.cpp:156] Memory required for data: 55919404
I0522 15:29:58.796291  7874 layer_factory.hpp:77] Creating layer inception_5b/relu_1x1
I0522 15:29:58.796321  7874 net.cpp:91] Creating Layer inception_5b/relu_1x1
I0522 15:29:58.796339  7874 net.cpp:425] inception_5b/relu_1x1 <- inception_5b/1x1
I0522 15:29:58.796358  7874 net.cpp:386] inception_5b/relu_1x1 -> inception_5b/1x1 (in-place)
I0522 15:29:58.796386  7874 net.cpp:141] Setting up inception_5b/relu_1x1
I0522 15:29:58.796394  7874 net.cpp:148] Top shape: 1 384 7 7 (18816)
I0522 15:29:58.796399  7874 net.cpp:156] Memory required for data: 55994668
I0522 15:29:58.796404  7874 layer_factory.hpp:77] Creating layer inception_5b/3x3_reduce
I0522 15:29:58.796434  7874 net.cpp:91] Creating Layer inception_5b/3x3_reduce
I0522 15:29:58.796443  7874 net.cpp:425] inception_5b/3x3_reduce <- inception_5a/output_inception_5a/output_0_split_1
I0522 15:29:58.796455  7874 net.cpp:399] inception_5b/3x3_reduce -> inception_5b/3x3_reduce
I0522 15:29:58.799345  7874 net.cpp:141] Setting up inception_5b/3x3_reduce
I0522 15:29:58.799454  7874 net.cpp:148] Top shape: 1 192 7 7 (9408)
I0522 15:29:58.799480  7874 net.cpp:156] Memory required for data: 56032300
I0522 15:29:58.799505  7874 layer_factory.hpp:77] Creating layer inception_5b/relu_3x3_reduce
I0522 15:29:58.799535  7874 net.cpp:91] Creating Layer inception_5b/relu_3x3_reduce
I0522 15:29:58.799551  7874 net.cpp:425] inception_5b/relu_3x3_reduce <- inception_5b/3x3_reduce
I0522 15:29:58.799574  7874 net.cpp:386] inception_5b/relu_3x3_reduce -> inception_5b/3x3_reduce (in-place)
I0522 15:29:58.799597  7874 net.cpp:141] Setting up inception_5b/relu_3x3_reduce
I0522 15:29:58.799604  7874 net.cpp:148] Top shape: 1 192 7 7 (9408)
I0522 15:29:58.799609  7874 net.cpp:156] Memory required for data: 56069932
I0522 15:29:58.799614  7874 layer_factory.hpp:77] Creating layer inception_5b/3x3
I0522 15:29:58.799643  7874 net.cpp:91] Creating Layer inception_5b/3x3
I0522 15:29:58.799649  7874 net.cpp:425] inception_5b/3x3 <- inception_5b/3x3_reduce
I0522 15:29:58.799659  7874 net.cpp:399] inception_5b/3x3 -> inception_5b/3x3
I0522 15:29:58.809239  7874 net.cpp:141] Setting up inception_5b/3x3
I0522 15:29:58.809286  7874 net.cpp:148] Top shape: 1 384 7 7 (18816)
I0522 15:29:58.809300  7874 net.cpp:156] Memory required for data: 56145196
I0522 15:29:58.809317  7874 layer_factory.hpp:77] Creating layer inception_5b/relu_3x3
I0522 15:29:58.809336  7874 net.cpp:91] Creating Layer inception_5b/relu_3x3
I0522 15:29:58.809348  7874 net.cpp:425] inception_5b/relu_3x3 <- inception_5b/3x3
I0522 15:29:58.809361  7874 net.cpp:386] inception_5b/relu_3x3 -> inception_5b/3x3 (in-place)
I0522 15:29:58.809384  7874 net.cpp:141] Setting up inception_5b/relu_3x3
I0522 15:29:58.809396  7874 net.cpp:148] Top shape: 1 384 7 7 (18816)
I0522 15:29:58.809403  7874 net.cpp:156] Memory required for data: 56220460
I0522 15:29:58.809411  7874 layer_factory.hpp:77] Creating layer inception_5b/5x5_reduce
I0522 15:29:58.809432  7874 net.cpp:91] Creating Layer inception_5b/5x5_reduce
I0522 15:29:58.809447  7874 net.cpp:425] inception_5b/5x5_reduce <- inception_5a/output_inception_5a/output_0_split_2
I0522 15:29:58.809463  7874 net.cpp:399] inception_5b/5x5_reduce -> inception_5b/5x5_reduce
I0522 15:29:58.810338  7874 net.cpp:141] Setting up inception_5b/5x5_reduce
I0522 15:29:58.810358  7874 net.cpp:148] Top shape: 1 48 7 7 (2352)
I0522 15:29:58.810366  7874 net.cpp:156] Memory required for data: 56229868
I0522 15:29:58.810379  7874 layer_factory.hpp:77] Creating layer inception_5b/relu_5x5_reduce
I0522 15:29:58.810395  7874 net.cpp:91] Creating Layer inception_5b/relu_5x5_reduce
I0522 15:29:58.810405  7874 net.cpp:425] inception_5b/relu_5x5_reduce <- inception_5b/5x5_reduce
I0522 15:29:58.810420  7874 net.cpp:386] inception_5b/relu_5x5_reduce -> inception_5b/5x5_reduce (in-place)
I0522 15:29:58.810433  7874 net.cpp:141] Setting up inception_5b/relu_5x5_reduce
I0522 15:29:58.810446  7874 net.cpp:148] Top shape: 1 48 7 7 (2352)
I0522 15:29:58.810456  7874 net.cpp:156] Memory required for data: 56239276
I0522 15:29:58.810462  7874 layer_factory.hpp:77] Creating layer inception_5b/5x5
I0522 15:29:58.810473  7874 net.cpp:91] Creating Layer inception_5b/5x5
I0522 15:29:58.810482  7874 net.cpp:425] inception_5b/5x5 <- inception_5b/5x5_reduce
I0522 15:29:58.810493  7874 net.cpp:399] inception_5b/5x5 -> inception_5b/5x5
I0522 15:29:58.811906  7874 net.cpp:141] Setting up inception_5b/5x5
I0522 15:29:58.811923  7874 net.cpp:148] Top shape: 1 128 7 7 (6272)
I0522 15:29:58.811928  7874 net.cpp:156] Memory required for data: 56264364
I0522 15:29:58.811939  7874 layer_factory.hpp:77] Creating layer inception_5b/relu_5x5
I0522 15:29:58.811947  7874 net.cpp:91] Creating Layer inception_5b/relu_5x5
I0522 15:29:58.811954  7874 net.cpp:425] inception_5b/relu_5x5 <- inception_5b/5x5
I0522 15:29:58.811960  7874 net.cpp:386] inception_5b/relu_5x5 -> inception_5b/5x5 (in-place)
I0522 15:29:58.811969  7874 net.cpp:141] Setting up inception_5b/relu_5x5
I0522 15:29:58.811975  7874 net.cpp:148] Top shape: 1 128 7 7 (6272)
I0522 15:29:58.811980  7874 net.cpp:156] Memory required for data: 56289452
I0522 15:29:58.811985  7874 layer_factory.hpp:77] Creating layer inception_5b/pool
I0522 15:29:58.811995  7874 net.cpp:91] Creating Layer inception_5b/pool
I0522 15:29:58.812003  7874 net.cpp:425] inception_5b/pool <- inception_5a/output_inception_5a/output_0_split_3
I0522 15:29:58.812011  7874 net.cpp:399] inception_5b/pool -> inception_5b/pool
I0522 15:29:58.812062  7874 net.cpp:141] Setting up inception_5b/pool
I0522 15:29:58.812072  7874 net.cpp:148] Top shape: 1 832 7 7 (40768)
I0522 15:29:58.812077  7874 net.cpp:156] Memory required for data: 56452524
I0522 15:29:58.812081  7874 layer_factory.hpp:77] Creating layer inception_5b/pool_proj
I0522 15:29:58.812098  7874 net.cpp:91] Creating Layer inception_5b/pool_proj
I0522 15:29:58.812106  7874 net.cpp:425] inception_5b/pool_proj <- inception_5b/pool
I0522 15:29:58.812115  7874 net.cpp:399] inception_5b/pool_proj -> inception_5b/pool_proj
I0522 15:29:58.813642  7874 net.cpp:141] Setting up inception_5b/pool_proj
I0522 15:29:58.813658  7874 net.cpp:148] Top shape: 1 128 7 7 (6272)
I0522 15:29:58.813663  7874 net.cpp:156] Memory required for data: 56477612
I0522 15:29:58.813675  7874 layer_factory.hpp:77] Creating layer inception_5b/relu_pool_proj
I0522 15:29:58.813683  7874 net.cpp:91] Creating Layer inception_5b/relu_pool_proj
I0522 15:29:58.813690  7874 net.cpp:425] inception_5b/relu_pool_proj <- inception_5b/pool_proj
I0522 15:29:58.813701  7874 net.cpp:386] inception_5b/relu_pool_proj -> inception_5b/pool_proj (in-place)
I0522 15:29:58.813711  7874 net.cpp:141] Setting up inception_5b/relu_pool_proj
I0522 15:29:58.813719  7874 net.cpp:148] Top shape: 1 128 7 7 (6272)
I0522 15:29:58.813724  7874 net.cpp:156] Memory required for data: 56502700
I0522 15:29:58.813729  7874 layer_factory.hpp:77] Creating layer inception_5b/output
I0522 15:29:58.813735  7874 net.cpp:91] Creating Layer inception_5b/output
I0522 15:29:58.813740  7874 net.cpp:425] inception_5b/output <- inception_5b/1x1
I0522 15:29:58.813746  7874 net.cpp:425] inception_5b/output <- inception_5b/3x3
I0522 15:29:58.813752  7874 net.cpp:425] inception_5b/output <- inception_5b/5x5
I0522 15:29:58.813758  7874 net.cpp:425] inception_5b/output <- inception_5b/pool_proj
I0522 15:29:58.813767  7874 net.cpp:399] inception_5b/output -> inception_5b/output
I0522 15:29:58.813799  7874 net.cpp:141] Setting up inception_5b/output
I0522 15:29:58.813812  7874 net.cpp:148] Top shape: 1 1024 7 7 (50176)
I0522 15:29:58.813817  7874 net.cpp:156] Memory required for data: 56703404
I0522 15:29:58.813822  7874 layer_factory.hpp:77] Creating layer pool5/7x7_s1
I0522 15:29:58.813832  7874 net.cpp:91] Creating Layer pool5/7x7_s1
I0522 15:29:58.813839  7874 net.cpp:425] pool5/7x7_s1 <- inception_5b/output
I0522 15:29:58.813848  7874 net.cpp:399] pool5/7x7_s1 -> pool5/7x7_s1
I0522 15:29:58.813879  7874 net.cpp:141] Setting up pool5/7x7_s1
I0522 15:29:58.813889  7874 net.cpp:148] Top shape: 1 1024 1 1 (1024)
I0522 15:29:58.813894  7874 net.cpp:156] Memory required for data: 56707500
I0522 15:29:58.813899  7874 layer_factory.hpp:77] Creating layer pool5/drop_7x7_s1
I0522 15:29:58.813907  7874 net.cpp:91] Creating Layer pool5/drop_7x7_s1
I0522 15:29:58.813913  7874 net.cpp:425] pool5/drop_7x7_s1 <- pool5/7x7_s1
I0522 15:29:58.813921  7874 net.cpp:386] pool5/drop_7x7_s1 -> pool5/7x7_s1 (in-place)
I0522 15:29:58.813954  7874 net.cpp:141] Setting up pool5/drop_7x7_s1
I0522 15:29:58.813966  7874 net.cpp:148] Top shape: 1 1024 1 1 (1024)
I0522 15:29:58.813972  7874 net.cpp:156] Memory required for data: 56711596
I0522 15:29:58.813977  7874 layer_factory.hpp:77] Creating layer loss3/classifier
I0522 15:29:58.813987  7874 net.cpp:91] Creating Layer loss3/classifier
I0522 15:29:58.813994  7874 net.cpp:425] loss3/classifier <- pool5/7x7_s1
I0522 15:29:58.814004  7874 net.cpp:399] loss3/classifier -> loss3/classifier
I0522 15:29:58.814843  7874 net.cpp:141] Setting up loss3/classifier
I0522 15:29:58.814858  7874 net.cpp:148] Top shape: 1 100 (100)
I0522 15:29:58.814863  7874 net.cpp:156] Memory required for data: 56711996
I0522 15:29:58.814872  7874 layer_factory.hpp:77] Creating layer loss3/classifier_loss3/classifier_0_split
I0522 15:29:58.814885  7874 net.cpp:91] Creating Layer loss3/classifier_loss3/classifier_0_split
I0522 15:29:58.814891  7874 net.cpp:425] loss3/classifier_loss3/classifier_0_split <- loss3/classifier
I0522 15:29:58.814903  7874 net.cpp:399] loss3/classifier_loss3/classifier_0_split -> loss3/classifier_loss3/classifier_0_split_0
I0522 15:29:58.814911  7874 net.cpp:399] loss3/classifier_loss3/classifier_0_split -> loss3/classifier_loss3/classifier_0_split_1
I0522 15:29:58.814919  7874 net.cpp:399] loss3/classifier_loss3/classifier_0_split -> loss3/classifier_loss3/classifier_0_split_2
I0522 15:29:58.814976  7874 net.cpp:141] Setting up loss3/classifier_loss3/classifier_0_split
I0522 15:29:58.814990  7874 net.cpp:148] Top shape: 1 100 (100)
I0522 15:29:58.814996  7874 net.cpp:148] Top shape: 1 100 (100)
I0522 15:29:58.815001  7874 net.cpp:148] Top shape: 1 100 (100)
I0522 15:29:58.815006  7874 net.cpp:156] Memory required for data: 56713196
I0522 15:29:58.815011  7874 layer_factory.hpp:77] Creating layer loss3/loss3
I0522 15:29:58.815019  7874 net.cpp:91] Creating Layer loss3/loss3
I0522 15:29:58.815024  7874 net.cpp:425] loss3/loss3 <- loss3/classifier_loss3/classifier_0_split_0
I0522 15:29:58.815032  7874 net.cpp:425] loss3/loss3 <- label_data_1_split_6
…
