…
I0417 13:18:22.747520  4530 net.cpp:313] The NetState phase (0) differed from the phase (1) specified by a rule in layer loss3/top-5
I0417 13:18:22.748270  4530 net.cpp:49] Initializing net from parameters: 
name: "CaffeNet"
state {
  phase: TRAIN
}
layer {
  name: "data"
  type: "Data"
  top: "data"
  top: "label"
  include {
    phase: TRAIN
  }
  transform_param {
    mirror: true
    crop_size: 224
    mean_file: "/home/iis/Downloads/caffe-master/data/food_100/food100_mean.binaryproto"
  }
  data_param {
    source: "/home/iis/Downloads/caffe-master/examples/food_100/food100_train_lmdb"
    batch_size: 64
    backend: LMDB
  }
}
layer {
  name: "conv1/7x7_s2"
  type: "Convolution"
  bottom: "data"
  top: "conv1/7x7_s2"
  param {
    lr_mult: 1
    decay_mult: 1
  }
  param {
    lr_mult: 2
    decay_mult: 0
  }
  convolution_param {
    num_output: 64
    pad: 3
    kernel_size: 7
    stride: 2
    weight_filler {
      type: "xavier"
      std: 0.1
    }
    bias_filler {
      type: "constant"
      value: 0.2
    }
  }
}
layer {
  name: "conv1/relu_7x7"
  type: "ReLU"
  bottom: "conv1/7x7_s2"
  top: "conv1/7x7_s2"
}
layer {
  name: "pool1/3x3_s2"
  type: "Pooling"
  bottom: "conv1/7x7_s2"
  top: "pool1/3x3_s2"
  pooling_param {
    pool: MAX
    kernel_size: 3
    stride: 2
  }
}
layer {
  name: "pool1/norm1"
  type: "LRN"
  bottom: "pool1/3x3_s2"
  top: "pool1/norm1"
  lrn_param {
    local_size: 5
    alpha: 0.0001
    beta: 0.75
  }
}
layer {
  name: "conv2/3x3_reduce"
  type: "Convolution"
  bottom: "pool1/norm1"
  top: "conv2/3x3_reduce"
  param {
    lr_mult: 1
    decay_mult: 1
  }
  param {
    lr_mult: 2
    decay_mult: 0
  }
  convolution_param {
    num_output: 64
    kernel_size: 1
    weight_filler {
      type: "xavier"
      std: 0.1
    }
    bias_filler {
      type: "constant"
      value: 0.2
    }
  }
}
layer {
  name: "conv2/relu_3x3_reduce"
  type: "ReLU"
  bottom: "conv2/3x3_reduce"
  top: "conv2/3x3_reduce"
}
layer {
  name: "conv2/3x3"
  type: "Convolution"
  bottom: "conv2/3x3_reduce"
  top: "conv2/3x3"
  param {
    lr_mult: 1
    decay_mult: 1
  }
  param {
    lr_mult: 2
    decay_mult: 0
  }
  convolution_param {
    num_output: 192
    pad: 1
    kernel_size: 3
    weight_filler {
      type: "xavier"
      std: 0.03
    }
    bias_filler {
      type: "constant"
      value: 0.2
    }
  }
}
layer {
  name: "conv2/relu_3x3"
  type: "ReLU"
  bottom: "conv2/3x3"
  top: "conv2/3x3"
}
layer {
  name: "conv2/norm2"
  type: "LRN"
  bottom: "conv2/3x3"
  top: "conv2/norm2"
  lrn_param {
    local_size: 5
    alpha: 0.0001
    beta: 0.75
  }
}
layer {
  name: "pool2/3x3_s2"
  type: "Pooling"
  bottom: "conv2/norm2"
  top: "pool2/3x3_s2"
  pooling_param {
    pool: MAX
    kernel_size: 3
    stride: 2
  }
}
layer {
  name: "inception_3a/1x1"
  type: "Convolution"
  bottom: "pool2/3x3_s2"
  top: "inception_3a/1x1"
  param {
    lr_mult: 1
    decay_mult: 1
  }
  param {
    lr_mult: 2
    decay_mult: 0
  }
  convolution_param {
    num_output: 64
    kernel_size: 1
    weight_filler {
      type: "xavier"
      std: 0.03
    }
    bias_filler {
      type: "constant"
      value: 0.2
    }
  }
}
layer {
  name: "inception_3a/relu_1x1"
  type: "ReLU"
  bottom: "inception_3a/1x1"
  top: "inception_3a/1x1"
}
layer {
  name: "inception_3a/3x3_reduce"
  type: "Convolution"
  bottom: "pool2/3x3_s2"
  top: "inception_3a/3x3_reduce"
  param {
    lr_mult: 1
    decay_mult: 1
  }
  param {
    lr_mult: 2
    decay_mult: 0
  }
  convolution_param {
    num_output: 96
    kernel_size: 1
    weight_filler {
      type: "xavier"
      std: 0.09
    }
    bias_filler {
      type: "constant"
      value: 0.2
    }
  }
}
layer {
  name: "inception_3a/relu_3x3_reduce"
  type: "ReLU"
  bottom: "inception_3a/3x3_reduce"
  top: "inception_3a/3x3_reduce"
}
layer {
  name: "inception_3a/3x3"
  type: "Convolution"
  bottom: "inception_3a/3x3_reduce"
  top: "inception_3a/3x3"
  param {
    lr_mult: 1
    decay_mult: 1
  }
  param {
    lr_mult: 2
    decay_mult: 0
  }
  convolution_param {
    num_output: 128
    pad: 1
    kernel_size: 3
    weight_filler {
      type: "xavier"
      std: 0.03
    }
    bias_filler {
      type: "constant"
      value: 0.2
    }
  }
}
layer {
  name: "inception_3a/relu_3x3"
  type: "ReLU"
  bottom: "inception_3a/3x3"
  top: "inception_3a/3x3"
}
layer {
  name: "inception_3a/5x5_reduce"
  type: "Convolution"
  bottom: "pool2/3x3_s2"
  top: "inception_3a/5x5_reduce"
  param {
    lr_mult: 1
    decay_mult: 1
  }
  param {
    lr_mult: 2
    decay_mult: 0
  }
  convolution_param {
    num_output: 16
    kernel_size: 1
    weight_filler {
      type: "xavier"
      std: 0.2
    }
    bias_filler {
      type: "constant"
      value: 0.2
    }
  }
}
layer {
  name: "inception_3a/relu_5x5_reduce"
  type: "ReLU"
  bottom: "inception_3a/5x5_reduce"
  top: "inception_3a/5x5_reduce"
}
layer {
  name: "inception_3a/5x5"
  type: "Convolution"
  bottom: "inception_3a/5x5_reduce"
  top: "inception_3a/5x5"
  param {
    lr_mult: 1
    decay_mult: 1
  }
  param {
    lr_mult: 2
    decay_mult: 0
  }
  convolution_param {
    num_output: 32
    pad: 2
    kernel_size: 5
    weight_filler {
      type: "xavier"
      std: 0.03
    }
    bias_filler {
      type: "constant"
      value: 0.2
    }
  }
}
layer {
  name: "inception_3a/relu_5x5"
  type: "ReLU"
  bottom: "inception_3a/5x5"
  top: "inception_3a/5x5"
}
layer {
  name: "inception_3a/pool"
  type: "Pooling"
  bottom: "pool2/3x3_s2"
  top: "inception_3a/pool"
  pooling_param {
    pool: MAX
    kernel_size: 3
    stride: 1
    pad: 1
  }
}
layer {
  name: "inception_3a/pool_proj"
  type: "Convolution"
  bottom: "inception_3a/pool"
  top: "inception_3a/pool_proj"
  param {
    lr_mult: 1
    decay_mult: 1
  }
  param {
    lr_mult: 2
    decay_mult: 0
  }
  convolution_param {
    num_output: 32
    kernel_size: 1
    weight_filler {
      type: "xavier"
      std: 0.1
    }
    bias_filler {
      type: "constant"
      value: 0.2
    }
  }
}
layer {
  name: "inception_3a/relu_pool_proj"
  type: "ReLU"
  bottom: "inception_3a/pool_proj"
  top: "inception_3a/pool_proj"
}
layer {
  name: "inception_3a/output"
  type: "Concat"
  bottom: "inception_3a/1x1"
  bottom: "inception_3a/3x3"
  bottom: "inception_3a/5x5"
  bottom: "inception_3a/pool_proj"
  top: "inception_3a/output"
}
layer {
  name: "inception_3b/1x1"
  type: "Convolution"
  bottom: "inception_3a/output"
  top: "inception_3b/1x1"
  param {
    lr_mult: 1
    decay_mult: 1
  }
  param {
    lr_mult: 2
    decay_mult: 0
  }
  convolution_param {
    num_output: 128
    kernel_size: 1
    weight_filler {
      type: "xavier"
      std: 0.03
    }
    bias_filler {
      type: "constant"
      value: 0.2
    }
  }
}
layer {
  name: "inception_3b/relu_1x1"
  type: "ReLU"
  bottom: "inception_3b/1x1"
  top: "inception_3b/1x1"
}
layer {
  name: "inception_3b/3x3_reduce"
  type: "Convolution"
  bottom: "inception_3a/output"
  top: "inception_3b/3x3_reduce"
  param {
    lr_mult: 1
    decay_mult: 1
  }
  param {
    lr_mult: 2
    decay_mult: 0
  }
  convolution_param {
    num_output: 128
    kernel_size: 1
    weight_filler {
      type: "xavier"
      std: 0.09
    }
    bias_filler {
      type: "constant"
      value: 0.2
    }
  }
}
layer {
  name: "inception_3b/relu_3x3_reduce"
  type: "ReLU"
  bottom: "inception_3b/3x3_reduce"
  top: "inception_3b/3x3_reduce"
}
layer {
  name: "inception_3b/3x3"
  type: "Convolution"
  bottom: "inception_3b/3x3_reduce"
  top: "inception_3b/3x3"
  param {
    lr_mult: 1
    decay_mult: 1
  }
  param {
    lr_mult: 2
    decay_mult: 0
  }
  convolution_param {
    num_output: 192
    pad: 1
    kernel_size: 3
    weight_filler {
      type: "xavier"
      std: 0.03
    }
    bias_filler {
      type: "constant"
      value: 0.2
    }
  }
}
layer {
  name: "inception_3b/relu_3x3"
  type: "ReLU"
  bottom: "inception_3b/3x3"
  top: "inception_3b/3x3"
}
layer {
  name: "inception_3b/5x5_reduce"
  type: "Convolution"
  bottom: "inception_3a/output"
  top: "inception_3b/5x5_reduce"
  param {
    lr_mult: 1
    decay_mult: 1
  }
  param {
    lr_mult: 2
    decay_mult: 0
  }
  convolution_param {
    num_output: 32
    kernel_size: 1
    weight_filler {
      type: "xavier"
      std: 0.2
    }
    bias_filler {
      type: "constant"
      value: 0.2
    }
  }
}
layer {
  name: "inception_3b/relu_5x5_reduce"
  type: "ReLU"
  bottom: "inception_3b/5x5_reduce"
  top: "inception_3b/5x5_reduce"
}
layer {
  name: "inception_3b/5x5"
  type: "Convolution"
  bottom: "inception_3b/5x5_reduce"
  top: "inception_3b/5x5"
  param {
    lr_mult: 1
    decay_mult: 1
  }
  param {
    lr_mult: 2
    decay_mult: 0
  }
  convolution_param {
    num_output: 96
    pad: 2
    kernel_size: 5
    weight_filler {
      type: "xavier"
      std: 0.03
    }
    bias_filler {
      type: "constant"
      value: 0.2
    }
  }
}
layer {
  name: "inception_3b/relu_5x5"
  type: "ReLU"
  bottom: "inception_3b/5x5"
  top: "inception_3b/5x5"
}
layer {
  name: "inception_3b/pool"
  type: "Pooling"
  bottom: "inception_3a/output"
  top: "inception_3b/pool"
  pooling_param {
    pool: MAX
    kernel_size: 3
    stride: 1
    pad: 1
  }
}
layer {
  name: "inception_3b/pool_proj"
  type: "Convolution"
  bottom: "inception_3b/pool"
  top: "inception_3b/pool_proj"
  param {
    lr_mult: 1
    decay_mult: 1
  }
  param {
    lr_mult: 2
    decay_mult: 0
  }
  convolution_param {
    num_output: 64
    kernel_size: 1
    weight_filler {
      type: "xavier"
      std: 0.1
    }
    bias_filler {
      type: "constant"
      value: 0.2
    }
  }
}
layer {
  name: "inception_3b/relu_pool_proj"
  type: "ReLU"
  bottom: "inception_3b/pool_proj"
  top: "inception_3b/pool_proj"
}
layer {
  name: "inception_3b/output"
  type: "Concat"
  bottom: "inception_3b/1x1"
  bottom: "inception_3b/3x3"
  bottom: "inception_3b/5x5"
  bottom: "inception_3b/pool_proj"
  top: "inception_3b/output"
}
layer {
  name: "pool3/3x3_s2"
  type: "Pooling"
  bottom: "inception_3b/output"
  top: "pool3/3x3_s2"
  pooling_param {
    pool: MAX
    kernel_size: 3
    stride: 2
  }
}
layer {
  name: "inception_4a/1x1"
  type: "Convolution"
  bottom: "pool3/3x3_s2"
  top: "inception_4a/1x1"
  param {
    lr_mult: 1
    decay_mult: 1
  }
  param {
    lr_mult: 2
    decay_mult: 0
  }
  convolution_param {
    num_output: 192
    kernel_size: 1
    weight_filler {
      type: "xavier"
      std: 0.03
    }
    bias_filler {
      type: "constant"
      value: 0.2
    }
  }
}
layer {
  name: "inception_4a/relu_1x1"
  type: "ReLU"
  bottom: "inception_4a/1x1"
  top: "inception_4a/1x1"
}
layer {
  name: "inception_4a/3x3_reduce"
  type: "Convolution"
  bottom: "pool3/3x3_s2"
  top: "inception_4a/3x3_reduce"
  param {
    lr_mult: 1
    decay_mult: 1
  }
  param {
    lr_mult: 2
    decay_mult: 0
  }
  convolution_param {
    num_output: 96
    kernel_size: 1
    weight_filler {
      type: "xavier"
      std: 0.09
    }
    bias_filler {
      type: "constant"
      value: 0.2
    }
  }
}
layer {
  name: "inception_4a/relu_3x3_reduce"
  type: "ReLU"
  bottom: "inception_4a/3x3_reduce"
  top: "inception_4a/3x3_reduce"
}
layer {
  name: "inception_4a/3x3"
  type: "Convolution"
  bottom: "inception_4a/3x3_reduce"
  top: "inception_4a/3x3"
  param {
    lr_mult: 1
    decay_mult: 1
  }
  param {
    lr_mult: 2
    decay_mult: 0
  }
  convolution_param {
    num_output: 208
    pad: 1
    kernel_size: 3
    weight_filler {
      type: "xavier"
      std: 0.03
    }
    bias_filler {
      type: "constant"
      value: 0.2
    }
  }
}
layer {
  name: "inception_4a/relu_3x3"
  type: "ReLU"
  bottom: "inception_4a/3x3"
  top: "inception_4a/3x3"
}
layer {
  name: "inception_4a/5x5_reduce"
  type: "Convolution"
  bottom: "pool3/3x3_s2"
  top: "inception_4a/5x5_reduce"
  param {
    lr_mult: 1
    decay_mult: 1
  }
  param {
    lr_mult: 2
    decay_mult: 0
  }
  convolution_param {
    num_output: 16
    kernel_size: 1
    weight_filler {
      type: "xavier"
      std: 0.2
    }
    bias_filler {
      type: "constant"
      value: 0.2
    }
  }
}
layer {
  name: "inception_4a/relu_5x5_reduce"
  type: "ReLU"
  bottom: "inception_4a/5x5_reduce"
  top: "inception_4a/5x5_reduce"
}
layer {
  name: "inception_4a/5x5"
  type: "Convolution"
  bottom: "inception_4a/5x5_reduce"
  top: "inception_4a/5x5"
  param {
    lr_mult: 1
    decay_mult: 1
  }
  param {
    lr_mult: 2
    decay_mult: 0
  }
  convolution_param {
    num_output: 48
    pad: 2
    kernel_size: 5
    weight_filler {
      type: "xavier"
      std: 0.03
    }
    bias_filler {
      type: "constant"
      value: 0.2
    }
  }
}
layer {
  name: "inception_4a/relu_5x5"
  type: "ReLU"
  bottom: "inception_4a/5x5"
  top: "inception_4a/5x5"
}
layer {
  name: "inception_4a/pool"
  type: "Pooling"
  bottom: "pool3/3x3_s2"
  top: "inception_4a/pool"
  pooling_param {
    pool: MAX
    kernel_size: 3
    stride: 1
    pad: 1
  }
}
layer {
  name: "inception_4a/pool_proj"
  type: "Convolution"
  bottom: "inception_4a/pool"
  top: "inception_4a/pool_proj"
  param {
    lr_mult: 1
    decay_mult: 1
  }
  param {
    lr_mult: 2
    decay_mult: 0
  }
  convolution_param {
    num_output: 64
    kernel_size: 1
    weight_filler {
      type: "xavier"
      std: 0.1
    }
    bias_filler {
      type: "constant"
      value: 0.2
    }
  }
}
layer {
  name: "inception_4a/relu_pool_proj"
  type: "ReLU"
  bottom: "inception_4a/pool_proj"
  top: "inception_4a/pool_proj"
}
layer {
  name: "inception_4a/output"
  type: "Concat"
  bottom: "inception_4a/1x1"
  bottom: "inception_4a/3x3"
  bottom: "inception_4a/5x5"
  bottom: "inception_4a/pool_proj"
  top: "inception_4a/output"
}
layer {
  name: "inception_4b/1x1"
  type: "Convolution"
  bottom: "inception_4a/output"
  top: "inception_4b/1x1"
  param {
    lr_mult: 1
    decay_mult: 1
  }
  param {
    lr_mult: 2
    decay_mult: 0
  }
  convolution_param {
    num_output: 160
    kernel_size: 1
    weight_filler {
      type: "xavier"
      std: 0.03
    }
    bias_filler {
      type: "constant"
      value: 0.2
    }
  }
}
layer {
  name: "inception_4b/relu_1x1"
  type: "ReLU"
  bottom: "inception_4b/1x1"
  top: "inception_4b/1x1"
}
layer {
  name: "inception_4b/3x3_reduce"
  type: "Convolution"
  bottom: "inception_4a/output"
  top: "inception_4b/3x3_reduce"
  param {
    lr_mult: 1
    decay_mult: 1
  }
  param {
    lr_mult: 2
    decay_mult: 0
  }
  convolution_param {
    num_output: 112
    kernel_size: 1
    weight_filler {
      type: "xavier"
      std: 0.09
    }
    bias_filler {
      type: "constant"
      value: 0.2
    }
  }
}
layer {
  name: "inception_4b/relu_3x3_reduce"
  type: "ReLU"
  bottom: "inception_4b/3x3_reduce"
  top: "inception_4b/3x3_reduce"
}
layer {
  name: "inception_4b/3x3"
  type: "Convolution"
  bottom: "inception_4b/3x3_reduce"
  top: "inception_4b/3x3"
  param {
    lr_mult: 1
    decay_mult: 1
  }
  param {
    lr_mult: 2
    decay_mult: 0
  }
  convolution_param {
    num_output: 224
    pad: 1
    kernel_size: 3
    weight_filler {
      type: "xavier"
      std: 0.03
    }
    bias_filler {
      type: "constant"
      value: 0.2
    }
  }
}
layer {
  name: "inception_4b/relu_3x3"
  type: "ReLU"
  bottom: "inception_4b/3x3"
  top: "inception_4b/3x3"
}
layer {
  name: "inception_4b/5x5_reduce"
  type: "Convolution"
  bottom: "inception_4a/output"
  top: "inception_4b/5x5_reduce"
  param {
    lr_mult: 1
    decay_mult: 1
  }
  param {
    lr_mult: 2
    decay_mult: 0
  }
  convolution_param {
    num_output: 24
    kernel_size: 1
    weight_filler {
      type: "xavier"
      std: 0.2
    }
    bias_filler {
      type: "constant"
      value: 0.2
    }
  }
}
layer {
  name: "inception_4b/relu_5x5_reduce"
  type: "ReLU"
  bottom: "inception_4b/5x5_reduce"
  top: "inception_4b/5x5_reduce"
}
layer {
  name: "inception_4b/5x5"
  type: "Convolution"
  bottom: "inception_4b/5x5_reduce"
  top: "inception_4b/5x5"
  param {
    lr_mult: 1
    decay_mult: 1
  }
  param {
    lr_mult: 2
    decay_mult: 0
  }
  convolution_param {
    num_output: 64
    pad: 2
    kernel_size: 5
    weight_filler {
      type: "xavier"
      std: 0.03
    }
    bias_filler {
      type: "constant"
      value: 0.2
    }
  }
}
layer {
  name: "inception_4b/relu_5x5"
  type: "ReLU"
  bottom: "inception_4b/5x5"
  top: "inception_4b/5x5"
}
layer {
  name: "inception_4b/pool"
  type: "Pooling"
  bottom: "inception_4a/output"
  top: "inception_4b/pool"
  pooling_param {
    pool: MAX
    kernel_size: 3
    stride: 1
    pad: 1
  }
}
layer {
  name: "inception_4b/pool_proj"
  type: "Convolution"
  bottom: "inception_4b/pool"
  top: "inception_4b/pool_proj"
  param {
    lr_mult: 1
    decay_mult: 1
  }
  param {
    lr_mult: 2
    decay_mult: 0
  }
  convolution_param {
    num_output: 64
    kernel_size: 1
    weight_filler {
      type: "xavier"
      std: 0.1
    }
    bias_filler {
      type: "constant"
      value: 0.2
    }
  }
}
layer {
  name: "inception_4b/relu_pool_proj"
  type: "ReLU"
  bottom: "inception_4b/pool_proj"
  top: "inception_4b/pool_proj"
}
layer {
  name: "inception_4b/output"
  type: "Concat"
  bottom: "inception_4b/1x1"
  bottom: "inception_4b/3x3"
  bottom: "inception_4b/5x5"
  bottom: "inception_4b/pool_proj"
  top: "inception_4b/output"
}
layer {
  name: "inception_4c/1x1"
  type: "Convolution"
  bottom: "inception_4b/output"
  top: "inception_4c/1x1"
  param {
    lr_mult: 1
    decay_mult: 1
  }
  param {
    lr_mult: 2
    decay_mult: 0
  }
  convolution_param {
    num_output: 128
    kernel_size: 1
    weight_filler {
      type: "xavier"
      std: 0.03
    }
    bias_filler {
      type: "constant"
      value: 0.2
    }
  }
}
layer {
  name: "inception_4c/relu_1x1"
  type: "ReLU"
  bottom: "inception_4c/1x1"
  top: "inception_4c/1x1"
}
layer {
  name: "inception_4c/3x3_reduce"
  type: "Convolution"
  bottom: "inception_4b/output"
  top: "inception_4c/3x3_reduce"
  param {
    lr_mult: 1
    decay_mult: 1
  }
  param {
    lr_mult: 2
    decay_mult: 0
  }
  convolution_param {
    num_output: 128
    kernel_size: 1
    weight_filler {
      type: "xavier"
      std: 0.09
    }
    bias_filler {
      type: "constant"
      value: 0.2
    }
  }
}
layer {
  name: "inception_4c/relu_3x3_reduce"
  type: "ReLU"
  bottom: "inception_4c/3x3_reduce"
  top: "inception_4c/3x3_reduce"
}
layer {
  name: "inception_4c/3x3"
  type: "Convolution"
  bottom: "inception_4c/3x3_reduce"
  top: "inception_4c/3x3"
  param {
    lr_mult: 1
    decay_mult: 1
  }
  param {
    lr_mult: 2
    decay_mult: 0
  }
  convolution_param {
    num_output: 256
    pad: 1
    kernel_size: 3
    weight_filler {
      type: "xavier"
      std: 0.03
    }
    bias_filler {
      type: "constant"
      value: 0.2
    }
  }
}
layer {
  name: "inception_4c/relu_3x3"
  type: "ReLU"
  bottom: "inception_4c/3x3"
  top: "inception_4c/3x3"
}
layer {
  name: "inception_4c/5x5_reduce"
  type: "Convolution"
  bottom: "inception_4b/output"
  top: "inception_4c/5x5_reduce"
  param {
    lr_mult: 1
    decay_mult: 1
  }
  param {
    lr_mult: 2
    decay_mult: 0
  }
  convolution_param {
    num_output: 24
    kernel_size: 1
    weight_filler {
      type: "xavier"
      std: 0.2
    }
    bias_filler {
      type: "constant"
      value: 0.2
    }
  }
}
layer {
  name: "inception_4c/relu_5x5_reduce"
  type: "ReLU"
  bottom: "inception_4c/5x5_reduce"
  top: "inception_4c/5x5_reduce"
}
layer {
  name: "inception_4c/5x5"
  type: "Convolution"
  bottom: "inception_4c/5x5_reduce"
  top: "inception_4c/5x5"
  param {
    lr_mult: 1
    decay_mult: 1
  }
  param {
    lr_mult: 2
    decay_mult: 0
  }
  convolution_param {
    num_output: 64
    pad: 2
    kernel_size: 5
    weight_filler {
      type: "xavier"
      std: 0.03
    }
    bias_filler {
      type: "constant"
      value: 0.2
    }
  }
}
layer {
  name: "inception_4c/relu_5x5"
  type: "ReLU"
  bottom: "inception_4c/5x5"
  top: "inception_4c/5x5"
}
layer {
  name: "inception_4c/pool"
  type: "Pooling"
  bottom: "inception_4b/output"
  top: "inception_4c/pool"
  pooling_param {
    pool: MAX
    kernel_size: 3
    stride: 1
    pad: 1
  }
}
layer {
  name: "inception_4c/pool_proj"
  type: "Convolution"
  bottom: "inception_4c/pool"
  top: "inception_4c/pool_proj"
  param {
    lr_mult: 1
    decay_mult: 1
  }
  param {
    lr_mult: 2
    decay_mult: 0
  }
  convolution_param {
    num_output: 64
    kernel_size: 1
    weight_filler {
      type: "xavier"
      std: 0.1
    }
    bias_filler {
      type: "constant"
      value: 0.2
    }
  }
}
layer {
  name: "inception_4c/relu_pool_proj"
  type: "ReLU"
  bottom: "inception_4c/pool_proj"
  top: "inception_4c/pool_proj"
}
layer {
  name: "inception_4c/output"
  type: "Concat"
  bottom: "inception_4c/1x1"
  bottom: "inception_4c/3x3"
  bottom: "inception_4c/5x5"
  bottom: "inception_4c/pool_proj"
  top: "inception_4c/output"
}
layer {
  name: "inception_4d/1x1"
  type: "Convolution"
  bottom: "inception_4c/output"
  top: "inception_4d/1x1"
  param {
    lr_mult: 1
    decay_mult: 1
  }
  param {
    lr_mult: 2
    decay_mult: 0
  }
  convolution_param {
    num_output: 112
    kernel_size: 1
    weight_filler {
      type: "xavier"
      std: 0.03
    }
    bias_filler {
      type: "constant"
      value: 0.2
    }
  }
}
layer {
  name: "inception_4d/relu_1x1"
  type: "ReLU"
  bottom: "inception_4d/1x1"
  top: "inception_4d/1x1"
}
layer {
  name: "inception_4d/3x3_reduce"
  type: "Convolution"
  bottom: "inception_4c/output"
  top: "inception_4d/3x3_reduce"
  param {
    lr_mult: 1
    decay_mult: 1
  }
  param {
    lr_mult: 2
    decay_mult: 0
  }
  convolution_param {
    num_output: 144
    kernel_size: 1
    weight_filler {
      type: "xavier"
      std: 0.09
    }
    bias_filler {
      type: "constant"
      value: 0.2
    }
  }
}
layer {
  name: "inception_4d/relu_3x3_reduce"
  type: "ReLU"
  bottom: "inception_4d/3x3_reduce"
  top: "inception_4d/3x3_reduce"
}
layer {
  name: "inception_4d/3x3"
  type: "Convolution"
  bottom: "inception_4d/3x3_reduce"
  top: "inception_4d/3x3"
  param {
    lr_mult: 1
    decay_mult: 1
  }
  param {
    lr_mult: 2
    decay_mult: 0
  }
  convolution_param {
    num_output: 288
    pad: 1
    kernel_size: 3
    weight_filler {
      type: "xavier"
      std: 0.03
    }
    bias_filler {
      type: "constant"
      value: 0.2
    }
  }
}
layer {
  name: "inception_4d/relu_3x3"
  type: "ReLU"
  bottom: "inception_4d/3x3"
  top: "inception_4d/3x3"
}
layer {
  name: "inception_4d/5x5_reduce"
  type: "Convolution"
  bottom: "inception_4c/output"
  top: "inception_4d/5x5_reduce"
  param {
    lr_mult: 1
    decay_mult: 1
  }
  param {
    lr_mult: 2
    decay_mult: 0
  }
  convolution_param {
    num_output: 32
    kernel_size: 1
    weight_filler {
      type: "xavier"
      std: 0.2
    }
    bias_filler {
      type: "constant"
      value: 0.2
    }
  }
}
layer {
  name: "inception_4d/relu_5x5_reduce"
  type: "ReLU"
  bottom: "inception_4d/5x5_reduce"
  top: "inception_4d/5x5_reduce"
}
layer {
  name: "inception_4d/5x5"
  type: "Convolution"
  bottom: "inception_4d/5x5_reduce"
  top: "inception_4d/5x5"
  param {
    lr_mult: 1
    decay_mult: 1
  }
  param {
    lr_mult: 2
    decay_mult: 0
  }
  convolution_param {
    num_output: 64
    pad: 2
    kernel_size: 5
    weight_filler {
      type: "xavier"
      std: 0.03
    }
    bias_filler {
      type: "constant"
      value: 0.2
    }
  }
}
layer {
  name: "inception_4d/relu_5x5"
  type: "ReLU"
  bottom: "inception_4d/5x5"
  top: "inception_4d/5x5"
}
layer {
  name: "inception_4d/pool"
  type: "Pooling"
  bottom: "inception_4c/output"
  top: "inception_4d/pool"
  pooling_param {
    pool: MAX
    kernel_size: 3
    stride: 1
    pad: 1
  }
}
layer {
  name: "inception_4d/pool_proj"
  type: "Convolution"
  bottom: "inception_4d/pool"
  top: "inception_4d/pool_proj"
  param {
    lr_mult: 1
    decay_mult: 1
  }
  param {
    lr_mult: 2
    decay_mult: 0
  }
  convolution_param {
    num_output: 64
    kernel_size: 1
    weight_filler {
      type: "xavier"
      std: 0.1
    }
    bias_filler {
      type: "constant"
      value: 0.2
    }
  }
}
layer {
  name: "inception_4d/relu_pool_proj"
  type: "ReLU"
  bottom: "inception_4d/pool_proj"
  top: "inception_4d/pool_proj"
}
layer {
  name: "inception_4d/output"
  type: "Concat"
  bottom: "inception_4d/1x1"
  bottom: "inception_4d/3x3"
  bottom: "inception_4d/5x5"
  bottom: "inception_4d/pool_proj"
  top: "inception_4d/output"
}
layer {
  name: "inception_4e/1x1"
  type: "Convolution"
  bottom: "inception_4d/output"
  top: "inception_4e/1x1"
  param {
    lr_mult: 1
    decay_mult: 1
  }
  param {
    lr_mult: 2
    decay_mult: 0
  }
  convolution_param {
    num_output: 256
    kernel_size: 1
    weight_filler {
      type: "xavier"
      std: 0.03
    }
    bias_filler {
      type: "constant"
      value: 0.2
    }
  }
}
layer {
  name: "inception_4e/relu_1x1"
  type: "ReLU"
  bottom: "inception_4e/1x1"
  top: "inception_4e/1x1"
}
layer {
  name: "inception_4e/3x3_reduce"
  type: "Convolution"
  bottom: "inception_4d/output"
  top: "inception_4e/3x3_reduce"
  param {
    lr_mult: 1
    decay_mult: 1
  }
  param {
    lr_mult: 2
    decay_mult: 0
  }
  convolution_param {
    num_output: 160
    kernel_size: 1
    weight_filler {
      type: "xavier"
      std: 0.09
    }
    bias_filler {
      type: "constant"
      value: 0.2
    }
  }
}
layer {
  name: "inception_4e/relu_3x3_reduce"
  type: "ReLU"
  bottom: "inception_4e/3x3_reduce"
  top: "inception_4e/3x3_reduce"
}
layer {
  name: "inception_4e/3x3"
  type: "Convolution"
  bottom: "inception_4e/3x3_reduce"
  top: "inception_4e/3x3"
  param {
    lr_mult: 1
    decay_mult: 1
  }
  param {
    lr_mult: 2
    decay_mult: 0
  }
  convolution_param {
    num_output: 320
    pad: 1
    kernel_size: 3
    weight_filler {
      type: "xavier"
      std: 0.03
    }
    bias_filler {
      type: "constant"
      value: 0.2
    }
  }
}
layer {
  name: "inception_4e/relu_3x3"
  type: "ReLU"
  bottom: "inception_4e/3x3"
  top: "inception_4e/3x3"
}
layer {
  name: "inception_4e/5x5_reduce"
  type: "Convolution"
  bottom: "inception_4d/output"
  top: "inception_4e/5x5_reduce"
  param {
    lr_mult: 1
    decay_mult: 1
  }
  param {
    lr_mult: 2
    decay_mult: 0
  }
  convolution_param {
    num_output: 32
    kernel_size: 1
    weight_filler {
      type: "xavier"
      std: 0.2
    }
    bias_filler {
      type: "constant"
      value: 0.2
    }
  }
}
layer {
  name: "inception_4e/relu_5x5_reduce"
  type: "ReLU"
  bottom: "inception_4e/5x5_reduce"
  top: "inception_4e/5x5_reduce"
}
layer {
  name: "inception_4e/5x5"
  type: "Convolution"
  bottom: "inception_4e/5x5_reduce"
  top: "inception_4e/5x5"
  param {
    lr_mult: 1
    decay_mult: 1
  }
  param {
    lr_mult: 2
    decay_mult: 0
  }
  convolution_param {
    num_output: 128
    pad: 2
    kernel_size: 5
    weight_filler {
      type: "xavier"
      std: 0.03
    }
    bias_filler {
      type: "constant"
      value: 0.2
    }
  }
}
layer {
  name: "inception_4e/relu_5x5"
  type: "ReLU"
  bottom: "inception_4e/5x5"
  top: "inception_4e/5x5"
}
layer {
  name: "inception_4e/pool"
  type: "Pooling"
  bottom: "inception_4d/output"
  top: "inception_4e/pool"
  pooling_param {
    pool: MAX
    kernel_size: 3
    stride: 1
    pad: 1
  }
}
layer {
  name: "inception_4e/pool_proj"
  type: "Convolution"
  bottom: "inception_4e/pool"
  top: "inception_4e/pool_proj"
  param {
    lr_mult: 1
    decay_mult: 1
  }
  param {
    lr_mult: 2
    decay_mult: 0
  }
  convolution_param {
    num_output: 128
    kernel_size: 1
    weight_filler {
      type: "xavier"
      std: 0.1
    }
    bias_filler {
      type: "constant"
      value: 0.2
    }
  }
}
layer {
  name: "inception_4e/relu_pool_proj"
  type: "ReLU"
  bottom: "inception_4e/pool_proj"
  top: "inception_4e/pool_proj"
}
layer {
  name: "inception_4e/output"
  type: "Concat"
  bottom: "inception_4e/1x1"
  bottom: "inception_4e/3x3"
  bottom: "inception_4e/5x5"
  bottom: "inception_4e/pool_proj"
  top: "inception_4e/output"
}
layer {
  name: "CAM_conv"
  type: "Convolution"
  bottom: "inception_4e/output"
  top: "CAM_conv"
  param {
    lr_mult: 1
    decay_mult: 1
  }
  param {
    lr_mult: 2
    decay_mult: 0
  }
  convolution_param {
    num_output: 1024
    pad: 1
    kernel_size: 3
    group: 2
    weight_filler {
      type: "gaussian"
      std: 0.01
    }
    bias_filler {
      type: "constant"
      value: 1
    }
  }
}
layer {
  name: "CAM_relu"
  type: "ReLU"
  bottom: "CAM_conv"
  top: "CAM_conv"
}
layer {
  name: "CAM_pool"
  type: "Pooling"
  bottom: "CAM_conv"
  top: "CAM_pool"
  pooling_param {
    pool: AVE
    kernel_size: 14
    stride: 14
  }
}
layer {
  name: "CAM_fc"
  type: "InnerProduct"
  bottom: "CAM_pool"
  top: "CAM_fc"
  param {
    lr_mult: 1
    decay_mult: 1
  }
  param {
    lr_mult: 2
    decay_mult: 0
  }
  inner_product_param {
    num_output: 1000
    weight_filler {
      type: "xavier"
    }
    bias_filler {
      type: "constant"
      value: 0
    }
  }
}
layer {
  name: "loss3/loss3"
  type: "SoftmaxWithLoss"
  bottom: "CAM_fc"
  bottom: "label"
  top: "loss3/loss3"
  loss_weight: 1
}
I0417 13:18:22.748734  4530 layer_factory.hpp:77] Creating layer data
I0417 13:18:22.749212  4530 net.cpp:91] Creating Layer data
I0417 13:18:22.749228  4530 net.cpp:399] data -> data
I0417 13:18:22.749254  4530 net.cpp:399] data -> label
I0417 13:18:22.749270  4530 data_transformer.cpp:25] Loading mean file from: /home/iis/Downloads/caffe-master/data/food_100/food100_mean.binaryproto
I0417 13:18:22.750108  4544 db_lmdb.cpp:35] Opened lmdb /home/iis/Downloads/caffe-master/examples/food_100/food100_train_lmdb
I0417 13:18:22.763070  4530 data_layer.cpp:41] output data size: 64,3,224,224
I0417 13:18:22.870618  4530 net.cpp:141] Setting up data
I0417 13:18:22.870662  4530 net.cpp:148] Top shape: 64 3 224 224 (9633792)
I0417 13:18:22.870671  4530 net.cpp:148] Top shape: 64 (64)
I0417 13:18:22.870676  4530 net.cpp:156] Memory required for data: 38535424
I0417 13:18:22.870689  4530 layer_factory.hpp:77] Creating layer conv1/7x7_s2
I0417 13:18:22.870717  4530 net.cpp:91] Creating Layer conv1/7x7_s2
I0417 13:18:22.870725  4530 net.cpp:425] conv1/7x7_s2 <- data
I0417 13:18:22.870740  4530 net.cpp:399] conv1/7x7_s2 -> conv1/7x7_s2
I0417 13:18:22.871654  4530 net.cpp:141] Setting up conv1/7x7_s2
I0417 13:18:22.871671  4530 net.cpp:148] Top shape: 64 64 112 112 (51380224)
I0417 13:18:22.871677  4530 net.cpp:156] Memory required for data: 244056320
I0417 13:18:22.871693  4530 layer_factory.hpp:77] Creating layer conv1/relu_7x7
I0417 13:18:22.871703  4530 net.cpp:91] Creating Layer conv1/relu_7x7
I0417 13:18:22.871716  4530 net.cpp:425] conv1/relu_7x7 <- conv1/7x7_s2
I0417 13:18:22.871724  4530 net.cpp:386] conv1/relu_7x7 -> conv1/7x7_s2 (in-place)
I0417 13:18:22.871740  4530 net.cpp:141] Setting up conv1/relu_7x7
I0417 13:18:22.871748  4530 net.cpp:148] Top shape: 64 64 112 112 (51380224)
I0417 13:18:22.871752  4530 net.cpp:156] Memory required for data: 449577216
I0417 13:18:22.871757  4530 layer_factory.hpp:77] Creating layer pool1/3x3_s2
I0417 13:18:22.871767  4530 net.cpp:91] Creating Layer pool1/3x3_s2
I0417 13:18:22.871772  4530 net.cpp:425] pool1/3x3_s2 <- conv1/7x7_s2
I0417 13:18:22.871778  4530 net.cpp:399] pool1/3x3_s2 -> pool1/3x3_s2
I0417 13:18:22.877952  4530 net.cpp:141] Setting up pool1/3x3_s2
I0417 13:18:22.877985  4530 net.cpp:148] Top shape: 64 64 56 56 (12845056)
I0417 13:18:22.877995  4530 net.cpp:156] Memory required for data: 500957440
I0417 13:18:22.878005  4530 layer_factory.hpp:77] Creating layer pool1/norm1
I0417 13:18:22.878022  4530 net.cpp:91] Creating Layer pool1/norm1
I0417 13:18:22.878032  4530 net.cpp:425] pool1/norm1 <- pool1/3x3_s2
I0417 13:18:22.878046  4530 net.cpp:399] pool1/norm1 -> pool1/norm1
I0417 13:18:22.878109  4530 net.cpp:141] Setting up pool1/norm1
I0417 13:18:22.878121  4530 net.cpp:148] Top shape: 64 64 56 56 (12845056)
I0417 13:18:22.878126  4530 net.cpp:156] Memory required for data: 552337664
I0417 13:18:22.878132  4530 layer_factory.hpp:77] Creating layer conv2/3x3_reduce
I0417 13:18:22.878144  4530 net.cpp:91] Creating Layer conv2/3x3_reduce
I0417 13:18:22.878149  4530 net.cpp:425] conv2/3x3_reduce <- pool1/norm1
I0417 13:18:22.878159  4530 net.cpp:399] conv2/3x3_reduce -> conv2/3x3_reduce
I0417 13:18:22.878983  4530 net.cpp:141] Setting up conv2/3x3_reduce
I0417 13:18:22.879005  4530 net.cpp:148] Top shape: 64 64 56 56 (12845056)
I0417 13:18:22.879011  4530 net.cpp:156] Memory required for data: 603717888
I0417 13:18:22.879025  4530 layer_factory.hpp:77] Creating layer conv2/relu_3x3_reduce
I0417 13:18:22.879034  4530 net.cpp:91] Creating Layer conv2/relu_3x3_reduce
I0417 13:18:22.879040  4530 net.cpp:425] conv2/relu_3x3_reduce <- conv2/3x3_reduce
I0417 13:18:22.879048  4530 net.cpp:386] conv2/relu_3x3_reduce -> conv2/3x3_reduce (in-place)
I0417 13:18:22.879058  4530 net.cpp:141] Setting up conv2/relu_3x3_reduce
I0417 13:18:22.879066  4530 net.cpp:148] Top shape: 64 64 56 56 (12845056)
I0417 13:18:22.879071  4530 net.cpp:156] Memory required for data: 655098112
I0417 13:18:22.879076  4530 layer_factory.hpp:77] Creating layer conv2/3x3
I0417 13:18:22.879087  4530 net.cpp:91] Creating Layer conv2/3x3
I0417 13:18:22.879093  4530 net.cpp:425] conv2/3x3 <- conv2/3x3_reduce
I0417 13:18:22.879101  4530 net.cpp:399] conv2/3x3 -> conv2/3x3
I0417 13:18:22.880942  4530 net.cpp:141] Setting up conv2/3x3
I0417 13:18:22.880970  4530 net.cpp:148] Top shape: 64 192 56 56 (38535168)
I0417 13:18:22.880976  4530 net.cpp:156] Memory required for data: 809238784
I0417 13:18:22.880991  4530 layer_factory.hpp:77] Creating layer conv2/relu_3x3
I0417 13:18:22.881012  4530 net.cpp:91] Creating Layer conv2/relu_3x3
I0417 13:18:22.881018  4530 net.cpp:425] conv2/relu_3x3 <- conv2/3x3
I0417 13:18:22.881031  4530 net.cpp:386] conv2/relu_3x3 -> conv2/3x3 (in-place)
I0417 13:18:22.881047  4530 net.cpp:141] Setting up conv2/relu_3x3
I0417 13:18:22.881054  4530 net.cpp:148] Top shape: 64 192 56 56 (38535168)
I0417 13:18:22.881059  4530 net.cpp:156] Memory required for data: 963379456
I0417 13:18:22.881064  4530 layer_factory.hpp:77] Creating layer conv2/norm2
I0417 13:18:22.881079  4530 net.cpp:91] Creating Layer conv2/norm2
I0417 13:18:22.881084  4530 net.cpp:425] conv2/norm2 <- conv2/3x3
I0417 13:18:22.881093  4530 net.cpp:399] conv2/norm2 -> conv2/norm2
I0417 13:18:22.881148  4530 net.cpp:141] Setting up conv2/norm2
I0417 13:18:22.881166  4530 net.cpp:148] Top shape: 64 192 56 56 (38535168)
I0417 13:18:22.881171  4530 net.cpp:156] Memory required for data: 1117520128
I0417 13:18:22.881176  4530 layer_factory.hpp:77] Creating layer pool2/3x3_s2
I0417 13:18:22.881186  4530 net.cpp:91] Creating Layer pool2/3x3_s2
I0417 13:18:22.881191  4530 net.cpp:425] pool2/3x3_s2 <- conv2/norm2
I0417 13:18:22.881197  4530 net.cpp:399] pool2/3x3_s2 -> pool2/3x3_s2
I0417 13:18:22.881238  4530 net.cpp:141] Setting up pool2/3x3_s2
I0417 13:18:22.881254  4530 net.cpp:148] Top shape: 64 192 28 28 (9633792)
I0417 13:18:22.881260  4530 net.cpp:156] Memory required for data: 1156055296
I0417 13:18:22.881266  4530 layer_factory.hpp:77] Creating layer pool2/3x3_s2_pool2/3x3_s2_0_split
I0417 13:18:22.881275  4530 net.cpp:91] Creating Layer pool2/3x3_s2_pool2/3x3_s2_0_split
I0417 13:18:22.881281  4530 net.cpp:425] pool2/3x3_s2_pool2/3x3_s2_0_split <- pool2/3x3_s2
I0417 13:18:22.881289  4530 net.cpp:399] pool2/3x3_s2_pool2/3x3_s2_0_split -> pool2/3x3_s2_pool2/3x3_s2_0_split_0
I0417 13:18:22.881299  4530 net.cpp:399] pool2/3x3_s2_pool2/3x3_s2_0_split -> pool2/3x3_s2_pool2/3x3_s2_0_split_1
I0417 13:18:22.881307  4530 net.cpp:399] pool2/3x3_s2_pool2/3x3_s2_0_split -> pool2/3x3_s2_pool2/3x3_s2_0_split_2
I0417 13:18:22.881315  4530 net.cpp:399] pool2/3x3_s2_pool2/3x3_s2_0_split -> pool2/3x3_s2_pool2/3x3_s2_0_split_3
I0417 13:18:22.881377  4530 net.cpp:141] Setting up pool2/3x3_s2_pool2/3x3_s2_0_split
I0417 13:18:22.881389  4530 net.cpp:148] Top shape: 64 192 28 28 (9633792)
I0417 13:18:22.881397  4530 net.cpp:148] Top shape: 64 192 28 28 (9633792)
I0417 13:18:22.881402  4530 net.cpp:148] Top shape: 64 192 28 28 (9633792)
I0417 13:18:22.881409  4530 net.cpp:148] Top shape: 64 192 28 28 (9633792)
I0417 13:18:22.881414  4530 net.cpp:156] Memory required for data: 1310195968
I0417 13:18:22.881420  4530 layer_factory.hpp:77] Creating layer inception_3a/1x1
I0417 13:18:22.881433  4530 net.cpp:91] Creating Layer inception_3a/1x1
I0417 13:18:22.881438  4530 net.cpp:425] inception_3a/1x1 <- pool2/3x3_s2_pool2/3x3_s2_0_split_0
I0417 13:18:22.881448  4530 net.cpp:399] inception_3a/1x1 -> inception_3a/1x1
I0417 13:18:22.882586  4530 net.cpp:141] Setting up inception_3a/1x1
I0417 13:18:22.882616  4530 net.cpp:148] Top shape: 64 64 28 28 (3211264)
I0417 13:18:22.882627  4530 net.cpp:156] Memory required for data: 1323041024
I0417 13:18:22.882647  4530 layer_factory.hpp:77] Creating layer inception_3a/relu_1x1
I0417 13:18:22.882673  4530 net.cpp:91] Creating Layer inception_3a/relu_1x1
I0417 13:18:22.882686  4530 net.cpp:425] inception_3a/relu_1x1 <- inception_3a/1x1
I0417 13:18:22.882704  4530 net.cpp:386] inception_3a/relu_1x1 -> inception_3a/1x1 (in-place)
I0417 13:18:22.882725  4530 net.cpp:141] Setting up inception_3a/relu_1x1
I0417 13:18:22.882735  4530 net.cpp:148] Top shape: 64 64 28 28 (3211264)
I0417 13:18:22.882745  4530 net.cpp:156] Memory required for data: 1335886080
I0417 13:18:22.882750  4530 layer_factory.hpp:77] Creating layer inception_3a/3x3_reduce
I0417 13:18:22.882768  4530 net.cpp:91] Creating Layer inception_3a/3x3_reduce
I0417 13:18:22.882774  4530 net.cpp:425] inception_3a/3x3_reduce <- pool2/3x3_s2_pool2/3x3_s2_0_split_1
I0417 13:18:22.882784  4530 net.cpp:399] inception_3a/3x3_reduce -> inception_3a/3x3_reduce
I0417 13:18:22.884057  4530 net.cpp:141] Setting up inception_3a/3x3_reduce
I0417 13:18:22.884083  4530 net.cpp:148] Top shape: 64 96 28 28 (4816896)
I0417 13:18:22.884089  4530 net.cpp:156] Memory required for data: 1355153664
I0417 13:18:22.884106  4530 layer_factory.hpp:77] Creating layer inception_3a/relu_3x3_reduce
I0417 13:18:22.884117  4530 net.cpp:91] Creating Layer inception_3a/relu_3x3_reduce
I0417 13:18:22.884124  4530 net.cpp:425] inception_3a/relu_3x3_reduce <- inception_3a/3x3_reduce
I0417 13:18:22.884137  4530 net.cpp:386] inception_3a/relu_3x3_reduce -> inception_3a/3x3_reduce (in-place)
I0417 13:18:22.884150  4530 net.cpp:141] Setting up inception_3a/relu_3x3_reduce
I0417 13:18:22.884156  4530 net.cpp:148] Top shape: 64 96 28 28 (4816896)
I0417 13:18:22.884161  4530 net.cpp:156] Memory required for data: 1374421248
I0417 13:18:22.884167  4530 layer_factory.hpp:77] Creating layer inception_3a/3x3
I0417 13:18:22.884183  4530 net.cpp:91] Creating Layer inception_3a/3x3
I0417 13:18:22.884191  4530 net.cpp:425] inception_3a/3x3 <- inception_3a/3x3_reduce
I0417 13:18:22.884198  4530 net.cpp:399] inception_3a/3x3 -> inception_3a/3x3
I0417 13:18:22.885501  4530 net.cpp:141] Setting up inception_3a/3x3
I0417 13:18:22.885524  4530 net.cpp:148] Top shape: 64 128 28 28 (6422528)
I0417 13:18:22.885530  4530 net.cpp:156] Memory required for data: 1400111360
I0417 13:18:22.885540  4530 layer_factory.hpp:77] Creating layer inception_3a/relu_3x3
I0417 13:18:22.885548  4530 net.cpp:91] Creating Layer inception_3a/relu_3x3
I0417 13:18:22.885555  4530 net.cpp:425] inception_3a/relu_3x3 <- inception_3a/3x3
I0417 13:18:22.885562  4530 net.cpp:386] inception_3a/relu_3x3 -> inception_3a/3x3 (in-place)
I0417 13:18:22.885576  4530 net.cpp:141] Setting up inception_3a/relu_3x3
I0417 13:18:22.885582  4530 net.cpp:148] Top shape: 64 128 28 28 (6422528)
I0417 13:18:22.885587  4530 net.cpp:156] Memory required for data: 1425801472
I0417 13:18:22.885592  4530 layer_factory.hpp:77] Creating layer inception_3a/5x5_reduce
I0417 13:18:22.885607  4530 net.cpp:91] Creating Layer inception_3a/5x5_reduce
I0417 13:18:22.885613  4530 net.cpp:425] inception_3a/5x5_reduce <- pool2/3x3_s2_pool2/3x3_s2_0_split_2
I0417 13:18:22.885623  4530 net.cpp:399] inception_3a/5x5_reduce -> inception_3a/5x5_reduce
I0417 13:18:22.885906  4530 net.cpp:141] Setting up inception_3a/5x5_reduce
I0417 13:18:22.885922  4530 net.cpp:148] Top shape: 64 16 28 28 (802816)
I0417 13:18:22.885928  4530 net.cpp:156] Memory required for data: 1429012736
I0417 13:18:22.885936  4530 layer_factory.hpp:77] Creating layer inception_3a/relu_5x5_reduce
I0417 13:18:22.885943  4530 net.cpp:91] Creating Layer inception_3a/relu_5x5_reduce
I0417 13:18:22.885949  4530 net.cpp:425] inception_3a/relu_5x5_reduce <- inception_3a/5x5_reduce
I0417 13:18:22.885957  4530 net.cpp:386] inception_3a/relu_5x5_reduce -> inception_3a/5x5_reduce (in-place)
I0417 13:18:22.885964  4530 net.cpp:141] Setting up inception_3a/relu_5x5_reduce
I0417 13:18:22.885972  4530 net.cpp:148] Top shape: 64 16 28 28 (802816)
I0417 13:18:22.885975  4530 net.cpp:156] Memory required for data: 1432224000
I0417 13:18:22.885980  4530 layer_factory.hpp:77] Creating layer inception_3a/5x5
I0417 13:18:22.885990  4530 net.cpp:91] Creating Layer inception_3a/5x5
I0417 13:18:22.885996  4530 net.cpp:425] inception_3a/5x5 <- inception_3a/5x5_reduce
I0417 13:18:22.886003  4530 net.cpp:399] inception_3a/5x5 -> inception_3a/5x5
I0417 13:18:22.886363  4530 net.cpp:141] Setting up inception_3a/5x5
I0417 13:18:22.886379  4530 net.cpp:148] Top shape: 64 32 28 28 (1605632)
I0417 13:18:22.886384  4530 net.cpp:156] Memory required for data: 1438646528
I0417 13:18:22.886391  4530 layer_factory.hpp:77] Creating layer inception_3a/relu_5x5
I0417 13:18:22.886400  4530 net.cpp:91] Creating Layer inception_3a/relu_5x5
I0417 13:18:22.886405  4530 net.cpp:425] inception_3a/relu_5x5 <- inception_3a/5x5
I0417 13:18:22.886414  4530 net.cpp:386] inception_3a/relu_5x5 -> inception_3a/5x5 (in-place)
I0417 13:18:22.886425  4530 net.cpp:141] Setting up inception_3a/relu_5x5
I0417 13:18:22.886430  4530 net.cpp:148] Top shape: 64 32 28 28 (1605632)
I0417 13:18:22.886435  4530 net.cpp:156] Memory required for data: 1445069056
I0417 13:18:22.886440  4530 layer_factory.hpp:77] Creating layer inception_3a/pool
I0417 13:18:22.886449  4530 net.cpp:91] Creating Layer inception_3a/pool
I0417 13:18:22.886456  4530 net.cpp:425] inception_3a/pool <- pool2/3x3_s2_pool2/3x3_s2_0_split_3
I0417 13:18:22.886462  4530 net.cpp:399] inception_3a/pool -> inception_3a/pool
I0417 13:18:22.886505  4530 net.cpp:141] Setting up inception_3a/pool
I0417 13:18:22.886601  4530 net.cpp:148] Top shape: 64 192 28 28 (9633792)
I0417 13:18:22.886611  4530 net.cpp:156] Memory required for data: 1483604224
I0417 13:18:22.886616  4530 layer_factory.hpp:77] Creating layer inception_3a/pool_proj
I0417 13:18:22.886628  4530 net.cpp:91] Creating Layer inception_3a/pool_proj
I0417 13:18:22.886634  4530 net.cpp:425] inception_3a/pool_proj <- inception_3a/pool
I0417 13:18:22.886642  4530 net.cpp:399] inception_3a/pool_proj -> inception_3a/pool_proj
I0417 13:18:22.886929  4530 net.cpp:141] Setting up inception_3a/pool_proj
I0417 13:18:22.886945  4530 net.cpp:148] Top shape: 64 32 28 28 (1605632)
I0417 13:18:22.886950  4530 net.cpp:156] Memory required for data: 1490026752
I0417 13:18:22.886962  4530 layer_factory.hpp:77] Creating layer inception_3a/relu_pool_proj
I0417 13:18:22.886970  4530 net.cpp:91] Creating Layer inception_3a/relu_pool_proj
I0417 13:18:22.886976  4530 net.cpp:425] inception_3a/relu_pool_proj <- inception_3a/pool_proj
I0417 13:18:22.886983  4530 net.cpp:386] inception_3a/relu_pool_proj -> inception_3a/pool_proj (in-place)
I0417 13:18:22.886991  4530 net.cpp:141] Setting up inception_3a/relu_pool_proj
I0417 13:18:22.886998  4530 net.cpp:148] Top shape: 64 32 28 28 (1605632)
I0417 13:18:22.887002  4530 net.cpp:156] Memory required for data: 1496449280
I0417 13:18:22.887007  4530 layer_factory.hpp:77] Creating layer inception_3a/output
I0417 13:18:22.887023  4530 net.cpp:91] Creating Layer inception_3a/output
I0417 13:18:22.887029  4530 net.cpp:425] inception_3a/output <- inception_3a/1x1
I0417 13:18:22.887035  4530 net.cpp:425] inception_3a/output <- inception_3a/3x3
I0417 13:18:22.887042  4530 net.cpp:425] inception_3a/output <- inception_3a/5x5
I0417 13:18:22.887046  4530 net.cpp:425] inception_3a/output <- inception_3a/pool_proj
I0417 13:18:22.887053  4530 net.cpp:399] inception_3a/output -> inception_3a/output
I0417 13:18:22.887082  4530 net.cpp:141] Setting up inception_3a/output
I0417 13:18:22.887094  4530 net.cpp:148] Top shape: 64 256 28 28 (12845056)
I0417 13:18:22.887099  4530 net.cpp:156] Memory required for data: 1547829504
I0417 13:18:22.887104  4530 layer_factory.hpp:77] Creating layer inception_3a/output_inception_3a/output_0_split
I0417 13:18:22.887115  4530 net.cpp:91] Creating Layer inception_3a/output_inception_3a/output_0_split
I0417 13:18:22.887120  4530 net.cpp:425] inception_3a/output_inception_3a/output_0_split <- inception_3a/output
I0417 13:18:22.887126  4530 net.cpp:399] inception_3a/output_inception_3a/output_0_split -> inception_3a/output_inception_3a/output_0_split_0
I0417 13:18:22.887135  4530 net.cpp:399] inception_3a/output_inception_3a/output_0_split -> inception_3a/output_inception_3a/output_0_split_1
I0417 13:18:22.887143  4530 net.cpp:399] inception_3a/output_inception_3a/output_0_split -> inception_3a/output_inception_3a/output_0_split_2
I0417 13:18:22.887151  4530 net.cpp:399] inception_3a/output_inception_3a/output_0_split -> inception_3a/output_inception_3a/output_0_split_3
I0417 13:18:22.887210  4530 net.cpp:141] Setting up inception_3a/output_inception_3a/output_0_split
I0417 13:18:22.887222  4530 net.cpp:148] Top shape: 64 256 28 28 (12845056)
I0417 13:18:22.887228  4530 net.cpp:148] Top shape: 64 256 28 28 (12845056)
I0417 13:18:22.887233  4530 net.cpp:148] Top shape: 64 256 28 28 (12845056)
I0417 13:18:22.887239  4530 net.cpp:148] Top shape: 64 256 28 28 (12845056)
I0417 13:18:22.887243  4530 net.cpp:156] Memory required for data: 1753350400
I0417 13:18:22.887249  4530 layer_factory.hpp:77] Creating layer inception_3b/1x1
I0417 13:18:22.887260  4530 net.cpp:91] Creating Layer inception_3b/1x1
I0417 13:18:22.887266  4530 net.cpp:425] inception_3b/1x1 <- inception_3a/output_inception_3a/output_0_split_0
I0417 13:18:22.887275  4530 net.cpp:399] inception_3b/1x1 -> inception_3b/1x1
I0417 13:18:22.887799  4530 net.cpp:141] Setting up inception_3b/1x1
I0417 13:18:22.887817  4530 net.cpp:148] Top shape: 64 128 28 28 (6422528)
I0417 13:18:22.887823  4530 net.cpp:156] Memory required for data: 1779040512
I0417 13:18:22.887832  4530 layer_factory.hpp:77] Creating layer inception_3b/relu_1x1
I0417 13:18:22.887840  4530 net.cpp:91] Creating Layer inception_3b/relu_1x1
I0417 13:18:22.887845  4530 net.cpp:425] inception_3b/relu_1x1 <- inception_3b/1x1
I0417 13:18:22.887852  4530 net.cpp:386] inception_3b/relu_1x1 -> inception_3b/1x1 (in-place)
I0417 13:18:22.887861  4530 net.cpp:141] Setting up inception_3b/relu_1x1
I0417 13:18:22.887868  4530 net.cpp:148] Top shape: 64 128 28 28 (6422528)
I0417 13:18:22.887872  4530 net.cpp:156] Memory required for data: 1804730624
I0417 13:18:22.887877  4530 layer_factory.hpp:77] Creating layer inception_3b/3x3_reduce
I0417 13:18:22.887889  4530 net.cpp:91] Creating Layer inception_3b/3x3_reduce
I0417 13:18:22.887894  4530 net.cpp:425] inception_3b/3x3_reduce <- inception_3a/output_inception_3a/output_0_split_1
I0417 13:18:22.887902  4530 net.cpp:399] inception_3b/3x3_reduce -> inception_3b/3x3_reduce
I0417 13:18:22.888411  4530 net.cpp:141] Setting up inception_3b/3x3_reduce
I0417 13:18:22.888427  4530 net.cpp:148] Top shape: 64 128 28 28 (6422528)
I0417 13:18:22.888433  4530 net.cpp:156] Memory required for data: 1830420736
I0417 13:18:22.888442  4530 layer_factory.hpp:77] Creating layer inception_3b/relu_3x3_reduce
I0417 13:18:22.888449  4530 net.cpp:91] Creating Layer inception_3b/relu_3x3_reduce
I0417 13:18:22.888455  4530 net.cpp:425] inception_3b/relu_3x3_reduce <- inception_3b/3x3_reduce
I0417 13:18:22.888463  4530 net.cpp:386] inception_3b/relu_3x3_reduce -> inception_3b/3x3_reduce (in-place)
I0417 13:18:22.888470  4530 net.cpp:141] Setting up inception_3b/relu_3x3_reduce
I0417 13:18:22.888478  4530 net.cpp:148] Top shape: 64 128 28 28 (6422528)
I0417 13:18:22.888481  4530 net.cpp:156] Memory required for data: 1856110848
I0417 13:18:22.888486  4530 layer_factory.hpp:77] Creating layer inception_3b/3x3
I0417 13:18:22.888496  4530 net.cpp:91] Creating Layer inception_3b/3x3
I0417 13:18:22.888502  4530 net.cpp:425] inception_3b/3x3 <- inception_3b/3x3_reduce
I0417 13:18:22.888509  4530 net.cpp:399] inception_3b/3x3 -> inception_3b/3x3
I0417 13:18:22.891083  4530 net.cpp:141] Setting up inception_3b/3x3
I0417 13:18:22.891149  4530 net.cpp:148] Top shape: 64 192 28 28 (9633792)
I0417 13:18:22.891155  4530 net.cpp:156] Memory required for data: 1894646016
I0417 13:18:22.891170  4530 layer_factory.hpp:77] Creating layer inception_3b/relu_3x3
I0417 13:18:22.891191  4530 net.cpp:91] Creating Layer inception_3b/relu_3x3
I0417 13:18:22.891199  4530 net.cpp:425] inception_3b/relu_3x3 <- inception_3b/3x3
I0417 13:18:22.891209  4530 net.cpp:386] inception_3b/relu_3x3 -> inception_3b/3x3 (in-place)
I0417 13:18:22.891222  4530 net.cpp:141] Setting up inception_3b/relu_3x3
I0417 13:18:22.891228  4530 net.cpp:148] Top shape: 64 192 28 28 (9633792)
I0417 13:18:22.891232  4530 net.cpp:156] Memory required for data: 1933181184
I0417 13:18:22.891237  4530 layer_factory.hpp:77] Creating layer inception_3b/5x5_reduce
I0417 13:18:22.891249  4530 net.cpp:91] Creating Layer inception_3b/5x5_reduce
I0417 13:18:22.891263  4530 net.cpp:425] inception_3b/5x5_reduce <- inception_3a/output_inception_3a/output_0_split_2
I0417 13:18:22.891270  4530 net.cpp:399] inception_3b/5x5_reduce -> inception_3b/5x5_reduce
I0417 13:18:22.891579  4530 net.cpp:141] Setting up inception_3b/5x5_reduce
I0417 13:18:22.891595  4530 net.cpp:148] Top shape: 64 32 28 28 (1605632)
I0417 13:18:22.891600  4530 net.cpp:156] Memory required for data: 1939603712
I0417 13:18:22.891609  4530 layer_factory.hpp:77] Creating layer inception_3b/relu_5x5_reduce
I0417 13:18:22.891616  4530 net.cpp:91] Creating Layer inception_3b/relu_5x5_reduce
I0417 13:18:22.891623  4530 net.cpp:425] inception_3b/relu_5x5_reduce <- inception_3b/5x5_reduce
I0417 13:18:22.891629  4530 net.cpp:386] inception_3b/relu_5x5_reduce -> inception_3b/5x5_reduce (in-place)
I0417 13:18:22.891638  4530 net.cpp:141] Setting up inception_3b/relu_5x5_reduce
I0417 13:18:22.891645  4530 net.cpp:148] Top shape: 64 32 28 28 (1605632)
I0417 13:18:22.891649  4530 net.cpp:156] Memory required for data: 1946026240
I0417 13:18:22.891654  4530 layer_factory.hpp:77] Creating layer inception_3b/5x5
I0417 13:18:22.891667  4530 net.cpp:91] Creating Layer inception_3b/5x5
I0417 13:18:22.891674  4530 net.cpp:425] inception_3b/5x5 <- inception_3b/5x5_reduce
I0417 13:18:22.891681  4530 net.cpp:399] inception_3b/5x5 -> inception_3b/5x5
I0417 13:18:22.893182  4530 net.cpp:141] Setting up inception_3b/5x5
I0417 13:18:22.893208  4530 net.cpp:148] Top shape: 64 96 28 28 (4816896)
I0417 13:18:22.893213  4530 net.cpp:156] Memory required for data: 1965293824
I0417 13:18:22.893225  4530 layer_factory.hpp:77] Creating layer inception_3b/relu_5x5
I0417 13:18:22.893241  4530 net.cpp:91] Creating Layer inception_3b/relu_5x5
I0417 13:18:22.893249  4530 net.cpp:425] inception_3b/relu_5x5 <- inception_3b/5x5
I0417 13:18:22.893260  4530 net.cpp:386] inception_3b/relu_5x5 -> inception_3b/5x5 (in-place)
I0417 13:18:22.893273  4530 net.cpp:141] Setting up inception_3b/relu_5x5
I0417 13:18:22.893280  4530 net.cpp:148] Top shape: 64 96 28 28 (4816896)
I0417 13:18:22.893285  4530 net.cpp:156] Memory required for data: 1984561408
I0417 13:18:22.893290  4530 layer_factory.hpp:77] Creating layer inception_3b/pool
I0417 13:18:22.893301  4530 net.cpp:91] Creating Layer inception_3b/pool
I0417 13:18:22.893308  4530 net.cpp:425] inception_3b/pool <- inception_3a/output_inception_3a/output_0_split_3
I0417 13:18:22.893316  4530 net.cpp:399] inception_3b/pool -> inception_3b/pool
I0417 13:18:22.893369  4530 net.cpp:141] Setting up inception_3b/pool
I0417 13:18:22.893389  4530 net.cpp:148] Top shape: 64 256 28 28 (12845056)
I0417 13:18:22.893394  4530 net.cpp:156] Memory required for data: 2035941632
I0417 13:18:22.893399  4530 layer_factory.hpp:77] Creating layer inception_3b/pool_proj
I0417 13:18:22.893412  4530 net.cpp:91] Creating Layer inception_3b/pool_proj
I0417 13:18:22.893419  4530 net.cpp:425] inception_3b/pool_proj <- inception_3b/pool
I0417 13:18:22.893426  4530 net.cpp:399] inception_3b/pool_proj -> inception_3b/pool_proj
I0417 13:18:22.893801  4530 net.cpp:141] Setting up inception_3b/pool_proj
I0417 13:18:22.893820  4530 net.cpp:148] Top shape: 64 64 28 28 (3211264)
I0417 13:18:22.893824  4530 net.cpp:156] Memory required for data: 2048786688
I0417 13:18:22.893833  4530 layer_factory.hpp:77] Creating layer inception_3b/relu_pool_proj
I0417 13:18:22.893844  4530 net.cpp:91] Creating Layer inception_3b/relu_pool_proj
I0417 13:18:22.893851  4530 net.cpp:425] inception_3b/relu_pool_proj <- inception_3b/pool_proj
I0417 13:18:22.893858  4530 net.cpp:386] inception_3b/relu_pool_proj -> inception_3b/pool_proj (in-place)
I0417 13:18:22.893868  4530 net.cpp:141] Setting up inception_3b/relu_pool_proj
I0417 13:18:22.893874  4530 net.cpp:148] Top shape: 64 64 28 28 (3211264)
I0417 13:18:22.893879  4530 net.cpp:156] Memory required for data: 2061631744
I0417 13:18:22.893884  4530 layer_factory.hpp:77] Creating layer inception_3b/output
I0417 13:18:22.893893  4530 net.cpp:91] Creating Layer inception_3b/output
I0417 13:18:22.893898  4530 net.cpp:425] inception_3b/output <- inception_3b/1x1
I0417 13:18:22.893904  4530 net.cpp:425] inception_3b/output <- inception_3b/3x3
I0417 13:18:22.893910  4530 net.cpp:425] inception_3b/output <- inception_3b/5x5
I0417 13:18:22.893916  4530 net.cpp:425] inception_3b/output <- inception_3b/pool_proj
I0417 13:18:22.893923  4530 net.cpp:399] inception_3b/output -> inception_3b/output
I0417 13:18:22.893957  4530 net.cpp:141] Setting up inception_3b/output
I0417 13:18:22.893970  4530 net.cpp:148] Top shape: 64 480 28 28 (24084480)
I0417 13:18:22.893975  4530 net.cpp:156] Memory required for data: 2157969664
I0417 13:18:22.893981  4530 layer_factory.hpp:77] Creating layer pool3/3x3_s2
I0417 13:18:22.893990  4530 net.cpp:91] Creating Layer pool3/3x3_s2
I0417 13:18:22.893995  4530 net.cpp:425] pool3/3x3_s2 <- inception_3b/output
I0417 13:18:22.894001  4530 net.cpp:399] pool3/3x3_s2 -> pool3/3x3_s2
I0417 13:18:22.894040  4530 net.cpp:141] Setting up pool3/3x3_s2
I0417 13:18:22.894052  4530 net.cpp:148] Top shape: 64 480 14 14 (6021120)
I0417 13:18:22.894057  4530 net.cpp:156] Memory required for data: 2182054144
I0417 13:18:22.894062  4530 layer_factory.hpp:77] Creating layer pool3/3x3_s2_pool3/3x3_s2_0_split
I0417 13:18:22.894069  4530 net.cpp:91] Creating Layer pool3/3x3_s2_pool3/3x3_s2_0_split
I0417 13:18:22.894075  4530 net.cpp:425] pool3/3x3_s2_pool3/3x3_s2_0_split <- pool3/3x3_s2
I0417 13:18:22.894083  4530 net.cpp:399] pool3/3x3_s2_pool3/3x3_s2_0_split -> pool3/3x3_s2_pool3/3x3_s2_0_split_0
I0417 13:18:22.894090  4530 net.cpp:399] pool3/3x3_s2_pool3/3x3_s2_0_split -> pool3/3x3_s2_pool3/3x3_s2_0_split_1
I0417 13:18:22.894098  4530 net.cpp:399] pool3/3x3_s2_pool3/3x3_s2_0_split -> pool3/3x3_s2_pool3/3x3_s2_0_split_2
I0417 13:18:22.894106  4530 net.cpp:399] pool3/3x3_s2_pool3/3x3_s2_0_split -> pool3/3x3_s2_pool3/3x3_s2_0_split_3
I0417 13:18:22.894165  4530 net.cpp:141] Setting up pool3/3x3_s2_pool3/3x3_s2_0_split
I0417 13:18:22.894176  4530 net.cpp:148] Top shape: 64 480 14 14 (6021120)
I0417 13:18:22.894182  4530 net.cpp:148] Top shape: 64 480 14 14 (6021120)
I0417 13:18:22.894188  4530 net.cpp:148] Top shape: 64 480 14 14 (6021120)
I0417 13:18:22.894194  4530 net.cpp:148] Top shape: 64 480 14 14 (6021120)
I0417 13:18:22.894198  4530 net.cpp:156] Memory required for data: 2278392064
I0417 13:18:22.894204  4530 layer_factory.hpp:77] Creating layer inception_4a/1x1
I0417 13:18:22.894214  4530 net.cpp:91] Creating Layer inception_4a/1x1
I0417 13:18:22.894220  4530 net.cpp:425] inception_4a/1x1 <- pool3/3x3_s2_pool3/3x3_s2_0_split_0
I0417 13:18:22.894228  4530 net.cpp:399] inception_4a/1x1 -> inception_4a/1x1
I0417 13:18:22.895282  4530 net.cpp:141] Setting up inception_4a/1x1
I0417 13:18:22.895304  4530 net.cpp:148] Top shape: 64 192 14 14 (2408448)
I0417 13:18:22.895309  4530 net.cpp:156] Memory required for data: 2288025856
I0417 13:18:22.895320  4530 layer_factory.hpp:77] Creating layer inception_4a/relu_1x1
I0417 13:18:22.895330  4530 net.cpp:91] Creating Layer inception_4a/relu_1x1
I0417 13:18:22.895339  4530 net.cpp:425] inception_4a/relu_1x1 <- inception_4a/1x1
I0417 13:18:22.895347  4530 net.cpp:386] inception_4a/relu_1x1 -> inception_4a/1x1 (in-place)
I0417 13:18:22.895359  4530 net.cpp:141] Setting up inception_4a/relu_1x1
I0417 13:18:22.895365  4530 net.cpp:148] Top shape: 64 192 14 14 (2408448)
I0417 13:18:22.895370  4530 net.cpp:156] Memory required for data: 2297659648
I0417 13:18:22.895375  4530 layer_factory.hpp:77] Creating layer inception_4a/3x3_reduce
I0417 13:18:22.895392  4530 net.cpp:91] Creating Layer inception_4a/3x3_reduce
I0417 13:18:22.895398  4530 net.cpp:425] inception_4a/3x3_reduce <- pool3/3x3_s2_pool3/3x3_s2_0_split_1
I0417 13:18:22.895408  4530 net.cpp:399] inception_4a/3x3_reduce -> inception_4a/3x3_reduce
I0417 13:18:22.896106  4530 net.cpp:141] Setting up inception_4a/3x3_reduce
I0417 13:18:22.896122  4530 net.cpp:148] Top shape: 64 96 14 14 (1204224)
I0417 13:18:22.896128  4530 net.cpp:156] Memory required for data: 2302476544
I0417 13:18:22.896144  4530 layer_factory.hpp:77] Creating layer inception_4a/relu_3x3_reduce
I0417 13:18:22.896152  4530 net.cpp:91] Creating Layer inception_4a/relu_3x3_reduce
I0417 13:18:22.896158  4530 net.cpp:425] inception_4a/relu_3x3_reduce <- inception_4a/3x3_reduce
I0417 13:18:22.896165  4530 net.cpp:386] inception_4a/relu_3x3_reduce -> inception_4a/3x3_reduce (in-place)
I0417 13:18:22.896174  4530 net.cpp:141] Setting up inception_4a/relu_3x3_reduce
I0417 13:18:22.896180  4530 net.cpp:148] Top shape: 64 96 14 14 (1204224)
I0417 13:18:22.896185  4530 net.cpp:156] Memory required for data: 2307293440
I0417 13:18:22.896190  4530 layer_factory.hpp:77] Creating layer inception_4a/3x3
I0417 13:18:22.896200  4530 net.cpp:91] Creating Layer inception_4a/3x3
I0417 13:18:22.896209  4530 net.cpp:425] inception_4a/3x3 <- inception_4a/3x3_reduce
I0417 13:18:22.896217  4530 net.cpp:399] inception_4a/3x3 -> inception_4a/3x3
I0417 13:18:22.898792  4530 net.cpp:141] Setting up inception_4a/3x3
I0417 13:18:22.898859  4530 net.cpp:148] Top shape: 64 208 14 14 (2609152)
I0417 13:18:22.898866  4530 net.cpp:156] Memory required for data: 2317730048
I0417 13:18:22.898885  4530 layer_factory.hpp:77] Creating layer inception_4a/relu_3x3
I0417 13:18:22.898907  4530 net.cpp:91] Creating Layer inception_4a/relu_3x3
I0417 13:18:22.898918  4530 net.cpp:425] inception_4a/relu_3x3 <- inception_4a/3x3
I0417 13:18:22.898932  4530 net.cpp:386] inception_4a/relu_3x3 -> inception_4a/3x3 (in-place)
I0417 13:18:22.898952  4530 net.cpp:141] Setting up inception_4a/relu_3x3
I0417 13:18:22.898959  4530 net.cpp:148] Top shape: 64 208 14 14 (2609152)
I0417 13:18:22.898964  4530 net.cpp:156] Memory required for data: 2328166656
I0417 13:18:22.898969  4530 layer_factory.hpp:77] Creating layer inception_4a/5x5_reduce
I0417 13:18:22.898983  4530 net.cpp:91] Creating Layer inception_4a/5x5_reduce
I0417 13:18:22.898991  4530 net.cpp:425] inception_4a/5x5_reduce <- pool3/3x3_s2_pool3/3x3_s2_0_split_2
I0417 13:18:22.899000  4530 net.cpp:399] inception_4a/5x5_reduce -> inception_4a/5x5_reduce
I0417 13:18:22.899385  4530 net.cpp:141] Setting up inception_4a/5x5_reduce
I0417 13:18:22.899407  4530 net.cpp:148] Top shape: 64 16 14 14 (200704)
I0417 13:18:22.899420  4530 net.cpp:156] Memory required for data: 2328969472
I0417 13:18:22.899438  4530 layer_factory.hpp:77] Creating layer inception_4a/relu_5x5_reduce
I0417 13:18:22.899456  4530 net.cpp:91] Creating Layer inception_4a/relu_5x5_reduce
I0417 13:18:22.899473  4530 net.cpp:425] inception_4a/relu_5x5_reduce <- inception_4a/5x5_reduce
I0417 13:18:22.899492  4530 net.cpp:386] inception_4a/relu_5x5_reduce -> inception_4a/5x5_reduce (in-place)
I0417 13:18:22.899509  4530 net.cpp:141] Setting up inception_4a/relu_5x5_reduce
I0417 13:18:22.899524  4530 net.cpp:148] Top shape: 64 16 14 14 (200704)
I0417 13:18:22.899534  4530 net.cpp:156] Memory required for data: 2329772288
I0417 13:18:22.899545  4530 layer_factory.hpp:77] Creating layer inception_4a/5x5
I0417 13:18:22.899574  4530 net.cpp:91] Creating Layer inception_4a/5x5
I0417 13:18:22.899590  4530 net.cpp:425] inception_4a/5x5 <- inception_4a/5x5_reduce
I0417 13:18:22.899612  4530 net.cpp:399] inception_4a/5x5 -> inception_4a/5x5
I0417 13:18:22.900068  4530 net.cpp:141] Setting up inception_4a/5x5
I0417 13:18:22.900092  4530 net.cpp:148] Top shape: 64 48 14 14 (602112)
I0417 13:18:22.900104  4530 net.cpp:156] Memory required for data: 2332180736
I0417 13:18:22.900125  4530 layer_factory.hpp:77] Creating layer inception_4a/relu_5x5
I0417 13:18:22.900152  4530 net.cpp:91] Creating Layer inception_4a/relu_5x5
I0417 13:18:22.900173  4530 net.cpp:425] inception_4a/relu_5x5 <- inception_4a/5x5
I0417 13:18:22.900192  4530 net.cpp:386] inception_4a/relu_5x5 -> inception_4a/5x5 (in-place)
I0417 13:18:22.900220  4530 net.cpp:141] Setting up inception_4a/relu_5x5
I0417 13:18:22.900241  4530 net.cpp:148] Top shape: 64 48 14 14 (602112)
I0417 13:18:22.900251  4530 net.cpp:156] Memory required for data: 2334589184
I0417 13:18:22.900262  4530 layer_factory.hpp:77] Creating layer inception_4a/pool
I0417 13:18:22.900279  4530 net.cpp:91] Creating Layer inception_4a/pool
I0417 13:18:22.900293  4530 net.cpp:425] inception_4a/pool <- pool3/3x3_s2_pool3/3x3_s2_0_split_3
I0417 13:18:22.900310  4530 net.cpp:399] inception_4a/pool -> inception_4a/pool
I0417 13:18:22.900377  4530 net.cpp:141] Setting up inception_4a/pool
I0417 13:18:22.900394  4530 net.cpp:148] Top shape: 64 480 14 14 (6021120)
I0417 13:18:22.900405  4530 net.cpp:156] Memory required for data: 2358673664
I0417 13:18:22.900416  4530 layer_factory.hpp:77] Creating layer inception_4a/pool_proj
I0417 13:18:22.900437  4530 net.cpp:91] Creating Layer inception_4a/pool_proj
I0417 13:18:22.900449  4530 net.cpp:425] inception_4a/pool_proj <- inception_4a/pool
I0417 13:18:22.900465  4530 net.cpp:399] inception_4a/pool_proj -> inception_4a/pool_proj
I0417 13:18:22.901002  4530 net.cpp:141] Setting up inception_4a/pool_proj
I0417 13:18:22.901022  4530 net.cpp:148] Top shape: 64 64 14 14 (802816)
I0417 13:18:22.901032  4530 net.cpp:156] Memory required for data: 2361884928
I0417 13:18:22.901049  4530 layer_factory.hpp:77] Creating layer inception_4a/relu_pool_proj
I0417 13:18:22.901063  4530 net.cpp:91] Creating Layer inception_4a/relu_pool_proj
I0417 13:18:22.901077  4530 net.cpp:425] inception_4a/relu_pool_proj <- inception_4a/pool_proj
I0417 13:18:22.901091  4530 net.cpp:386] inception_4a/relu_pool_proj -> inception_4a/pool_proj (in-place)
I0417 13:18:22.901109  4530 net.cpp:141] Setting up inception_4a/relu_pool_proj
I0417 13:18:22.901125  4530 net.cpp:148] Top shape: 64 64 14 14 (802816)
I0417 13:18:22.901135  4530 net.cpp:156] Memory required for data: 2365096192
I0417 13:18:22.901144  4530 layer_factory.hpp:77] Creating layer inception_4a/output
I0417 13:18:22.901159  4530 net.cpp:91] Creating Layer inception_4a/output
I0417 13:18:22.901171  4530 net.cpp:425] inception_4a/output <- inception_4a/1x1
I0417 13:18:22.901185  4530 net.cpp:425] inception_4a/output <- inception_4a/3x3
I0417 13:18:22.901201  4530 net.cpp:425] inception_4a/output <- inception_4a/5x5
I0417 13:18:22.901214  4530 net.cpp:425] inception_4a/output <- inception_4a/pool_proj
I0417 13:18:22.901231  4530 net.cpp:399] inception_4a/output -> inception_4a/output
I0417 13:18:22.901276  4530 net.cpp:141] Setting up inception_4a/output
I0417 13:18:22.901296  4530 net.cpp:148] Top shape: 64 512 14 14 (6422528)
I0417 13:18:22.901307  4530 net.cpp:156] Memory required for data: 2390786304
I0417 13:18:22.901319  4530 layer_factory.hpp:77] Creating layer inception_4a/output_inception_4a/output_0_split
I0417 13:18:22.901340  4530 net.cpp:91] Creating Layer inception_4a/output_inception_4a/output_0_split
I0417 13:18:22.901355  4530 net.cpp:425] inception_4a/output_inception_4a/output_0_split <- inception_4a/output
I0417 13:18:22.901371  4530 net.cpp:399] inception_4a/output_inception_4a/output_0_split -> inception_4a/output_inception_4a/output_0_split_0
I0417 13:18:22.901391  4530 net.cpp:399] inception_4a/output_inception_4a/output_0_split -> inception_4a/output_inception_4a/output_0_split_1
I0417 13:18:22.901407  4530 net.cpp:399] inception_4a/output_inception_4a/output_0_split -> inception_4a/output_inception_4a/output_0_split_2
I0417 13:18:22.901427  4530 net.cpp:399] inception_4a/output_inception_4a/output_0_split -> inception_4a/output_inception_4a/output_0_split_3
I0417 13:18:22.901507  4530 net.cpp:141] Setting up inception_4a/output_inception_4a/output_0_split
I0417 13:18:22.901525  4530 net.cpp:148] Top shape: 64 512 14 14 (6422528)
I0417 13:18:22.901536  4530 net.cpp:148] Top shape: 64 512 14 14 (6422528)
I0417 13:18:22.901548  4530 net.cpp:148] Top shape: 64 512 14 14 (6422528)
I0417 13:18:22.901561  4530 net.cpp:148] Top shape: 64 512 14 14 (6422528)
I0417 13:18:22.901569  4530 net.cpp:156] Memory required for data: 2493546752
I0417 13:18:22.901579  4530 layer_factory.hpp:77] Creating layer inception_4b/1x1
I0417 13:18:22.901602  4530 net.cpp:91] Creating Layer inception_4b/1x1
I0417 13:18:22.901615  4530 net.cpp:425] inception_4b/1x1 <- inception_4a/output_inception_4a/output_0_split_0
I0417 13:18:22.901631  4530 net.cpp:399] inception_4b/1x1 -> inception_4b/1x1
I0417 13:18:22.902667  4530 net.cpp:141] Setting up inception_4b/1x1
I0417 13:18:22.902714  4530 net.cpp:148] Top shape: 64 160 14 14 (2007040)
I0417 13:18:22.902724  4530 net.cpp:156] Memory required for data: 2501574912
I0417 13:18:22.902742  4530 layer_factory.hpp:77] Creating layer inception_4b/relu_1x1
I0417 13:18:22.902760  4530 net.cpp:91] Creating Layer inception_4b/relu_1x1
I0417 13:18:22.902775  4530 net.cpp:425] inception_4b/relu_1x1 <- inception_4b/1x1
I0417 13:18:22.902791  4530 net.cpp:386] inception_4b/relu_1x1 -> inception_4b/1x1 (in-place)
I0417 13:18:22.902876  4530 net.cpp:141] Setting up inception_4b/relu_1x1
I0417 13:18:22.902891  4530 net.cpp:148] Top shape: 64 160 14 14 (2007040)
I0417 13:18:22.902901  4530 net.cpp:156] Memory required for data: 2509603072
I0417 13:18:22.902911  4530 layer_factory.hpp:77] Creating layer inception_4b/3x3_reduce
I0417 13:18:22.902930  4530 net.cpp:91] Creating Layer inception_4b/3x3_reduce
I0417 13:18:22.902945  4530 net.cpp:425] inception_4b/3x3_reduce <- inception_4a/output_inception_4a/output_0_split_1
I0417 13:18:22.902962  4530 net.cpp:399] inception_4b/3x3_reduce -> inception_4b/3x3_reduce
I0417 13:18:22.903746  4530 net.cpp:141] Setting up inception_4b/3x3_reduce
I0417 13:18:22.903767  4530 net.cpp:148] Top shape: 64 112 14 14 (1404928)
I0417 13:18:22.903777  4530 net.cpp:156] Memory required for data: 2515222784
I0417 13:18:22.903794  4530 layer_factory.hpp:77] Creating layer inception_4b/relu_3x3_reduce
I0417 13:18:22.903808  4530 net.cpp:91] Creating Layer inception_4b/relu_3x3_reduce
I0417 13:18:22.903823  4530 net.cpp:425] inception_4b/relu_3x3_reduce <- inception_4b/3x3_reduce
I0417 13:18:22.903838  4530 net.cpp:386] inception_4b/relu_3x3_reduce -> inception_4b/3x3_reduce (in-place)
I0417 13:18:22.903859  4530 net.cpp:141] Setting up inception_4b/relu_3x3_reduce
I0417 13:18:22.903875  4530 net.cpp:148] Top shape: 64 112 14 14 (1404928)
I0417 13:18:22.903885  4530 net.cpp:156] Memory required for data: 2520842496
I0417 13:18:22.903895  4530 layer_factory.hpp:77] Creating layer inception_4b/3x3
I0417 13:18:22.903913  4530 net.cpp:91] Creating Layer inception_4b/3x3
I0417 13:18:22.903926  4530 net.cpp:425] inception_4b/3x3 <- inception_4b/3x3_reduce
I0417 13:18:22.903942  4530 net.cpp:399] inception_4b/3x3 -> inception_4b/3x3
I0417 13:18:22.906597  4530 net.cpp:141] Setting up inception_4b/3x3
I0417 13:18:22.906635  4530 net.cpp:148] Top shape: 64 224 14 14 (2809856)
I0417 13:18:22.906646  4530 net.cpp:156] Memory required for data: 2532081920
I0417 13:18:22.906664  4530 layer_factory.hpp:77] Creating layer inception_4b/relu_3x3
I0417 13:18:22.906680  4530 net.cpp:91] Creating Layer inception_4b/relu_3x3
I0417 13:18:22.906694  4530 net.cpp:425] inception_4b/relu_3x3 <- inception_4b/3x3
I0417 13:18:22.906709  4530 net.cpp:386] inception_4b/relu_3x3 -> inception_4b/3x3 (in-place)
I0417 13:18:22.906728  4530 net.cpp:141] Setting up inception_4b/relu_3x3
I0417 13:18:22.906746  4530 net.cpp:148] Top shape: 64 224 14 14 (2809856)
I0417 13:18:22.906757  4530 net.cpp:156] Memory required for data: 2543321344
I0417 13:18:22.906769  4530 layer_factory.hpp:77] Creating layer inception_4b/5x5_reduce
I0417 13:18:22.906832  4530 net.cpp:91] Creating Layer inception_4b/5x5_reduce
I0417 13:18:22.906847  4530 net.cpp:425] inception_4b/5x5_reduce <- inception_4a/output_inception_4a/output_0_split_2
I0417 13:18:22.906864  4530 net.cpp:399] inception_4b/5x5_reduce -> inception_4b/5x5_reduce
I0417 13:18:22.907245  4530 net.cpp:141] Setting up inception_4b/5x5_reduce
I0417 13:18:22.907264  4530 net.cpp:148] Top shape: 64 24 14 14 (301056)
I0417 13:18:22.907274  4530 net.cpp:156] Memory required for data: 2544525568
I0417 13:18:22.907291  4530 layer_factory.hpp:77] Creating layer inception_4b/relu_5x5_reduce
I0417 13:18:22.907310  4530 net.cpp:91] Creating Layer inception_4b/relu_5x5_reduce
I0417 13:18:22.907326  4530 net.cpp:425] inception_4b/relu_5x5_reduce <- inception_4b/5x5_reduce
I0417 13:18:22.907346  4530 net.cpp:386] inception_4b/relu_5x5_reduce -> inception_4b/5x5_reduce (in-place)
I0417 13:18:22.907376  4530 net.cpp:141] Setting up inception_4b/relu_5x5_reduce
I0417 13:18:22.907397  4530 net.cpp:148] Top shape: 64 24 14 14 (301056)
I0417 13:18:22.907407  4530 net.cpp:156] Memory required for data: 2545729792
I0417 13:18:22.907418  4530 layer_factory.hpp:77] Creating layer inception_4b/5x5
I0417 13:18:22.907435  4530 net.cpp:91] Creating Layer inception_4b/5x5
I0417 13:18:22.907449  4530 net.cpp:425] inception_4b/5x5 <- inception_4b/5x5_reduce
I0417 13:18:22.907464  4530 net.cpp:399] inception_4b/5x5 -> inception_4b/5x5
I0417 13:18:22.908710  4530 net.cpp:141] Setting up inception_4b/5x5
I0417 13:18:22.908736  4530 net.cpp:148] Top shape: 64 64 14 14 (802816)
I0417 13:18:22.908746  4530 net.cpp:156] Memory required for data: 2548941056
I0417 13:18:22.908785  4530 layer_factory.hpp:77] Creating layer inception_4b/relu_5x5
I0417 13:18:22.908803  4530 net.cpp:91] Creating Layer inception_4b/relu_5x5
I0417 13:18:22.908815  4530 net.cpp:425] inception_4b/relu_5x5 <- inception_4b/5x5
I0417 13:18:22.908833  4530 net.cpp:386] inception_4b/relu_5x5 -> inception_4b/5x5 (in-place)
I0417 13:18:22.908852  4530 net.cpp:141] Setting up inception_4b/relu_5x5
I0417 13:18:22.908869  4530 net.cpp:148] Top shape: 64 64 14 14 (802816)
I0417 13:18:22.908881  4530 net.cpp:156] Memory required for data: 2552152320
I0417 13:18:22.908891  4530 layer_factory.hpp:77] Creating layer inception_4b/pool
I0417 13:18:22.908906  4530 net.cpp:91] Creating Layer inception_4b/pool
I0417 13:18:22.908921  4530 net.cpp:425] inception_4b/pool <- inception_4a/output_inception_4a/output_0_split_3
I0417 13:18:22.908938  4530 net.cpp:399] inception_4b/pool -> inception_4b/pool
I0417 13:18:22.909023  4530 net.cpp:141] Setting up inception_4b/pool
I0417 13:18:22.909046  4530 net.cpp:148] Top shape: 64 512 14 14 (6422528)
I0417 13:18:22.909059  4530 net.cpp:156] Memory required for data: 2577842432
I0417 13:18:22.909068  4530 layer_factory.hpp:77] Creating layer inception_4b/pool_proj
I0417 13:18:22.909087  4530 net.cpp:91] Creating Layer inception_4b/pool_proj
I0417 13:18:22.909101  4530 net.cpp:425] inception_4b/pool_proj <- inception_4b/pool
I0417 13:18:22.909121  4530 net.cpp:399] inception_4b/pool_proj -> inception_4b/pool_proj
I0417 13:18:22.909652  4530 net.cpp:141] Setting up inception_4b/pool_proj
I0417 13:18:22.909672  4530 net.cpp:148] Top shape: 64 64 14 14 (802816)
I0417 13:18:22.909682  4530 net.cpp:156] Memory required for data: 2581053696
I0417 13:18:22.909698  4530 layer_factory.hpp:77] Creating layer inception_4b/relu_pool_proj
I0417 13:18:22.909710  4530 net.cpp:91] Creating Layer inception_4b/relu_pool_proj
I0417 13:18:22.909721  4530 net.cpp:425] inception_4b/relu_pool_proj <- inception_4b/pool_proj
I0417 13:18:22.909734  4530 net.cpp:386] inception_4b/relu_pool_proj -> inception_4b/pool_proj (in-place)
I0417 13:18:22.909749  4530 net.cpp:141] Setting up inception_4b/relu_pool_proj
I0417 13:18:22.909765  4530 net.cpp:148] Top shape: 64 64 14 14 (802816)
I0417 13:18:22.909775  4530 net.cpp:156] Memory required for data: 2584264960
I0417 13:18:22.909785  4530 layer_factory.hpp:77] Creating layer inception_4b/output
I0417 13:18:22.909802  4530 net.cpp:91] Creating Layer inception_4b/output
I0417 13:18:22.909814  4530 net.cpp:425] inception_4b/output <- inception_4b/1x1
I0417 13:18:22.909826  4530 net.cpp:425] inception_4b/output <- inception_4b/3x3
I0417 13:18:22.909838  4530 net.cpp:425] inception_4b/output <- inception_4b/5x5
I0417 13:18:22.909849  4530 net.cpp:425] inception_4b/output <- inception_4b/pool_proj
I0417 13:18:22.909864  4530 net.cpp:399] inception_4b/output -> inception_4b/output
I0417 13:18:22.909912  4530 net.cpp:141] Setting up inception_4b/output
I0417 13:18:22.909929  4530 net.cpp:148] Top shape: 64 512 14 14 (6422528)
I0417 13:18:22.909939  4530 net.cpp:156] Memory required for data: 2609955072
I0417 13:18:22.909947  4530 layer_factory.hpp:77] Creating layer inception_4b/output_inception_4b/output_0_split
I0417 13:18:22.909962  4530 net.cpp:91] Creating Layer inception_4b/output_inception_4b/output_0_split
I0417 13:18:22.909972  4530 net.cpp:425] inception_4b/output_inception_4b/output_0_split <- inception_4b/output
I0417 13:18:22.909989  4530 net.cpp:399] inception_4b/output_inception_4b/output_0_split -> inception_4b/output_inception_4b/output_0_split_0
I0417 13:18:22.910009  4530 net.cpp:399] inception_4b/output_inception_4b/output_0_split -> inception_4b/output_inception_4b/output_0_split_1
I0417 13:18:22.910034  4530 net.cpp:399] inception_4b/output_inception_4b/output_0_split -> inception_4b/output_inception_4b/output_0_split_2
I0417 13:18:22.910058  4530 net.cpp:399] inception_4b/output_inception_4b/output_0_split -> inception_4b/output_inception_4b/output_0_split_3
I0417 13:18:22.910157  4530 net.cpp:141] Setting up inception_4b/output_inception_4b/output_0_split
I0417 13:18:22.910174  4530 net.cpp:148] Top shape: 64 512 14 14 (6422528)
I0417 13:18:22.910187  4530 net.cpp:148] Top shape: 64 512 14 14 (6422528)
I0417 13:18:22.910198  4530 net.cpp:148] Top shape: 64 512 14 14 (6422528)
I0417 13:18:22.910209  4530 net.cpp:148] Top shape: 64 512 14 14 (6422528)
I0417 13:18:22.910221  4530 net.cpp:156] Memory required for data: 2712715520
I0417 13:18:22.910231  4530 layer_factory.hpp:77] Creating layer inception_4c/1x1
I0417 13:18:22.910254  4530 net.cpp:91] Creating Layer inception_4c/1x1
I0417 13:18:22.910266  4530 net.cpp:425] inception_4c/1x1 <- inception_4b/output_inception_4b/output_0_split_0
I0417 13:18:22.910282  4530 net.cpp:399] inception_4c/1x1 -> inception_4c/1x1
I0417 13:18:22.911065  4530 net.cpp:141] Setting up inception_4c/1x1
I0417 13:18:22.911092  4530 net.cpp:148] Top shape: 64 128 14 14 (1605632)
I0417 13:18:22.911105  4530 net.cpp:156] Memory required for data: 2719138048
I0417 13:18:22.911123  4530 layer_factory.hpp:77] Creating layer inception_4c/relu_1x1
I0417 13:18:22.911146  4530 net.cpp:91] Creating Layer inception_4c/relu_1x1
I0417 13:18:22.911162  4530 net.cpp:425] inception_4c/relu_1x1 <- inception_4c/1x1
I0417 13:18:22.911185  4530 net.cpp:386] inception_4c/relu_1x1 -> inception_4c/1x1 (in-place)
I0417 13:18:22.911206  4530 net.cpp:141] Setting up inception_4c/relu_1x1
I0417 13:18:22.911222  4530 net.cpp:148] Top shape: 64 128 14 14 (1605632)
I0417 13:18:22.911232  4530 net.cpp:156] Memory required for data: 2725560576
I0417 13:18:22.911242  4530 layer_factory.hpp:77] Creating layer inception_4c/3x3_reduce
I0417 13:18:22.911263  4530 net.cpp:91] Creating Layer inception_4c/3x3_reduce
I0417 13:18:22.911276  4530 net.cpp:425] inception_4c/3x3_reduce <- inception_4b/output_inception_4b/output_0_split_1
I0417 13:18:22.911296  4530 net.cpp:399] inception_4c/3x3_reduce -> inception_4c/3x3_reduce
I0417 13:18:22.912138  4530 net.cpp:141] Setting up inception_4c/3x3_reduce
I0417 13:18:22.912158  4530 net.cpp:148] Top shape: 64 128 14 14 (1605632)
I0417 13:18:22.912169  4530 net.cpp:156] Memory required for data: 2731983104
I0417 13:18:22.912189  4530 layer_factory.hpp:77] Creating layer inception_4c/relu_3x3_reduce
I0417 13:18:22.912212  4530 net.cpp:91] Creating Layer inception_4c/relu_3x3_reduce
I0417 13:18:22.912227  4530 net.cpp:425] inception_4c/relu_3x3_reduce <- inception_4c/3x3_reduce
I0417 13:18:22.912243  4530 net.cpp:386] inception_4c/relu_3x3_reduce -> inception_4c/3x3_reduce (in-place)
I0417 13:18:22.912267  4530 net.cpp:141] Setting up inception_4c/relu_3x3_reduce
I0417 13:18:22.912286  4530 net.cpp:148] Top shape: 64 128 14 14 (1605632)
I0417 13:18:22.912295  4530 net.cpp:156] Memory required for data: 2738405632
I0417 13:18:22.912305  4530 layer_factory.hpp:77] Creating layer inception_4c/3x3
I0417 13:18:22.912328  4530 net.cpp:91] Creating Layer inception_4c/3x3
I0417 13:18:22.912339  4530 net.cpp:425] inception_4c/3x3 <- inception_4c/3x3_reduce
I0417 13:18:22.912358  4530 net.cpp:399] inception_4c/3x3 -> inception_4c/3x3
I0417 13:18:22.915747  4530 net.cpp:141] Setting up inception_4c/3x3
I0417 13:18:22.915817  4530 net.cpp:148] Top shape: 64 256 14 14 (3211264)
I0417 13:18:22.915830  4530 net.cpp:156] Memory required for data: 2751250688
I0417 13:18:22.915858  4530 layer_factory.hpp:77] Creating layer inception_4c/relu_3x3
I0417 13:18:22.915884  4530 net.cpp:91] Creating Layer inception_4c/relu_3x3
I0417 13:18:22.915899  4530 net.cpp:425] inception_4c/relu_3x3 <- inception_4c/3x3
I0417 13:18:22.915925  4530 net.cpp:386] inception_4c/relu_3x3 -> inception_4c/3x3 (in-place)
I0417 13:18:22.915951  4530 net.cpp:141] Setting up inception_4c/relu_3x3
I0417 13:18:22.915966  4530 net.cpp:148] Top shape: 64 256 14 14 (3211264)
I0417 13:18:22.915976  4530 net.cpp:156] Memory required for data: 2764095744
I0417 13:18:22.915985  4530 layer_factory.hpp:77] Creating layer inception_4c/5x5_reduce
I0417 13:18:22.916015  4530 net.cpp:91] Creating Layer inception_4c/5x5_reduce
I0417 13:18:22.916029  4530 net.cpp:425] inception_4c/5x5_reduce <- inception_4b/output_inception_4b/output_0_split_2
I0417 13:18:22.916050  4530 net.cpp:399] inception_4c/5x5_reduce -> inception_4c/5x5_reduce
I0417 13:18:22.916483  4530 net.cpp:141] Setting up inception_4c/5x5_reduce
I0417 13:18:22.916502  4530 net.cpp:148] Top shape: 64 24 14 14 (301056)
I0417 13:18:22.916512  4530 net.cpp:156] Memory required for data: 2765299968
I0417 13:18:22.916527  4530 layer_factory.hpp:77] Creating layer inception_4c/relu_5x5_reduce
I0417 13:18:22.916540  4530 net.cpp:91] Creating Layer inception_4c/relu_5x5_reduce
I0417 13:18:22.916553  4530 net.cpp:425] inception_4c/relu_5x5_reduce <- inception_4c/5x5_reduce
I0417 13:18:22.916570  4530 net.cpp:386] inception_4c/relu_5x5_reduce -> inception_4c/5x5_reduce (in-place)
I0417 13:18:22.916589  4530 net.cpp:141] Setting up inception_4c/relu_5x5_reduce
I0417 13:18:22.916605  4530 net.cpp:148] Top shape: 64 24 14 14 (301056)
I0417 13:18:22.916615  4530 net.cpp:156] Memory required for data: 2766504192
I0417 13:18:22.916625  4530 layer_factory.hpp:77] Creating layer inception_4c/5x5
I0417 13:18:22.916646  4530 net.cpp:91] Creating Layer inception_4c/5x5
I0417 13:18:22.916657  4530 net.cpp:425] inception_4c/5x5 <- inception_4c/5x5_reduce
I0417 13:18:22.916676  4530 net.cpp:399] inception_4c/5x5 -> inception_4c/5x5
I0417 13:18:22.917372  4530 net.cpp:141] Setting up inception_4c/5x5
I0417 13:18:22.917392  4530 net.cpp:148] Top shape: 64 64 14 14 (802816)
I0417 13:18:22.917400  4530 net.cpp:156] Memory required for data: 2769715456
I0417 13:18:22.917417  4530 layer_factory.hpp:77] Creating layer inception_4c/relu_5x5
I0417 13:18:22.917431  4530 net.cpp:91] Creating Layer inception_4c/relu_5x5
I0417 13:18:22.917444  4530 net.cpp:425] inception_4c/relu_5x5 <- inception_4c/5x5
I0417 13:18:22.917459  4530 net.cpp:386] inception_4c/relu_5x5 -> inception_4c/5x5 (in-place)
I0417 13:18:22.917474  4530 net.cpp:141] Setting up inception_4c/relu_5x5
I0417 13:18:22.917486  4530 net.cpp:148] Top shape: 64 64 14 14 (802816)
I0417 13:18:22.917495  4530 net.cpp:156] Memory required for data: 2772926720
I0417 13:18:22.917505  4530 layer_factory.hpp:77] Creating layer inception_4c/pool
I0417 13:18:22.917527  4530 net.cpp:91] Creating Layer inception_4c/pool
I0417 13:18:22.917542  4530 net.cpp:425] inception_4c/pool <- inception_4b/output_inception_4b/output_0_split_3
I0417 13:18:22.917557  4530 net.cpp:399] inception_4c/pool -> inception_4c/pool
I0417 13:18:22.917623  4530 net.cpp:141] Setting up inception_4c/pool
I0417 13:18:22.917640  4530 net.cpp:148] Top shape: 64 512 14 14 (6422528)
I0417 13:18:22.917649  4530 net.cpp:156] Memory required for data: 2798616832
I0417 13:18:22.917659  4530 layer_factory.hpp:77] Creating layer inception_4c/pool_proj
I0417 13:18:22.917682  4530 net.cpp:91] Creating Layer inception_4c/pool_proj
I0417 13:18:22.917696  4530 net.cpp:425] inception_4c/pool_proj <- inception_4c/pool
I0417 13:18:22.917716  4530 net.cpp:399] inception_4c/pool_proj -> inception_4c/pool_proj
I0417 13:18:22.927064  4530 net.cpp:141] Setting up inception_4c/pool_proj
I0417 13:18:22.927083  4530 net.cpp:148] Top shape: 64 64 14 14 (802816)
I0417 13:18:22.927095  4530 net.cpp:156] Memory required for data: 2801828096
I0417 13:18:22.927136  4530 layer_factory.hpp:77] Creating layer inception_4c/relu_pool_proj
I0417 13:18:22.927155  4530 net.cpp:91] Creating Layer inception_4c/relu_pool_proj
I0417 13:18:22.927167  4530 net.cpp:425] inception_4c/relu_pool_proj <- inception_4c/pool_proj
I0417 13:18:22.927181  4530 net.cpp:386] inception_4c/relu_pool_proj -> inception_4c/pool_proj (in-place)
I0417 13:18:22.927201  4530 net.cpp:141] Setting up inception_4c/relu_pool_proj
I0417 13:18:22.927217  4530 net.cpp:148] Top shape: 64 64 14 14 (802816)
I0417 13:18:22.927232  4530 net.cpp:156] Memory required for data: 2805039360
I0417 13:18:22.927242  4530 layer_factory.hpp:77] Creating layer inception_4c/output
I0417 13:18:22.927254  4530 net.cpp:91] Creating Layer inception_4c/output
I0417 13:18:22.927268  4530 net.cpp:425] inception_4c/output <- inception_4c/1x1
I0417 13:18:22.927280  4530 net.cpp:425] inception_4c/output <- inception_4c/3x3
I0417 13:18:22.927296  4530 net.cpp:425] inception_4c/output <- inception_4c/5x5
I0417 13:18:22.927310  4530 net.cpp:425] inception_4c/output <- inception_4c/pool_proj
I0417 13:18:22.927330  4530 net.cpp:399] inception_4c/output -> inception_4c/output
I0417 13:18:22.927376  4530 net.cpp:141] Setting up inception_4c/output
I0417 13:18:22.927394  4530 net.cpp:148] Top shape: 64 512 14 14 (6422528)
I0417 13:18:22.927403  4530 net.cpp:156] Memory required for data: 2830729472
I0417 13:18:22.927413  4530 layer_factory.hpp:77] Creating layer inception_4c/output_inception_4c/output_0_split
I0417 13:18:22.927428  4530 net.cpp:91] Creating Layer inception_4c/output_inception_4c/output_0_split
I0417 13:18:22.927438  4530 net.cpp:425] inception_4c/output_inception_4c/output_0_split <- inception_4c/output
I0417 13:18:22.927459  4530 net.cpp:399] inception_4c/output_inception_4c/output_0_split -> inception_4c/output_inception_4c/output_0_split_0
I0417 13:18:22.927479  4530 net.cpp:399] inception_4c/output_inception_4c/output_0_split -> inception_4c/output_inception_4c/output_0_split_1
I0417 13:18:22.927498  4530 net.cpp:399] inception_4c/output_inception_4c/output_0_split -> inception_4c/output_inception_4c/output_0_split_2
I0417 13:18:22.927520  4530 net.cpp:399] inception_4c/output_inception_4c/output_0_split -> inception_4c/output_inception_4c/output_0_split_3
I0417 13:18:22.927606  4530 net.cpp:141] Setting up inception_4c/output_inception_4c/output_0_split
I0417 13:18:22.927623  4530 net.cpp:148] Top shape: 64 512 14 14 (6422528)
I0417 13:18:22.927636  4530 net.cpp:148] Top shape: 64 512 14 14 (6422528)
I0417 13:18:22.927649  4530 net.cpp:148] Top shape: 64 512 14 14 (6422528)
I0417 13:18:22.927660  4530 net.cpp:148] Top shape: 64 512 14 14 (6422528)
I0417 13:18:22.927670  4530 net.cpp:156] Memory required for data: 2933489920
I0417 13:18:22.927678  4530 layer_factory.hpp:77] Creating layer inception_4d/1x1
I0417 13:18:22.927706  4530 net.cpp:91] Creating Layer inception_4d/1x1
I0417 13:18:22.927721  4530 net.cpp:425] inception_4d/1x1 <- inception_4c/output_inception_4c/output_0_split_0
I0417 13:18:22.927742  4530 net.cpp:399] inception_4d/1x1 -> inception_4d/1x1
I0417 13:18:22.928436  4530 net.cpp:141] Setting up inception_4d/1x1
I0417 13:18:22.928458  4530 net.cpp:148] Top shape: 64 112 14 14 (1404928)
I0417 13:18:22.928467  4530 net.cpp:156] Memory required for data: 2939109632
I0417 13:18:22.928483  4530 layer_factory.hpp:77] Creating layer inception_4d/relu_1x1
I0417 13:18:22.928499  4530 net.cpp:91] Creating Layer inception_4d/relu_1x1
I0417 13:18:22.928513  4530 net.cpp:425] inception_4d/relu_1x1 <- inception_4d/1x1
I0417 13:18:22.928526  4530 net.cpp:386] inception_4d/relu_1x1 -> inception_4d/1x1 (in-place)
I0417 13:18:22.928544  4530 net.cpp:141] Setting up inception_4d/relu_1x1
I0417 13:18:22.928561  4530 net.cpp:148] Top shape: 64 112 14 14 (1404928)
I0417 13:18:22.928573  4530 net.cpp:156] Memory required for data: 2944729344
I0417 13:18:22.928583  4530 layer_factory.hpp:77] Creating layer inception_4d/3x3_reduce
I0417 13:18:22.928608  4530 net.cpp:91] Creating Layer inception_4d/3x3_reduce
I0417 13:18:22.928622  4530 net.cpp:425] inception_4d/3x3_reduce <- inception_4c/output_inception_4c/output_0_split_1
I0417 13:18:22.928642  4530 net.cpp:399] inception_4d/3x3_reduce -> inception_4d/3x3_reduce
I0417 13:18:22.929605  4530 net.cpp:141] Setting up inception_4d/3x3_reduce
I0417 13:18:22.929626  4530 net.cpp:148] Top shape: 64 144 14 14 (1806336)
I0417 13:18:22.929636  4530 net.cpp:156] Memory required for data: 2951954688
I0417 13:18:22.929651  4530 layer_factory.hpp:77] Creating layer inception_4d/relu_3x3_reduce
I0417 13:18:22.929668  4530 net.cpp:91] Creating Layer inception_4d/relu_3x3_reduce
I0417 13:18:22.929682  4530 net.cpp:425] inception_4d/relu_3x3_reduce <- inception_4d/3x3_reduce
I0417 13:18:22.929697  4530 net.cpp:386] inception_4d/relu_3x3_reduce -> inception_4d/3x3_reduce (in-place)
I0417 13:18:22.929715  4530 net.cpp:141] Setting up inception_4d/relu_3x3_reduce
I0417 13:18:22.929733  4530 net.cpp:148] Top shape: 64 144 14 14 (1806336)
I0417 13:18:22.929743  4530 net.cpp:156] Memory required for data: 2959180032
I0417 13:18:22.929751  4530 layer_factory.hpp:77] Creating layer inception_4d/3x3
I0417 13:18:22.929774  4530 net.cpp:91] Creating Layer inception_4d/3x3
I0417 13:18:22.929787  4530 net.cpp:425] inception_4d/3x3 <- inception_4d/3x3_reduce
I0417 13:18:22.929807  4530 net.cpp:399] inception_4d/3x3 -> inception_4d/3x3
I0417 13:18:22.934185  4530 net.cpp:141] Setting up inception_4d/3x3
I0417 13:18:22.934253  4530 net.cpp:148] Top shape: 64 288 14 14 (3612672)
I0417 13:18:22.934263  4530 net.cpp:156] Memory required for data: 2973630720
I0417 13:18:22.934289  4530 layer_factory.hpp:77] Creating layer inception_4d/relu_3x3
I0417 13:18:22.934311  4530 net.cpp:91] Creating Layer inception_4d/relu_3x3
I0417 13:18:22.934334  4530 net.cpp:425] inception_4d/relu_3x3 <- inception_4d/3x3
I0417 13:18:22.934357  4530 net.cpp:386] inception_4d/relu_3x3 -> inception_4d/3x3 (in-place)
I0417 13:18:22.934384  4530 net.cpp:141] Setting up inception_4d/relu_3x3
I0417 13:18:22.934399  4530 net.cpp:148] Top shape: 64 288 14 14 (3612672)
I0417 13:18:22.934409  4530 net.cpp:156] Memory required for data: 2988081408
I0417 13:18:22.934419  4530 layer_factory.hpp:77] Creating layer inception_4d/5x5_reduce
I0417 13:18:22.934444  4530 net.cpp:91] Creating Layer inception_4d/5x5_reduce
I0417 13:18:22.934458  4530 net.cpp:425] inception_4d/5x5_reduce <- inception_4c/output_inception_4c/output_0_split_2
I0417 13:18:22.934478  4530 net.cpp:399] inception_4d/5x5_reduce -> inception_4d/5x5_reduce
I0417 13:18:22.934942  4530 net.cpp:141] Setting up inception_4d/5x5_reduce
I0417 13:18:22.934962  4530 net.cpp:148] Top shape: 64 32 14 14 (401408)
I0417 13:18:22.934972  4530 net.cpp:156] Memory required for data: 2989687040
I0417 13:18:22.934985  4530 layer_factory.hpp:77] Creating layer inception_4d/relu_5x5_reduce
I0417 13:18:22.934999  4530 net.cpp:91] Creating Layer inception_4d/relu_5x5_reduce
I0417 13:18:22.935009  4530 net.cpp:425] inception_4d/relu_5x5_reduce <- inception_4d/5x5_reduce
I0417 13:18:22.935022  4530 net.cpp:386] inception_4d/relu_5x5_reduce -> inception_4d/5x5_reduce (in-place)
I0417 13:18:22.935037  4530 net.cpp:141] Setting up inception_4d/relu_5x5_reduce
I0417 13:18:22.935058  4530 net.cpp:148] Top shape: 64 32 14 14 (401408)
I0417 13:18:22.935070  4530 net.cpp:156] Memory required for data: 2991292672
I0417 13:18:22.935081  4530 layer_factory.hpp:77] Creating layer inception_4d/5x5
I0417 13:18:22.935108  4530 net.cpp:91] Creating Layer inception_4d/5x5
I0417 13:18:22.935122  4530 net.cpp:425] inception_4d/5x5 <- inception_4d/5x5_reduce
I0417 13:18:22.935144  4530 net.cpp:399] inception_4d/5x5 -> inception_4d/5x5
I0417 13:18:22.935971  4530 net.cpp:141] Setting up inception_4d/5x5
I0417 13:18:22.935993  4530 net.cpp:148] Top shape: 64 64 14 14 (802816)
I0417 13:18:22.936003  4530 net.cpp:156] Memory required for data: 2994503936
I0417 13:18:22.936019  4530 layer_factory.hpp:77] Creating layer inception_4d/relu_5x5
I0417 13:18:22.936043  4530 net.cpp:91] Creating Layer inception_4d/relu_5x5
I0417 13:18:22.936056  4530 net.cpp:425] inception_4d/relu_5x5 <- inception_4d/5x5
I0417 13:18:22.936070  4530 net.cpp:386] inception_4d/relu_5x5 -> inception_4d/5x5 (in-place)
I0417 13:18:22.936090  4530 net.cpp:141] Setting up inception_4d/relu_5x5
I0417 13:18:22.936107  4530 net.cpp:148] Top shape: 64 64 14 14 (802816)
I0417 13:18:22.936116  4530 net.cpp:156] Memory required for data: 2997715200
I0417 13:18:22.936127  4530 layer_factory.hpp:77] Creating layer inception_4d/pool
I0417 13:18:22.936144  4530 net.cpp:91] Creating Layer inception_4d/pool
I0417 13:18:22.936158  4530 net.cpp:425] inception_4d/pool <- inception_4c/output_inception_4c/output_0_split_3
I0417 13:18:22.936173  4530 net.cpp:399] inception_4d/pool -> inception_4d/pool
I0417 13:18:22.936242  4530 net.cpp:141] Setting up inception_4d/pool
I0417 13:18:22.936264  4530 net.cpp:148] Top shape: 64 512 14 14 (6422528)
I0417 13:18:22.936275  4530 net.cpp:156] Memory required for data: 3023405312
I0417 13:18:22.936286  4530 layer_factory.hpp:77] Creating layer inception_4d/pool_proj
I0417 13:18:22.936318  4530 net.cpp:91] Creating Layer inception_4d/pool_proj
I0417 13:18:22.936332  4530 net.cpp:425] inception_4d/pool_proj <- inception_4d/pool
I0417 13:18:22.936357  4530 net.cpp:399] inception_4d/pool_proj -> inception_4d/pool_proj
I0417 13:18:22.937052  4530 net.cpp:141] Setting up inception_4d/pool_proj
I0417 13:18:22.937073  4530 net.cpp:148] Top shape: 64 64 14 14 (802816)
I0417 13:18:22.937083  4530 net.cpp:156] Memory required for data: 3026616576
I0417 13:18:22.937098  4530 layer_factory.hpp:77] Creating layer inception_4d/relu_pool_proj
I0417 13:18:22.937119  4530 net.cpp:91] Creating Layer inception_4d/relu_pool_proj
I0417 13:18:22.937134  4530 net.cpp:425] inception_4d/relu_pool_proj <- inception_4d/pool_proj
I0417 13:18:22.937147  4530 net.cpp:386] inception_4d/relu_pool_proj -> inception_4d/pool_proj (in-place)
I0417 13:18:22.937166  4530 net.cpp:141] Setting up inception_4d/relu_pool_proj
I0417 13:18:22.937182  4530 net.cpp:148] Top shape: 64 64 14 14 (802816)
I0417 13:18:22.937192  4530 net.cpp:156] Memory required for data: 3029827840
I0417 13:18:22.937202  4530 layer_factory.hpp:77] Creating layer inception_4d/output
I0417 13:18:22.937216  4530 net.cpp:91] Creating Layer inception_4d/output
I0417 13:18:22.937228  4530 net.cpp:425] inception_4d/output <- inception_4d/1x1
I0417 13:18:22.937242  4530 net.cpp:425] inception_4d/output <- inception_4d/3x3
I0417 13:18:22.937255  4530 net.cpp:425] inception_4d/output <- inception_4d/5x5
I0417 13:18:22.937266  4530 net.cpp:425] inception_4d/output <- inception_4d/pool_proj
I0417 13:18:22.937285  4530 net.cpp:399] inception_4d/output -> inception_4d/output
I0417 13:18:22.937336  4530 net.cpp:141] Setting up inception_4d/output
I0417 13:18:22.937356  4530 net.cpp:148] Top shape: 64 528 14 14 (6623232)
I0417 13:18:22.937367  4530 net.cpp:156] Memory required for data: 3056320768
I0417 13:18:22.937377  4530 layer_factory.hpp:77] Creating layer inception_4d/output_inception_4d/output_0_split
I0417 13:18:22.937404  4530 net.cpp:91] Creating Layer inception_4d/output_inception_4d/output_0_split
I0417 13:18:22.937420  4530 net.cpp:425] inception_4d/output_inception_4d/output_0_split <- inception_4d/output
I0417 13:18:22.937436  4530 net.cpp:399] inception_4d/output_inception_4d/output_0_split -> inception_4d/output_inception_4d/output_0_split_0
I0417 13:18:22.937459  4530 net.cpp:399] inception_4d/output_inception_4d/output_0_split -> inception_4d/output_inception_4d/output_0_split_1
I0417 13:18:22.937479  4530 net.cpp:399] inception_4d/output_inception_4d/output_0_split -> inception_4d/output_inception_4d/output_0_split_2
I0417 13:18:22.937500  4530 net.cpp:399] inception_4d/output_inception_4d/output_0_split -> inception_4d/output_inception_4d/output_0_split_3
I0417 13:18:22.937584  4530 net.cpp:141] Setting up inception_4d/output_inception_4d/output_0_split
I0417 13:18:22.937602  4530 net.cpp:148] Top shape: 64 528 14 14 (6623232)
I0417 13:18:22.937614  4530 net.cpp:148] Top shape: 64 528 14 14 (6623232)
I0417 13:18:22.937626  4530 net.cpp:148] Top shape: 64 528 14 14 (6623232)
I0417 13:18:22.937638  4530 net.cpp:148] Top shape: 64 528 14 14 (6623232)
I0417 13:18:22.937649  4530 net.cpp:156] Memory required for data: 3162292480
I0417 13:18:22.937659  4530 layer_factory.hpp:77] Creating layer inception_4e/1x1
I0417 13:18:22.937681  4530 net.cpp:91] Creating Layer inception_4e/1x1
I0417 13:18:22.937695  4530 net.cpp:425] inception_4e/1x1 <- inception_4d/output_inception_4d/output_0_split_0
I0417 13:18:22.937716  4530 net.cpp:399] inception_4e/1x1 -> inception_4e/1x1
I0417 13:18:22.939725  4530 net.cpp:141] Setting up inception_4e/1x1
I0417 13:18:22.939756  4530 net.cpp:148] Top shape: 64 256 14 14 (3211264)
I0417 13:18:22.939764  4530 net.cpp:156] Memory required for data: 3175137536
I0417 13:18:22.939784  4530 layer_factory.hpp:77] Creating layer inception_4e/relu_1x1
I0417 13:18:22.939803  4530 net.cpp:91] Creating Layer inception_4e/relu_1x1
I0417 13:18:22.939818  4530 net.cpp:425] inception_4e/relu_1x1 <- inception_4e/1x1
I0417 13:18:22.939834  4530 net.cpp:386] inception_4e/relu_1x1 -> inception_4e/1x1 (in-place)
I0417 13:18:22.939854  4530 net.cpp:141] Setting up inception_4e/relu_1x1
I0417 13:18:22.939870  4530 net.cpp:148] Top shape: 64 256 14 14 (3211264)
I0417 13:18:22.939879  4530 net.cpp:156] Memory required for data: 3187982592
I0417 13:18:22.939889  4530 layer_factory.hpp:77] Creating layer inception_4e/3x3_reduce
I0417 13:18:22.939949  4530 net.cpp:91] Creating Layer inception_4e/3x3_reduce
I0417 13:18:22.939963  4530 net.cpp:425] inception_4e/3x3_reduce <- inception_4d/output_inception_4d/output_0_split_1
I0417 13:18:22.939982  4530 net.cpp:399] inception_4e/3x3_reduce -> inception_4e/3x3_reduce
I0417 13:18:22.940982  4530 net.cpp:141] Setting up inception_4e/3x3_reduce
I0417 13:18:22.941004  4530 net.cpp:148] Top shape: 64 160 14 14 (2007040)
I0417 13:18:22.941014  4530 net.cpp:156] Memory required for data: 3196010752
I0417 13:18:22.941030  4530 layer_factory.hpp:77] Creating layer inception_4e/relu_3x3_reduce
I0417 13:18:22.941043  4530 net.cpp:91] Creating Layer inception_4e/relu_3x3_reduce
I0417 13:18:22.941056  4530 net.cpp:425] inception_4e/relu_3x3_reduce <- inception_4e/3x3_reduce
I0417 13:18:22.941071  4530 net.cpp:386] inception_4e/relu_3x3_reduce -> inception_4e/3x3_reduce (in-place)
I0417 13:18:22.941092  4530 net.cpp:141] Setting up inception_4e/relu_3x3_reduce
I0417 13:18:22.941107  4530 net.cpp:148] Top shape: 64 160 14 14 (2007040)
I0417 13:18:22.941117  4530 net.cpp:156] Memory required for data: 3204038912
I0417 13:18:22.941126  4530 layer_factory.hpp:77] Creating layer inception_4e/3x3
I0417 13:18:22.941148  4530 net.cpp:91] Creating Layer inception_4e/3x3
I0417 13:18:22.941159  4530 net.cpp:425] inception_4e/3x3 <- inception_4e/3x3_reduce
I0417 13:18:22.941182  4530 net.cpp:399] inception_4e/3x3 -> inception_4e/3x3
I0417 13:18:22.946038  4530 net.cpp:141] Setting up inception_4e/3x3
I0417 13:18:22.946128  4530 net.cpp:148] Top shape: 64 320 14 14 (4014080)
I0417 13:18:22.946141  4530 net.cpp:156] Memory required for data: 3220095232
I0417 13:18:22.946177  4530 layer_factory.hpp:77] Creating layer inception_4e/relu_3x3
I0417 13:18:22.946210  4530 net.cpp:91] Creating Layer inception_4e/relu_3x3
I0417 13:18:22.946223  4530 net.cpp:425] inception_4e/relu_3x3 <- inception_4e/3x3
I0417 13:18:22.946239  4530 net.cpp:386] inception_4e/relu_3x3 -> inception_4e/3x3 (in-place)
I0417 13:18:22.946259  4530 net.cpp:141] Setting up inception_4e/relu_3x3
I0417 13:18:22.946274  4530 net.cpp:148] Top shape: 64 320 14 14 (4014080)
I0417 13:18:22.946283  4530 net.cpp:156] Memory required for data: 3236151552
I0417 13:18:22.946293  4530 layer_factory.hpp:77] Creating layer inception_4e/5x5_reduce
I0417 13:18:22.946318  4530 net.cpp:91] Creating Layer inception_4e/5x5_reduce
I0417 13:18:22.946331  4530 net.cpp:425] inception_4e/5x5_reduce <- inception_4d/output_inception_4d/output_0_split_2
I0417 13:18:22.946352  4530 net.cpp:399] inception_4e/5x5_reduce -> inception_4e/5x5_reduce
I0417 13:18:22.946797  4530 net.cpp:141] Setting up inception_4e/5x5_reduce
I0417 13:18:22.946816  4530 net.cpp:148] Top shape: 64 32 14 14 (401408)
I0417 13:18:22.946825  4530 net.cpp:156] Memory required for data: 3237757184
I0417 13:18:22.946841  4530 layer_factory.hpp:77] Creating layer inception_4e/relu_5x5_reduce
I0417 13:18:22.946857  4530 net.cpp:91] Creating Layer inception_4e/relu_5x5_reduce
I0417 13:18:22.946871  4530 net.cpp:425] inception_4e/relu_5x5_reduce <- inception_4e/5x5_reduce
I0417 13:18:22.946887  4530 net.cpp:386] inception_4e/relu_5x5_reduce -> inception_4e/5x5_reduce (in-place)
I0417 13:18:22.946904  4530 net.cpp:141] Setting up inception_4e/relu_5x5_reduce
I0417 13:18:22.946920  4530 net.cpp:148] Top shape: 64 32 14 14 (401408)
I0417 13:18:22.946929  4530 net.cpp:156] Memory required for data: 3239362816
I0417 13:18:22.946939  4530 layer_factory.hpp:77] Creating layer inception_4e/5x5
I0417 13:18:22.946962  4530 net.cpp:91] Creating Layer inception_4e/5x5
I0417 13:18:22.946974  4530 net.cpp:425] inception_4e/5x5 <- inception_4e/5x5_reduce
I0417 13:18:22.946993  4530 net.cpp:399] inception_4e/5x5 -> inception_4e/5x5
I0417 13:18:22.948828  4530 net.cpp:141] Setting up inception_4e/5x5
I0417 13:18:22.948905  4530 net.cpp:148] Top shape: 64 128 14 14 (1605632)
I0417 13:18:22.948915  4530 net.cpp:156] Memory required for data: 3245785344
I0417 13:18:22.949007  4530 layer_factory.hpp:77] Creating layer inception_4e/relu_5x5
I0417 13:18:22.949033  4530 net.cpp:91] Creating Layer inception_4e/relu_5x5
I0417 13:18:22.949048  4530 net.cpp:425] inception_4e/relu_5x5 <- inception_4e/5x5
I0417 13:18:22.949064  4530 net.cpp:386] inception_4e/relu_5x5 -> inception_4e/5x5 (in-place)
I0417 13:18:22.949085  4530 net.cpp:141] Setting up inception_4e/relu_5x5
I0417 13:18:22.949101  4530 net.cpp:148] Top shape: 64 128 14 14 (1605632)
I0417 13:18:22.949110  4530 net.cpp:156] Memory required for data: 3252207872
I0417 13:18:22.949120  4530 layer_factory.hpp:77] Creating layer inception_4e/pool
I0417 13:18:22.949138  4530 net.cpp:91] Creating Layer inception_4e/pool
I0417 13:18:22.949152  4530 net.cpp:425] inception_4e/pool <- inception_4d/output_inception_4d/output_0_split_3
I0417 13:18:22.949168  4530 net.cpp:399] inception_4e/pool -> inception_4e/pool
I0417 13:18:22.949237  4530 net.cpp:141] Setting up inception_4e/pool
I0417 13:18:22.949255  4530 net.cpp:148] Top shape: 64 528 14 14 (6623232)
I0417 13:18:22.949265  4530 net.cpp:156] Memory required for data: 3278700800
I0417 13:18:22.949275  4530 layer_factory.hpp:77] Creating layer inception_4e/pool_proj
I0417 13:18:22.949298  4530 net.cpp:91] Creating Layer inception_4e/pool_proj
I0417 13:18:22.949309  4530 net.cpp:425] inception_4e/pool_proj <- inception_4e/pool
I0417 13:18:22.949326  4530 net.cpp:399] inception_4e/pool_proj -> inception_4e/pool_proj
I0417 13:18:22.950148  4530 net.cpp:141] Setting up inception_4e/pool_proj
I0417 13:18:22.950167  4530 net.cpp:148] Top shape: 64 128 14 14 (1605632)
I0417 13:18:22.950177  4530 net.cpp:156] Memory required for data: 3285123328
I0417 13:18:22.950193  4530 layer_factory.hpp:77] Creating layer inception_4e/relu_pool_proj
I0417 13:18:22.950206  4530 net.cpp:91] Creating Layer inception_4e/relu_pool_proj
I0417 13:18:22.950219  4530 net.cpp:425] inception_4e/relu_pool_proj <- inception_4e/pool_proj
I0417 13:18:22.950237  4530 net.cpp:386] inception_4e/relu_pool_proj -> inception_4e/pool_proj (in-place)
I0417 13:18:22.950255  4530 net.cpp:141] Setting up inception_4e/relu_pool_proj
I0417 13:18:22.950271  4530 net.cpp:148] Top shape: 64 128 14 14 (1605632)
I0417 13:18:22.950284  4530 net.cpp:156] Memory required for data: 3291545856
I0417 13:18:22.950294  4530 layer_factory.hpp:77] Creating layer inception_4e/output
I0417 13:18:22.950307  4530 net.cpp:91] Creating Layer inception_4e/output
I0417 13:18:22.950320  4530 net.cpp:425] inception_4e/output <- inception_4e/1x1
I0417 13:18:22.950333  4530 net.cpp:425] inception_4e/output <- inception_4e/3x3
I0417 13:18:22.950346  4530 net.cpp:425] inception_4e/output <- inception_4e/5x5
I0417 13:18:22.950366  4530 net.cpp:425] inception_4e/output <- inception_4e/pool_proj
I0417 13:18:22.950381  4530 net.cpp:399] inception_4e/output -> inception_4e/output
I0417 13:18:22.950434  4530 net.cpp:141] Setting up inception_4e/output
I0417 13:18:22.950455  4530 net.cpp:148] Top shape: 64 832 14 14 (10436608)
I0417 13:18:22.950465  4530 net.cpp:156] Memory required for data: 3333292288
I0417 13:18:22.950477  4530 layer_factory.hpp:77] Creating layer CAM_conv
I0417 13:18:22.950508  4530 net.cpp:91] Creating Layer CAM_conv
I0417 13:18:22.950523  4530 net.cpp:425] CAM_conv <- inception_4e/output
I0417 13:18:22.950543  4530 net.cpp:399] CAM_conv -> CAM_conv
I0417 13:18:23.099182  4530 net.cpp:141] Setting up CAM_conv
I0417 13:18:23.099222  4530 net.cpp:148] Top shape: 64 1024 14 14 (12845056)
I0417 13:18:23.099233  4530 net.cpp:156] Memory required for data: 3384672512
I0417 13:18:23.099256  4530 layer_factory.hpp:77] Creating layer CAM_relu
I0417 13:18:23.099275  4530 net.cpp:91] Creating Layer CAM_relu
I0417 13:18:23.099290  4530 net.cpp:425] CAM_relu <- CAM_conv
I0417 13:18:23.099308  4530 net.cpp:386] CAM_relu -> CAM_conv (in-place)
I0417 13:18:23.099330  4530 net.cpp:141] Setting up CAM_relu
I0417 13:18:23.099347  4530 net.cpp:148] Top shape: 64 1024 14 14 (12845056)
I0417 13:18:23.099361  4530 net.cpp:156] Memory required for data: 3436052736
I0417 13:18:23.099371  4530 layer_factory.hpp:77] Creating layer CAM_pool
I0417 13:18:23.099390  4530 net.cpp:91] Creating Layer CAM_pool
I0417 13:18:23.099403  4530 net.cpp:425] CAM_pool <- CAM_conv
I0417 13:18:23.099418  4530 net.cpp:399] CAM_pool -> CAM_pool
I0417 13:18:23.099472  4530 net.cpp:141] Setting up CAM_pool
I0417 13:18:23.099489  4530 net.cpp:148] Top shape: 64 1024 1 1 (65536)
I0417 13:18:23.099499  4530 net.cpp:156] Memory required for data: 3436314880
I0417 13:18:23.099509  4530 layer_factory.hpp:77] Creating layer CAM_fc
I0417 13:18:23.099526  4530 net.cpp:91] Creating Layer CAM_fc
I0417 13:18:23.099539  4530 net.cpp:425] CAM_fc <- CAM_pool
I0417 13:18:23.099556  4530 net.cpp:399] CAM_fc -> CAM_fc
I0417 13:18:23.108368  4530 net.cpp:141] Setting up CAM_fc
I0417 13:18:23.108394  4530 net.cpp:148] Top shape: 64 1000 (64000)
I0417 13:18:23.108404  4530 net.cpp:156] Memory required for data: 3436570880
I0417 13:18:23.108424  4530 layer_factory.hpp:77] Creating layer loss3/loss3
I0417 13:18:23.108444  4530 net.cpp:91] Creating Layer loss3/loss3
I0417 13:18:23.108460  4530 net.cpp:425] loss3/loss3 <- CAM_fc
I0417 13:18:23.108475  4530 net.cpp:425] loss3/loss3 <- label
I0417 13:18:23.108492  4530 net.cpp:399] loss3/loss3 -> loss3/loss3
…
I0417 13:18:23.112746  4530 net.cpp:313] The NetState phase (1) differed from the phase (0) specified by a rule in layer data
I0417 13:18:23.113590  4530 net.cpp:49] Initializing net from parameters: 
name: "CaffeNet"
state {
  phase: TEST
}
layer {
  name: "data"
  type: "Data"
  top: "data"
  top: "label"
  include {
    phase: TEST
  }
  transform_param {
    mirror: false
    crop_size: 224
    mean_file: "/home/iis/Downloads/caffe-master/data/food_100/food100_mean.binaryproto"
  }
  data_param {
    source: "/home/iis/Downloads/caffe-master/examples/food_100/food100_val_lmdb"
    batch_size: 50
    backend: LMDB
  }
}
layer {
  name: "conv1/7x7_s2"
  type: "Convolution"
  bottom: "data"
  top: "conv1/7x7_s2"
  param {
    lr_mult: 1
    decay_mult: 1
  }
  param {
    lr_mult: 2
    decay_mult: 0
  }
  convolution_param {
    num_output: 64
    pad: 3
    kernel_size: 7
    stride: 2
    weight_filler {
      type: "xavier"
      std: 0.1
    }
    bias_filler {
      type: "constant"
      value: 0.2
    }
  }
}
layer {
  name: "conv1/relu_7x7"
  type: "ReLU"
  bottom: "conv1/7x7_s2"
  top: "conv1/7x7_s2"
}
layer {
  name: "pool1/3x3_s2"
  type: "Pooling"
  bottom: "conv1/7x7_s2"
  top: "pool1/3x3_s2"
  pooling_param {
    pool: MAX
    kernel_size: 3
    stride: 2
  }
}
layer {
  name: "pool1/norm1"
  type: "LRN"
  bottom: "pool1/3x3_s2"
  top: "pool1/norm1"
  lrn_param {
    local_size: 5
    alpha: 0.0001
    beta: 0.75
  }
}
layer {
  name: "conv2/3x3_reduce"
  type: "Convolution"
  bottom: "pool1/norm1"
  top: "conv2/3x3_reduce"
  param {
    lr_mult: 1
    decay_mult: 1
  }
  param {
    lr_mult: 2
    decay_mult: 0
  }
  convolution_param {
    num_output: 64
    kernel_size: 1
    weight_filler {
      type: "xavier"
      std: 0.1
    }
    bias_filler {
      type: "constant"
      value: 0.2
    }
  }
}
layer {
  name: "conv2/relu_3x3_reduce"
  type: "ReLU"
  bottom: "conv2/3x3_reduce"
  top: "conv2/3x3_reduce"
}
layer {
  name: "conv2/3x3"
  type: "Convolution"
  bottom: "conv2/3x3_reduce"
  top: "conv2/3x3"
  param {
    lr_mult: 1
    decay_mult: 1
  }
  param {
    lr_mult: 2
    decay_mult: 0
  }
  convolution_param {
    num_output: 192
    pad: 1
    kernel_size: 3
    weight_filler {
      type: "xavier"
      std: 0.03
    }
    bias_filler {
      type: "constant"
      value: 0.2
    }
  }
}
layer {
  name: "conv2/relu_3x3"
  type: "ReLU"
  bottom: "conv2/3x3"
  top: "conv2/3x3"
}
layer {
  name: "conv2/norm2"
  type: "LRN"
  bottom: "conv2/3x3"
  top: "conv2/norm2"
  lrn_param {
    local_size: 5
    alpha: 0.0001
    beta: 0.75
  }
}
layer {
  name: "pool2/3x3_s2"
  type: "Pooling"
  bottom: "conv2/norm2"
  top: "pool2/3x3_s2"
  pooling_param {
    pool: MAX
    kernel_size: 3
    stride: 2
  }
}
layer {
  name: "inception_3a/1x1"
  type: "Convolution"
  bottom: "pool2/3x3_s2"
  top: "inception_3a/1x1"
  param {
    lr_mult: 1
    decay_mult: 1
  }
  param {
    lr_mult: 2
    decay_mult: 0
  }
  convolution_param {
    num_output: 64
    kernel_size: 1
    weight_filler {
      type: "xavier"
      std: 0.03
    }
    bias_filler {
      type: "constant"
      value: 0.2
    }
  }
}
layer {
  name: "inception_3a/relu_1x1"
  type: "ReLU"
  bottom: "inception_3a/1x1"
  top: "inception_3a/1x1"
}
layer {
  name: "inception_3a/3x3_reduce"
  type: "Convolution"
  bottom: "pool2/3x3_s2"
  top: "inception_3a/3x3_reduce"
  param {
    lr_mult: 1
    decay_mult: 1
  }
  param {
    lr_mult: 2
    decay_mult: 0
  }
  convolution_param {
    num_output: 96
    kernel_size: 1
    weight_filler {
      type: "xavier"
      std: 0.09
    }
    bias_filler {
      type: "constant"
      value: 0.2
    }
  }
}
layer {
  name: "inception_3a/relu_3x3_reduce"
  type: "ReLU"
  bottom: "inception_3a/3x3_reduce"
  top: "inception_3a/3x3_reduce"
}
layer {
  name: "inception_3a/3x3"
  type: "Convolution"
  bottom: "inception_3a/3x3_reduce"
  top: "inception_3a/3x3"
  param {
    lr_mult: 1
    decay_mult: 1
  }
  param {
    lr_mult: 2
    decay_mult: 0
  }
  convolution_param {
    num_output: 128
    pad: 1
    kernel_size: 3
    weight_filler {
      type: "xavier"
      std: 0.03
    }
    bias_filler {
      type: "constant"
      value: 0.2
    }
  }
}
layer {
  name: "inception_3a/relu_3x3"
  type: "ReLU"
  bottom: "inception_3a/3x3"
  top: "inception_3a/3x3"
}
layer {
  name: "inception_3a/5x5_reduce"
  type: "Convolution"
  bottom: "pool2/3x3_s2"
  top: "inception_3a/5x5_reduce"
  param {
    lr_mult: 1
    decay_mult: 1
  }
  param {
    lr_mult: 2
    decay_mult: 0
  }
  convolution_param {
    num_output: 16
    kernel_size: 1
    weight_filler {
      type: "xavier"
      std: 0.2
    }
    bias_filler {
      type: "constant"
      value: 0.2
    }
  }
}
layer {
  name: "inception_3a/relu_5x5_reduce"
  type: "ReLU"
  bottom: "inception_3a/5x5_reduce"
  top: "inception_3a/5x5_reduce"
}
layer {
  name: "inception_3a/5x5"
  type: "Convolution"
  bottom: "inception_3a/5x5_reduce"
  top: "inception_3a/5x5"
  param {
    lr_mult: 1
    decay_mult: 1
  }
  param {
    lr_mult: 2
    decay_mult: 0
  }
  convolution_param {
    num_output: 32
    pad: 2
    kernel_size: 5
    weight_filler {
      type: "xavier"
      std: 0.03
    }
    bias_filler {
      type: "constant"
      value: 0.2
    }
  }
}
layer {
  name: "inception_3a/relu_5x5"
  type: "ReLU"
  bottom: "inception_3a/5x5"
  top: "inception_3a/5x5"
}
layer {
  name: "inception_3a/pool"
  type: "Pooling"
  bottom: "pool2/3x3_s2"
  top: "inception_3a/pool"
  pooling_param {
    pool: MAX
    kernel_size: 3
    stride: 1
    pad: 1
  }
}
layer {
  name: "inception_3a/pool_proj"
  type: "Convolution"
  bottom: "inception_3a/pool"
  top: "inception_3a/pool_proj"
  param {
    lr_mult: 1
    decay_mult: 1
  }
  param {
    lr_mult: 2
    decay_mult: 0
  }
  convolution_param {
    num_output: 32
    kernel_size: 1
    weight_filler {
      type: "xavier"
      std: 0.1
    }
    bias_filler {
      type: "constant"
      value: 0.2
    }
  }
}
layer {
  name: "inception_3a/relu_pool_proj"
  type: "ReLU"
  bottom: "inception_3a/pool_proj"
  top: "inception_3a/pool_proj"
}
layer {
  name: "inception_3a/output"
  type: "Concat"
  bottom: "inception_3a/1x1"
  bottom: "inception_3a/3x3"
  bottom: "inception_3a/5x5"
  bottom: "inception_3a/pool_proj"
  top: "inception_3a/output"
}
layer {
  name: "inception_3b/1x1"
  type: "Convolution"
  bottom: "inception_3a/output"
  top: "inception_3b/1x1"
  param {
    lr_mult: 1
    decay_mult: 1
  }
  param {
    lr_mult: 2
    decay_mult: 0
  }
  convolution_param {
    num_output: 128
    kernel_size: 1
    weight_filler {
      type: "xavier"
      std: 0.03
    }
    bias_filler {
      type: "constant"
      value: 0.2
    }
  }
}
layer {
  name: "inception_3b/relu_1x1"
  type: "ReLU"
  bottom: "inception_3b/1x1"
  top: "inception_3b/1x1"
}
layer {
  name: "inception_3b/3x3_reduce"
  type: "Convolution"
  bottom: "inception_3a/output"
  top: "inception_3b/3x3_reduce"
  param {
    lr_mult: 1
    decay_mult: 1
  }
  param {
    lr_mult: 2
    decay_mult: 0
  }
  convolution_param {
    num_output: 128
    kernel_size: 1
    weight_filler {
      type: "xavier"
      std: 0.09
    }
    bias_filler {
      type: "constant"
      value: 0.2
    }
  }
}
layer {
  name: "inception_3b/relu_3x3_reduce"
  type: "ReLU"
  bottom: "inception_3b/3x3_reduce"
  top: "inception_3b/3x3_reduce"
}
layer {
  name: "inception_3b/3x3"
  type: "Convolution"
  bottom: "inception_3b/3x3_reduce"
  top: "inception_3b/3x3"
  param {
    lr_mult: 1
    decay_mult: 1
  }
  param {
    lr_mult: 2
    decay_mult: 0
  }
  convolution_param {
    num_output: 192
    pad: 1
    kernel_size: 3
    weight_filler {
      type: "xavier"
      std: 0.03
    }
    bias_filler {
      type: "constant"
      value: 0.2
    }
  }
}
layer {
  name: "inception_3b/relu_3x3"
  type: "ReLU"
  bottom: "inception_3b/3x3"
  top: "inception_3b/3x3"
}
layer {
  name: "inception_3b/5x5_reduce"
  type: "Convolution"
  bottom: "inception_3a/output"
  top: "inception_3b/5x5_reduce"
  param {
    lr_mult: 1
    decay_mult: 1
  }
  param {
    lr_mult: 2
    decay_mult: 0
  }
  convolution_param {
    num_output: 32
    kernel_size: 1
    weight_filler {
      type: "xavier"
      std: 0.2
    }
    bias_filler {
      type: "constant"
      value: 0.2
    }
  }
}
layer {
  name: "inception_3b/relu_5x5_reduce"
  type: "ReLU"
  bottom: "inception_3b/5x5_reduce"
  top: "inception_3b/5x5_reduce"
}
layer {
  name: "inception_3b/5x5"
  type: "Convolution"
  bottom: "inception_3b/5x5_reduce"
  top: "inception_3b/5x5"
  param {
    lr_mult: 1
    decay_mult: 1
  }
  param {
    lr_mult: 2
    decay_mult: 0
  }
  convolution_param {
    num_output: 96
    pad: 2
    kernel_size: 5
    weight_filler {
      type: "xavier"
      std: 0.03
    }
    bias_filler {
      type: "constant"
      value: 0.2
    }
  }
}
layer {
  name: "inception_3b/relu_5x5"
  type: "ReLU"
  bottom: "inception_3b/5x5"
  top: "inception_3b/5x5"
}
layer {
  name: "inception_3b/pool"
  type: "Pooling"
  bottom: "inception_3a/output"
  top: "inception_3b/pool"
  pooling_param {
    pool: MAX
    kernel_size: 3
    stride: 1
    pad: 1
  }
}
layer {
  name: "inception_3b/pool_proj"
  type: "Convolution"
  bottom: "inception_3b/pool"
  top: "inception_3b/pool_proj"
  param {
    lr_mult: 1
    decay_mult: 1
  }
  param {
    lr_mult: 2
    decay_mult: 0
  }
  convolution_param {
    num_output: 64
    kernel_size: 1
    weight_filler {
      type: "xavier"
      std: 0.1
    }
    bias_filler {
      type: "constant"
      value: 0.2
    }
  }
}
layer {
  name: "inception_3b/relu_pool_proj"
  type: "ReLU"
  bottom: "inception_3b/pool_proj"
  top: "inception_3b/pool_proj"
}
layer {
  name: "inception_3b/output"
  type: "Concat"
  bottom: "inception_3b/1x1"
  bottom: "inception_3b/3x3"
  bottom: "inception_3b/5x5"
  bottom: "inception_3b/pool_proj"
  top: "inception_3b/output"
}
layer {
  name: "pool3/3x3_s2"
  type: "Pooling"
  bottom: "inception_3b/output"
  top: "pool3/3x3_s2"
  pooling_param {
    pool: MAX
    kernel_size: 3
    stride: 2
  }
}
layer {
  name: "inception_4a/1x1"
  type: "Convolution"
  bottom: "pool3/3x3_s2"
  top: "inception_4a/1x1"
  param {
    lr_mult: 1
    decay_mult: 1
  }
  param {
    lr_mult: 2
    decay_mult: 0
  }
  convolution_param {
    num_output: 192
    kernel_size: 1
    weight_filler {
      type: "xavier"
      std: 0.03
    }
    bias_filler {
      type: "constant"
      value: 0.2
    }
  }
}
layer {
  name: "inception_4a/relu_1x1"
  type: "ReLU"
  bottom: "inception_4a/1x1"
  top: "inception_4a/1x1"
}
layer {
  name: "inception_4a/3x3_reduce"
  type: "Convolution"
  bottom: "pool3/3x3_s2"
  top: "inception_4a/3x3_reduce"
  param {
    lr_mult: 1
    decay_mult: 1
  }
  param {
    lr_mult: 2
    decay_mult: 0
  }
  convolution_param {
    num_output: 96
    kernel_size: 1
    weight_filler {
      type: "xavier"
      std: 0.09
    }
    bias_filler {
      type: "constant"
      value: 0.2
    }
  }
}
layer {
  name: "inception_4a/relu_3x3_reduce"
  type: "ReLU"
  bottom: "inception_4a/3x3_reduce"
  top: "inception_4a/3x3_reduce"
}
layer {
  name: "inception_4a/3x3"
  type: "Convolution"
  bottom: "inception_4a/3x3_reduce"
  top: "inception_4a/3x3"
  param {
    lr_mult: 1
    decay_mult: 1
  }
  param {
    lr_mult: 2
    decay_mult: 0
  }
  convolution_param {
    num_output: 208
    pad: 1
    kernel_size: 3
    weight_filler {
      type: "xavier"
      std: 0.03
    }
    bias_filler {
      type: "constant"
      value: 0.2
    }
  }
}
layer {
  name: "inception_4a/relu_3x3"
  type: "ReLU"
  bottom: "inception_4a/3x3"
  top: "inception_4a/3x3"
}
layer {
  name: "inception_4a/5x5_reduce"
  type: "Convolution"
  bottom: "pool3/3x3_s2"
  top: "inception_4a/5x5_reduce"
  param {
    lr_mult: 1
    decay_mult: 1
  }
  param {
    lr_mult: 2
    decay_mult: 0
  }
  convolution_param {
    num_output: 16
    kernel_size: 1
    weight_filler {
      type: "xavier"
      std: 0.2
    }
    bias_filler {
      type: "constant"
      value: 0.2
    }
  }
}
layer {
  name: "inception_4a/relu_5x5_reduce"
  type: "ReLU"
  bottom: "inception_4a/5x5_reduce"
  top: "inception_4a/5x5_reduce"
}
layer {
  name: "inception_4a/5x5"
  type: "Convolution"
  bottom: "inception_4a/5x5_reduce"
  top: "inception_4a/5x5"
  param {
    lr_mult: 1
    decay_mult: 1
  }
  param {
    lr_mult: 2
    decay_mult: 0
  }
  convolution_param {
    num_output: 48
    pad: 2
    kernel_size: 5
    weight_filler {
      type: "xavier"
      std: 0.03
    }
    bias_filler {
      type: "constant"
      value: 0.2
    }
  }
}
layer {
  name: "inception_4a/relu_5x5"
  type: "ReLU"
  bottom: "inception_4a/5x5"
  top: "inception_4a/5x5"
}
layer {
  name: "inception_4a/pool"
  type: "Pooling"
  bottom: "pool3/3x3_s2"
  top: "inception_4a/pool"
  pooling_param {
    pool: MAX
    kernel_size: 3
    stride: 1
    pad: 1
  }
}
layer {
  name: "inception_4a/pool_proj"
  type: "Convolution"
  bottom: "inception_4a/pool"
  top: "inception_4a/pool_proj"
  param {
    lr_mult: 1
    decay_mult: 1
  }
  param {
    lr_mult: 2
    decay_mult: 0
  }
  convolution_param {
    num_output: 64
    kernel_size: 1
    weight_filler {
      type: "xavier"
      std: 0.1
    }
    bias_filler {
      type: "constant"
      value: 0.2
    }
  }
}
layer {
  name: "inception_4a/relu_pool_proj"
  type: "ReLU"
  bottom: "inception_4a/pool_proj"
  top: "inception_4a/pool_proj"
}
layer {
  name: "inception_4a/output"
  type: "Concat"
  bottom: "inception_4a/1x1"
  bottom: "inception_4a/3x3"
  bottom: "inception_4a/5x5"
  bottom: "inception_4a/pool_proj"
  top: "inception_4a/output"
}
layer {
  name: "inception_4b/1x1"
  type: "Convolution"
  bottom: "inception_4a/output"
  top: "inception_4b/1x1"
  param {
    lr_mult: 1
    decay_mult: 1
  }
  param {
    lr_mult: 2
    decay_mult: 0
  }
  convolution_param {
    num_output: 160
    kernel_size: 1
    weight_filler {
      type: "xavier"
      std: 0.03
    }
    bias_filler {
      type: "constant"
      value: 0.2
    }
  }
}
layer {
  name: "inception_4b/relu_1x1"
  type: "ReLU"
  bottom: "inception_4b/1x1"
  top: "inception_4b/1x1"
}
layer {
  name: "inception_4b/3x3_reduce"
  type: "Convolution"
  bottom: "inception_4a/output"
  top: "inception_4b/3x3_reduce"
  param {
    lr_mult: 1
    decay_mult: 1
  }
  param {
    lr_mult: 2
    decay_mult: 0
  }
  convolution_param {
    num_output: 112
    kernel_size: 1
    weight_filler {
      type: "xavier"
      std: 0.09
    }
    bias_filler {
      type: "constant"
      value: 0.2
    }
  }
}
layer {
  name: "inception_4b/relu_3x3_reduce"
  type: "ReLU"
  bottom: "inception_4b/3x3_reduce"
  top: "inception_4b/3x3_reduce"
}
layer {
  name: "inception_4b/3x3"
  type: "Convolution"
  bottom: "inception_4b/3x3_reduce"
  top: "inception_4b/3x3"
  param {
    lr_mult: 1
    decay_mult: 1
  }
  param {
    lr_mult: 2
    decay_mult: 0
  }
  convolution_param {
    num_output: 224
    pad: 1
    kernel_size: 3
    weight_filler {
      type: "xavier"
      std: 0.03
    }
    bias_filler {
      type: "constant"
      value: 0.2
    }
  }
}
layer {
  name: "inception_4b/relu_3x3"
  type: "ReLU"
  bottom: "inception_4b/3x3"
  top: "inception_4b/3x3"
}
layer {
  name: "inception_4b/5x5_reduce"
  type: "Convolution"
  bottom: "inception_4a/output"
  top: "inception_4b/5x5_reduce"
  param {
    lr_mult: 1
    decay_mult: 1
  }
  param {
    lr_mult: 2
    decay_mult: 0
  }
  convolution_param {
    num_output: 24
    kernel_size: 1
    weight_filler {
      type: "xavier"
      std: 0.2
    }
    bias_filler {
      type: "constant"
      value: 0.2
    }
  }
}
layer {
  name: "inception_4b/relu_5x5_reduce"
  type: "ReLU"
  bottom: "inception_4b/5x5_reduce"
  top: "inception_4b/5x5_reduce"
}
layer {
  name: "inception_4b/5x5"
  type: "Convolution"
  bottom: "inception_4b/5x5_reduce"
  top: "inception_4b/5x5"
  param {
    lr_mult: 1
    decay_mult: 1
  }
  param {
    lr_mult: 2
    decay_mult: 0
  }
  convolution_param {
    num_output: 64
    pad: 2
    kernel_size: 5
    weight_filler {
      type: "xavier"
      std: 0.03
    }
    bias_filler {
      type: "constant"
      value: 0.2
    }
  }
}
layer {
  name: "inception_4b/relu_5x5"
  type: "ReLU"
  bottom: "inception_4b/5x5"
  top: "inception_4b/5x5"
}
layer {
  name: "inception_4b/pool"
  type: "Pooling"
  bottom: "inception_4a/output"
  top: "inception_4b/pool"
  pooling_param {
    pool: MAX
    kernel_size: 3
    stride: 1
    pad: 1
  }
}
layer {
  name: "inception_4b/pool_proj"
  type: "Convolution"
  bottom: "inception_4b/pool"
  top: "inception_4b/pool_proj"
  param {
    lr_mult: 1
    decay_mult: 1
  }
  param {
    lr_mult: 2
    decay_mult: 0
  }
  convolution_param {
    num_output: 64
    kernel_size: 1
    weight_filler {
      type: "xavier"
      std: 0.1
    }
    bias_filler {
      type: "constant"
      value: 0.2
    }
  }
}
layer {
  name: "inception_4b/relu_pool_proj"
  type: "ReLU"
  bottom: "inception_4b/pool_proj"
  top: "inception_4b/pool_proj"
}
layer {
  name: "inception_4b/output"
  type: "Concat"
  bottom: "inception_4b/1x1"
  bottom: "inception_4b/3x3"
  bottom: "inception_4b/5x5"
  bottom: "inception_4b/pool_proj"
  top: "inception_4b/output"
}
layer {
  name: "inception_4c/1x1"
  type: "Convolution"
  bottom: "inception_4b/output"
  top: "inception_4c/1x1"
  param {
    lr_mult: 1
    decay_mult: 1
  }
  param {
    lr_mult: 2
    decay_mult: 0
  }
  convolution_param {
    num_output: 128
    kernel_size: 1
    weight_filler {
      type: "xavier"
      std: 0.03
    }
    bias_filler {
      type: "constant"
      value: 0.2
    }
  }
}
layer {
  name: "inception_4c/relu_1x1"
  type: "ReLU"
  bottom: "inception_4c/1x1"
  top: "inception_4c/1x1"
}
layer {
  name: "inception_4c/3x3_reduce"
  type: "Convolution"
  bottom: "inception_4b/output"
  top: "inception_4c/3x3_reduce"
  param {
    lr_mult: 1
    decay_mult: 1
  }
  param {
    lr_mult: 2
    decay_mult: 0
  }
  convolution_param {
    num_output: 128
    kernel_size: 1
    weight_filler {
      type: "xavier"
      std: 0.09
    }
    bias_filler {
      type: "constant"
      value: 0.2
    }
  }
}
layer {
  name: "inception_4c/relu_3x3_reduce"
  type: "ReLU"
  bottom: "inception_4c/3x3_reduce"
  top: "inception_4c/3x3_reduce"
}
layer {
  name: "inception_4c/3x3"
  type: "Convolution"
  bottom: "inception_4c/3x3_reduce"
  top: "inception_4c/3x3"
  param {
    lr_mult: 1
    decay_mult: 1
  }
  param {
    lr_mult: 2
    decay_mult: 0
  }
  convolution_param {
    num_output: 256
    pad: 1
    kernel_size: 3
    weight_filler {
      type: "xavier"
      std: 0.03
    }
    bias_filler {
      type: "constant"
      value: 0.2
    }
  }
}
layer {
  name: "inception_4c/relu_3x3"
  type: "ReLU"
  bottom: "inception_4c/3x3"
  top: "inception_4c/3x3"
}
layer {
  name: "inception_4c/5x5_reduce"
  type: "Convolution"
  bottom: "inception_4b/output"
  top: "inception_4c/5x5_reduce"
  param {
    lr_mult: 1
    decay_mult: 1
  }
  param {
    lr_mult: 2
    decay_mult: 0
  }
  convolution_param {
    num_output: 24
    kernel_size: 1
    weight_filler {
      type: "xavier"
      std: 0.2
    }
    bias_filler {
      type: "constant"
      value: 0.2
    }
  }
}
layer {
  name: "inception_4c/relu_5x5_reduce"
  type: "ReLU"
  bottom: "inception_4c/5x5_reduce"
  top: "inception_4c/5x5_reduce"
}
layer {
  name: "inception_4c/5x5"
  type: "Convolution"
  bottom: "inception_4c/5x5_reduce"
  top: "inception_4c/5x5"
  param {
    lr_mult: 1
    decay_mult: 1
  }
  param {
    lr_mult: 2
    decay_mult: 0
  }
  convolution_param {
    num_output: 64
    pad: 2
    kernel_size: 5
    weight_filler {
      type: "xavier"
      std: 0.03
    }
    bias_filler {
      type: "constant"
      value: 0.2
    }
  }
}
layer {
  name: "inception_4c/relu_5x5"
  type: "ReLU"
  bottom: "inception_4c/5x5"
  top: "inception_4c/5x5"
}
layer {
  name: "inception_4c/pool"
  type: "Pooling"
  bottom: "inception_4b/output"
  top: "inception_4c/pool"
  pooling_param {
    pool: MAX
    kernel_size: 3
    stride: 1
    pad: 1
  }
}
layer {
  name: "inception_4c/pool_proj"
  type: "Convolution"
  bottom: "inception_4c/pool"
  top: "inception_4c/pool_proj"
  param {
    lr_mult: 1
    decay_mult: 1
  }
  param {
    lr_mult: 2
    decay_mult: 0
  }
  convolution_param {
    num_output: 64
    kernel_size: 1
    weight_filler {
      type: "xavier"
      std: 0.1
    }
    bias_filler {
      type: "constant"
      value: 0.2
    }
  }
}
layer {
  name: "inception_4c/relu_pool_proj"
  type: "ReLU"
  bottom: "inception_4c/pool_proj"
  top: "inception_4c/pool_proj"
}
layer {
  name: "inception_4c/output"
  type: "Concat"
  bottom: "inception_4c/1x1"
  bottom: "inception_4c/3x3"
  bottom: "inception_4c/5x5"
  bottom: "inception_4c/pool_proj"
  top: "inception_4c/output"
}
layer {
  name: "inception_4d/1x1"
  type: "Convolution"
  bottom: "inception_4c/output"
  top: "inception_4d/1x1"
  param {
    lr_mult: 1
    decay_mult: 1
  }
  param {
    lr_mult: 2
    decay_mult: 0
  }
  convolution_param {
    num_output: 112
    kernel_size: 1
    weight_filler {
      type: "xavier"
      std: 0.03
    }
    bias_filler {
      type: "constant"
      value: 0.2
    }
  }
}
layer {
  name: "inception_4d/relu_1x1"
  type: "ReLU"
  bottom: "inception_4d/1x1"
  top: "inception_4d/1x1"
}
layer {
  name: "inception_4d/3x3_reduce"
  type: "Convolution"
  bottom: "inception_4c/output"
  top: "inception_4d/3x3_reduce"
  param {
    lr_mult: 1
    decay_mult: 1
  }
  param {
    lr_mult: 2
    decay_mult: 0
  }
  convolution_param {
    num_output: 144
    kernel_size: 1
    weight_filler {
      type: "xavier"
      std: 0.09
    }
    bias_filler {
      type: "constant"
      value: 0.2
    }
  }
}
layer {
  name: "inception_4d/relu_3x3_reduce"
  type: "ReLU"
  bottom: "inception_4d/3x3_reduce"
  top: "inception_4d/3x3_reduce"
}
layer {
  name: "inception_4d/3x3"
  type: "Convolution"
  bottom: "inception_4d/3x3_reduce"
  top: "inception_4d/3x3"
  param {
    lr_mult: 1
    decay_mult: 1
  }
  param {
    lr_mult: 2
    decay_mult: 0
  }
  convolution_param {
    num_output: 288
    pad: 1
    kernel_size: 3
    weight_filler {
      type: "xavier"
      std: 0.03
    }
    bias_filler {
      type: "constant"
      value: 0.2
    }
  }
}
layer {
  name: "inception_4d/relu_3x3"
  type: "ReLU"
  bottom: "inception_4d/3x3"
  top: "inception_4d/3x3"
}
layer {
  name: "inception_4d/5x5_reduce"
  type: "Convolution"
  bottom: "inception_4c/output"
  top: "inception_4d/5x5_reduce"
  param {
    lr_mult: 1
    decay_mult: 1
  }
  param {
    lr_mult: 2
    decay_mult: 0
  }
  convolution_param {
    num_output: 32
    kernel_size: 1
    weight_filler {
      type: "xavier"
      std: 0.2
    }
    bias_filler {
      type: "constant"
      value: 0.2
    }
  }
}
layer {
  name: "inception_4d/relu_5x5_reduce"
  type: "ReLU"
  bottom: "inception_4d/5x5_reduce"
  top: "inception_4d/5x5_reduce"
}
layer {
  name: "inception_4d/5x5"
  type: "Convolution"
  bottom: "inception_4d/5x5_reduce"
  top: "inception_4d/5x5"
  param {
    lr_mult: 1
    decay_mult: 1
  }
  param {
    lr_mult: 2
    decay_mult: 0
  }
  convolution_param {
    num_output: 64
    pad: 2
    kernel_size: 5
    weight_filler {
      type: "xavier"
      std: 0.03
    }
    bias_filler {
      type: "constant"
      value: 0.2
    }
  }
}
layer {
  name: "inception_4d/relu_5x5"
  type: "ReLU"
  bottom: "inception_4d/5x5"
  top: "inception_4d/5x5"
}
layer {
  name: "inception_4d/pool"
  type: "Pooling"
  bottom: "inception_4c/output"
  top: "inception_4d/pool"
  pooling_param {
    pool: MAX
    kernel_size: 3
    stride: 1
    pad: 1
  }
}
layer {
  name: "inception_4d/pool_proj"
  type: "Convolution"
  bottom: "inception_4d/pool"
  top: "inception_4d/pool_proj"
  param {
    lr_mult: 1
    decay_mult: 1
  }
  param {
    lr_mult: 2
    decay_mult: 0
  }
  convolution_param {
    num_output: 64
    kernel_size: 1
    weight_filler {
      type: "xavier"
      std: 0.1
    }
    bias_filler {
      type: "constant"
      value: 0.2
    }
  }
}
layer {
  name: "inception_4d/relu_pool_proj"
  type: "ReLU"
  bottom: "inception_4d/pool_proj"
  top: "inception_4d/pool_proj"
}
layer {
  name: "inception_4d/output"
  type: "Concat"
  bottom: "inception_4d/1x1"
  bottom: "inception_4d/3x3"
  bottom: "inception_4d/5x5"
  bottom: "inception_4d/pool_proj"
  top: "inception_4d/output"
}
layer {
  name: "inception_4e/1x1"
  type: "Convolution"
  bottom: "inception_4d/output"
  top: "inception_4e/1x1"
  param {
    lr_mult: 1
    decay_mult: 1
  }
  param {
    lr_mult: 2
    decay_mult: 0
  }
  convolution_param {
    num_output: 256
    kernel_size: 1
    weight_filler {
      type: "xavier"
      std: 0.03
    }
    bias_filler {
      type: "constant"
      value: 0.2
    }
  }
}
layer {
  name: "inception_4e/relu_1x1"
  type: "ReLU"
  bottom: "inception_4e/1x1"
  top: "inception_4e/1x1"
}
layer {
  name: "inception_4e/3x3_reduce"
  type: "Convolution"
  bottom: "inception_4d/output"
  top: "inception_4e/3x3_reduce"
  param {
    lr_mult: 1
    decay_mult: 1
  }
  param {
    lr_mult: 2
    decay_mult: 0
  }
  convolution_param {
    num_output: 160
    kernel_size: 1
    weight_filler {
      type: "xavier"
      std: 0.09
    }
    bias_filler {
      type: "constant"
      value: 0.2
    }
  }
}
layer {
  name: "inception_4e/relu_3x3_reduce"
  type: "ReLU"
  bottom: "inception_4e/3x3_reduce"
  top: "inception_4e/3x3_reduce"
}
layer {
  name: "inception_4e/3x3"
  type: "Convolution"
  bottom: "inception_4e/3x3_reduce"
  top: "inception_4e/3x3"
  param {
    lr_mult: 1
    decay_mult: 1
  }
  param {
    lr_mult: 2
    decay_mult: 0
  }
  convolution_param {
    num_output: 320
    pad: 1
    kernel_size: 3
    weight_filler {
      type: "xavier"
      std: 0.03
    }
    bias_filler {
      type: "constant"
      value: 0.2
    }
  }
}
layer {
  name: "inception_4e/relu_3x3"
  type: "ReLU"
  bottom: "inception_4e/3x3"
  top: "inception_4e/3x3"
}
layer {
  name: "inception_4e/5x5_reduce"
  type: "Convolution"
  bottom: "inception_4d/output"
  top: "inception_4e/5x5_reduce"
  param {
    lr_mult: 1
    decay_mult: 1
  }
  param {
    lr_mult: 2
    decay_mult: 0
  }
  convolution_param {
    num_output: 32
    kernel_size: 1
    weight_filler {
      type: "xavier"
      std: 0.2
    }
    bias_filler {
      type: "constant"
      value: 0.2
    }
  }
}
layer {
  name: "inception_4e/relu_5x5_reduce"
  type: "ReLU"
  bottom: "inception_4e/5x5_reduce"
  top: "inception_4e/5x5_reduce"
}
layer {
  name: "inception_4e/5x5"
  type: "Convolution"
  bottom: "inception_4e/5x5_reduce"
  top: "inception_4e/5x5"
  param {
    lr_mult: 1
    decay_mult: 1
  }
  param {
    lr_mult: 2
    decay_mult: 0
  }
  convolution_param {
    num_output: 128
    pad: 2
    kernel_size: 5
    weight_filler {
      type: "xavier"
      std: 0.03
    }
    bias_filler {
      type: "constant"
      value: 0.2
    }
  }
}
layer {
  name: "inception_4e/relu_5x5"
  type: "ReLU"
  bottom: "inception_4e/5x5"
  top: "inception_4e/5x5"
}
layer {
  name: "inception_4e/pool"
  type: "Pooling"
  bottom: "inception_4d/output"
  top: "inception_4e/pool"
  pooling_param {
    pool: MAX
    kernel_size: 3
    stride: 1
    pad: 1
  }
}
layer {
  name: "inception_4e/pool_proj"
  type: "Convolution"
  bottom: "inception_4e/pool"
  top: "inception_4e/pool_proj"
  param {
    lr_mult: 1
    decay_mult: 1
  }
  param {
    lr_mult: 2
    decay_mult: 0
  }
  convolution_param {
    num_output: 128
    kernel_size: 1
    weight_filler {
      type: "xavier"
      std: 0.1
    }
    bias_filler {
      type: "constant"
      value: 0.2
    }
  }
}
layer {
  name: "inception_4e/relu_pool_proj"
  type: "ReLU"
  bottom: "inception_4e/pool_proj"
  top: "inception_4e/pool_proj"
}
layer {
  name: "inception_4e/output"
  type: "Concat"
  bottom: "inception_4e/1x1"
  bottom: "inception_4e/3x3"
  bottom: "inception_4e/5x5"
  bottom: "inception_4e/pool_proj"
  top: "inception_4e/output"
}
layer {
  name: "CAM_conv"
  type: "Convolution"
  bottom: "inception_4e/output"
  top: "CAM_conv"
  param {
    lr_mult: 1
    decay_mult: 1
  }
  param {
    lr_mult: 2
    decay_mult: 0
  }
  convolution_param {
    num_output: 1024
    pad: 1
    kernel_size: 3
    group: 2
    weight_filler {
      type: "gaussian"
      std: 0.01
    }
    bias_filler {
      type: "constant"
      value: 1
    }
  }
}
layer {
  name: "CAM_relu"
  type: "ReLU"
  bottom: "CAM_conv"
  top: "CAM_conv"
}
layer {
  name: "CAM_pool"
  type: "Pooling"
  bottom: "CAM_conv"
  top: "CAM_pool"
  pooling_param {
    pool: AVE
    kernel_size: 14
    stride: 14
  }
}
layer {
  name: "CAM_fc"
  type: "InnerProduct"
  bottom: "CAM_pool"
  top: "CAM_fc"
  param {
    lr_mult: 1
    decay_mult: 1
  }
  param {
    lr_mult: 2
    decay_mult: 0
  }
  inner_product_param {
    num_output: 1000
    weight_filler {
      type: "xavier"
    }
    bias_filler {
      type: "constant"
      value: 0
    }
  }
}
layer {
  name: "loss3/loss3"
  type: "SoftmaxWithLoss"
  bottom: "CAM_fc"
  bottom: "label"
  top: "loss3/loss3"
  loss_weight: 1
}
layer {
  name: "loss3/top-1"
  type: "Accuracy"
  bottom: "CAM_fc"
  bottom: "label"
  top: "loss3/top-1"
  include {
    phase: TEST
  }
}
layer {
  name: "loss3/top-5"
  type: "Accuracy"
  bottom: "CAM_fc"
  bottom: "label"
  top: "loss3/top-5"
  include {
    phase: TEST
  }
  accuracy_param {
    top_k: 5
  }
}
I0417 13:18:23.114382  4530 layer_factory.hpp:77] Creating layer data
I0417 13:18:23.114549  4530 net.cpp:91] Creating Layer data
I0417 13:18:23.114584  4530 net.cpp:399] data -> data
I0417 13:18:23.114606  4530 net.cpp:399] data -> label
I0417 13:18:23.114624  4530 data_transformer.cpp:25] Loading mean file from: /home/iis/Downloads/caffe-master/data/food_100/food100_mean.binaryproto
I0417 13:18:23.115411  4546 db_lmdb.cpp:35] Opened lmdb /home/iis/Downloads/caffe-master/examples/food_100/food100_val_lmdb
I0417 13:18:23.120010  4530 data_layer.cpp:41] output data size: 50,3,224,224
I0417 13:18:23.204737  4530 net.cpp:141] Setting up data
I0417 13:18:23.204794  4530 net.cpp:148] Top shape: 50 3 224 224 (7526400)
I0417 13:18:23.204808  4530 net.cpp:148] Top shape: 50 (50)
I0417 13:18:23.204816  4530 net.cpp:156] Memory required for data: 30105800
I0417 13:18:23.204829  4530 layer_factory.hpp:77] Creating layer label_data_1_split
I0417 13:18:23.204852  4530 net.cpp:91] Creating Layer label_data_1_split
I0417 13:18:23.204867  4530 net.cpp:425] label_data_1_split <- label
I0417 13:18:23.204885  4530 net.cpp:399] label_data_1_split -> label_data_1_split_0
I0417 13:18:23.204911  4530 net.cpp:399] label_data_1_split -> label_data_1_split_1
I0417 13:18:23.204932  4530 net.cpp:399] label_data_1_split -> label_data_1_split_2
I0417 13:18:23.205021  4530 net.cpp:141] Setting up label_data_1_split
I0417 13:18:23.205039  4530 net.cpp:148] Top shape: 50 (50)
I0417 13:18:23.205052  4530 net.cpp:148] Top shape: 50 (50)
I0417 13:18:23.205065  4530 net.cpp:148] Top shape: 50 (50)
I0417 13:18:23.205073  4530 net.cpp:156] Memory required for data: 30106400
I0417 13:18:23.205083  4530 layer_factory.hpp:77] Creating layer conv1/7x7_s2
I0417 13:18:23.205108  4530 net.cpp:91] Creating Layer conv1/7x7_s2
I0417 13:18:23.205121  4530 net.cpp:425] conv1/7x7_s2 <- data
I0417 13:18:23.205137  4530 net.cpp:399] conv1/7x7_s2 -> conv1/7x7_s2
I0417 13:18:23.205524  4530 net.cpp:141] Setting up conv1/7x7_s2
I0417 13:18:23.205543  4530 net.cpp:148] Top shape: 50 64 112 112 (40140800)
I0417 13:18:23.205554  4530 net.cpp:156] Memory required for data: 190669600
I0417 13:18:23.205577  4530 layer_factory.hpp:77] Creating layer conv1/relu_7x7
I0417 13:18:23.205596  4530 net.cpp:91] Creating Layer conv1/relu_7x7
I0417 13:18:23.205607  4530 net.cpp:425] conv1/relu_7x7 <- conv1/7x7_s2
I0417 13:18:23.205621  4530 net.cpp:386] conv1/relu_7x7 -> conv1/7x7_s2 (in-place)
I0417 13:18:23.205646  4530 net.cpp:141] Setting up conv1/relu_7x7
I0417 13:18:23.205662  4530 net.cpp:148] Top shape: 50 64 112 112 (40140800)
I0417 13:18:23.205673  4530 net.cpp:156] Memory required for data: 351232800
I0417 13:18:23.205683  4530 layer_factory.hpp:77] Creating layer pool1/3x3_s2
I0417 13:18:23.205703  4530 net.cpp:91] Creating Layer pool1/3x3_s2
I0417 13:18:23.205714  4530 net.cpp:425] pool1/3x3_s2 <- conv1/7x7_s2
I0417 13:18:23.205727  4530 net.cpp:399] pool1/3x3_s2 -> pool1/3x3_s2
I0417 13:18:23.210435  4530 net.cpp:141] Setting up pool1/3x3_s2
I0417 13:18:23.210465  4530 net.cpp:148] Top shape: 50 64 56 56 (10035200)
I0417 13:18:23.210482  4530 net.cpp:156] Memory required for data: 391373600
I0417 13:18:23.210500  4530 layer_factory.hpp:77] Creating layer pool1/norm1
I0417 13:18:23.210525  4530 net.cpp:91] Creating Layer pool1/norm1
I0417 13:18:23.210544  4530 net.cpp:425] pool1/norm1 <- pool1/3x3_s2
I0417 13:18:23.210567  4530 net.cpp:399] pool1/norm1 -> pool1/norm1
I0417 13:18:23.210652  4530 net.cpp:141] Setting up pool1/norm1
I0417 13:18:23.210675  4530 net.cpp:148] Top shape: 50 64 56 56 (10035200)
I0417 13:18:23.210688  4530 net.cpp:156] Memory required for data: 431514400
I0417 13:18:23.210701  4530 layer_factory.hpp:77] Creating layer conv2/3x3_reduce
I0417 13:18:23.210726  4530 net.cpp:91] Creating Layer conv2/3x3_reduce
I0417 13:18:23.210741  4530 net.cpp:425] conv2/3x3_reduce <- pool1/norm1
I0417 13:18:23.210762  4530 net.cpp:399] conv2/3x3_reduce -> conv2/3x3_reduce
I0417 13:18:23.211184  4530 net.cpp:141] Setting up conv2/3x3_reduce
I0417 13:18:23.211208  4530 net.cpp:148] Top shape: 50 64 56 56 (10035200)
I0417 13:18:23.211222  4530 net.cpp:156] Memory required for data: 471655200
I0417 13:18:23.211248  4530 layer_factory.hpp:77] Creating layer conv2/relu_3x3_reduce
I0417 13:18:23.211277  4530 net.cpp:91] Creating Layer conv2/relu_3x3_reduce
I0417 13:18:23.211307  4530 net.cpp:425] conv2/relu_3x3_reduce <- conv2/3x3_reduce
I0417 13:18:23.211323  4530 net.cpp:386] conv2/relu_3x3_reduce -> conv2/3x3_reduce (in-place)
I0417 13:18:23.211340  4530 net.cpp:141] Setting up conv2/relu_3x3_reduce
I0417 13:18:23.211354  4530 net.cpp:148] Top shape: 50 64 56 56 (10035200)
I0417 13:18:23.211365  4530 net.cpp:156] Memory required for data: 511796000
I0417 13:18:23.211376  4530 layer_factory.hpp:77] Creating layer conv2/3x3
I0417 13:18:23.211412  4530 net.cpp:91] Creating Layer conv2/3x3
I0417 13:18:23.211444  4530 net.cpp:425] conv2/3x3 <- conv2/3x3_reduce
I0417 13:18:23.211462  4530 net.cpp:399] conv2/3x3 -> conv2/3x3
I0417 13:18:23.213399  4530 net.cpp:141] Setting up conv2/3x3
I0417 13:18:23.213438  4530 net.cpp:148] Top shape: 50 192 56 56 (30105600)
I0417 13:18:23.213457  4530 net.cpp:156] Memory required for data: 632218400
I0417 13:18:23.213487  4530 layer_factory.hpp:77] Creating layer conv2/relu_3x3
I0417 13:18:23.213510  4530 net.cpp:91] Creating Layer conv2/relu_3x3
I0417 13:18:23.213524  4530 net.cpp:425] conv2/relu_3x3 <- conv2/3x3
I0417 13:18:23.213539  4530 net.cpp:386] conv2/relu_3x3 -> conv2/3x3 (in-place)
I0417 13:18:23.213554  4530 net.cpp:141] Setting up conv2/relu_3x3
I0417 13:18:23.213572  4530 net.cpp:148] Top shape: 50 192 56 56 (30105600)
I0417 13:18:23.213584  4530 net.cpp:156] Memory required for data: 752640800
I0417 13:18:23.213598  4530 layer_factory.hpp:77] Creating layer conv2/norm2
I0417 13:18:23.213619  4530 net.cpp:91] Creating Layer conv2/norm2
I0417 13:18:23.213634  4530 net.cpp:425] conv2/norm2 <- conv2/3x3
I0417 13:18:23.213652  4530 net.cpp:399] conv2/norm2 -> conv2/norm2
I0417 13:18:23.213740  4530 net.cpp:141] Setting up conv2/norm2
I0417 13:18:23.213762  4530 net.cpp:148] Top shape: 50 192 56 56 (30105600)
I0417 13:18:23.213776  4530 net.cpp:156] Memory required for data: 873063200
I0417 13:18:23.213789  4530 layer_factory.hpp:77] Creating layer pool2/3x3_s2
I0417 13:18:23.213809  4530 net.cpp:91] Creating Layer pool2/3x3_s2
I0417 13:18:23.213825  4530 net.cpp:425] pool2/3x3_s2 <- conv2/norm2
I0417 13:18:23.213845  4530 net.cpp:399] pool2/3x3_s2 -> pool2/3x3_s2
I0417 13:18:23.213922  4530 net.cpp:141] Setting up pool2/3x3_s2
I0417 13:18:23.213938  4530 net.cpp:148] Top shape: 50 192 28 28 (7526400)
I0417 13:18:23.213981  4530 net.cpp:156] Memory required for data: 903168800
I0417 13:18:23.213994  4530 layer_factory.hpp:77] Creating layer pool2/3x3_s2_pool2/3x3_s2_0_split
I0417 13:18:23.214015  4530 net.cpp:91] Creating Layer pool2/3x3_s2_pool2/3x3_s2_0_split
I0417 13:18:23.214030  4530 net.cpp:425] pool2/3x3_s2_pool2/3x3_s2_0_split <- pool2/3x3_s2
I0417 13:18:23.214046  4530 net.cpp:399] pool2/3x3_s2_pool2/3x3_s2_0_split -> pool2/3x3_s2_pool2/3x3_s2_0_split_0
I0417 13:18:23.214066  4530 net.cpp:399] pool2/3x3_s2_pool2/3x3_s2_0_split -> pool2/3x3_s2_pool2/3x3_s2_0_split_1
I0417 13:18:23.214092  4530 net.cpp:399] pool2/3x3_s2_pool2/3x3_s2_0_split -> pool2/3x3_s2_pool2/3x3_s2_0_split_2
I0417 13:18:23.214112  4530 net.cpp:399] pool2/3x3_s2_pool2/3x3_s2_0_split -> pool2/3x3_s2_pool2/3x3_s2_0_split_3
I0417 13:18:23.214205  4530 net.cpp:141] Setting up pool2/3x3_s2_pool2/3x3_s2_0_split
I0417 13:18:23.214222  4530 net.cpp:148] Top shape: 50 192 28 28 (7526400)
I0417 13:18:23.214236  4530 net.cpp:148] Top shape: 50 192 28 28 (7526400)
I0417 13:18:23.214247  4530 net.cpp:148] Top shape: 50 192 28 28 (7526400)
I0417 13:18:23.214258  4530 net.cpp:148] Top shape: 50 192 28 28 (7526400)
I0417 13:18:23.214267  4530 net.cpp:156] Memory required for data: 1023591200
I0417 13:18:23.214274  4530 layer_factory.hpp:77] Creating layer inception_3a/1x1
I0417 13:18:23.214298  4530 net.cpp:91] Creating Layer inception_3a/1x1
I0417 13:18:23.214313  4530 net.cpp:425] inception_3a/1x1 <- pool2/3x3_s2_pool2/3x3_s2_0_split_0
I0417 13:18:23.214422  4530 net.cpp:399] inception_3a/1x1 -> inception_3a/1x1
I0417 13:18:23.214958  4530 net.cpp:141] Setting up inception_3a/1x1
I0417 13:18:23.214984  4530 net.cpp:148] Top shape: 50 64 28 28 (2508800)
I0417 13:18:23.214998  4530 net.cpp:156] Memory required for data: 1033626400
I0417 13:18:23.215018  4530 layer_factory.hpp:77] Creating layer inception_3a/relu_1x1
I0417 13:18:23.215039  4530 net.cpp:91] Creating Layer inception_3a/relu_1x1
I0417 13:18:23.215056  4530 net.cpp:425] inception_3a/relu_1x1 <- inception_3a/1x1
I0417 13:18:23.215080  4530 net.cpp:386] inception_3a/relu_1x1 -> inception_3a/1x1 (in-place)
I0417 13:18:23.215106  4530 net.cpp:141] Setting up inception_3a/relu_1x1
I0417 13:18:23.215128  4530 net.cpp:148] Top shape: 50 64 28 28 (2508800)
I0417 13:18:23.215143  4530 net.cpp:156] Memory required for data: 1043661600
I0417 13:18:23.215157  4530 layer_factory.hpp:77] Creating layer inception_3a/3x3_reduce
I0417 13:18:23.215179  4530 net.cpp:91] Creating Layer inception_3a/3x3_reduce
I0417 13:18:23.215198  4530 net.cpp:425] inception_3a/3x3_reduce <- pool2/3x3_s2_pool2/3x3_s2_0_split_1
I0417 13:18:23.215227  4530 net.cpp:399] inception_3a/3x3_reduce -> inception_3a/3x3_reduce
I0417 13:18:23.215843  4530 net.cpp:141] Setting up inception_3a/3x3_reduce
I0417 13:18:23.215869  4530 net.cpp:148] Top shape: 50 96 28 28 (3763200)
I0417 13:18:23.215883  4530 net.cpp:156] Memory required for data: 1058714400
I0417 13:18:23.215909  4530 layer_factory.hpp:77] Creating layer inception_3a/relu_3x3_reduce
I0417 13:18:23.215941  4530 net.cpp:91] Creating Layer inception_3a/relu_3x3_reduce
I0417 13:18:23.215960  4530 net.cpp:425] inception_3a/relu_3x3_reduce <- inception_3a/3x3_reduce
I0417 13:18:23.215977  4530 net.cpp:386] inception_3a/relu_3x3_reduce -> inception_3a/3x3_reduce (in-place)
I0417 13:18:23.216001  4530 net.cpp:141] Setting up inception_3a/relu_3x3_reduce
I0417 13:18:23.216022  4530 net.cpp:148] Top shape: 50 96 28 28 (3763200)
I0417 13:18:23.216037  4530 net.cpp:156] Memory required for data: 1073767200
I0417 13:18:23.216050  4530 layer_factory.hpp:77] Creating layer inception_3a/3x3
I0417 13:18:23.216078  4530 net.cpp:91] Creating Layer inception_3a/3x3
I0417 13:18:23.216094  4530 net.cpp:425] inception_3a/3x3 <- inception_3a/3x3_reduce
I0417 13:18:23.216126  4530 net.cpp:399] inception_3a/3x3 -> inception_3a/3x3
I0417 13:18:23.217742  4530 net.cpp:141] Setting up inception_3a/3x3
I0417 13:18:23.217768  4530 net.cpp:148] Top shape: 50 128 28 28 (5017600)
I0417 13:18:23.217808  4530 net.cpp:156] Memory required for data: 1093837600
I0417 13:18:23.217834  4530 layer_factory.hpp:77] Creating layer inception_3a/relu_3x3
I0417 13:18:23.217856  4530 net.cpp:91] Creating Layer inception_3a/relu_3x3
I0417 13:18:23.217875  4530 net.cpp:425] inception_3a/relu_3x3 <- inception_3a/3x3
I0417 13:18:23.217895  4530 net.cpp:386] inception_3a/relu_3x3 -> inception_3a/3x3 (in-place)
I0417 13:18:23.217917  4530 net.cpp:141] Setting up inception_3a/relu_3x3
I0417 13:18:23.217938  4530 net.cpp:148] Top shape: 50 128 28 28 (5017600)
I0417 13:18:23.217954  4530 net.cpp:156] Memory required for data: 1113908000
I0417 13:18:23.217968  4530 layer_factory.hpp:77] Creating layer inception_3a/5x5_reduce
I0417 13:18:23.217995  4530 net.cpp:91] Creating Layer inception_3a/5x5_reduce
I0417 13:18:23.218013  4530 net.cpp:425] inception_3a/5x5_reduce <- pool2/3x3_s2_pool2/3x3_s2_0_split_2
I0417 13:18:23.218034  4530 net.cpp:399] inception_3a/5x5_reduce -> inception_3a/5x5_reduce
I0417 13:18:23.218463  4530 net.cpp:141] Setting up inception_3a/5x5_reduce
I0417 13:18:23.218487  4530 net.cpp:148] Top shape: 50 16 28 28 (627200)
I0417 13:18:23.218499  4530 net.cpp:156] Memory required for data: 1116416800
I0417 13:18:23.218520  4530 layer_factory.hpp:77] Creating layer inception_3a/relu_5x5_reduce
I0417 13:18:23.218541  4530 net.cpp:91] Creating Layer inception_3a/relu_5x5_reduce
I0417 13:18:23.218556  4530 net.cpp:425] inception_3a/relu_5x5_reduce <- inception_3a/5x5_reduce
I0417 13:18:23.218574  4530 net.cpp:386] inception_3a/relu_5x5_reduce -> inception_3a/5x5_reduce (in-place)
I0417 13:18:23.218605  4530 net.cpp:141] Setting up inception_3a/relu_5x5_reduce
I0417 13:18:23.218627  4530 net.cpp:148] Top shape: 50 16 28 28 (627200)
I0417 13:18:23.218643  4530 net.cpp:156] Memory required for data: 1118925600
I0417 13:18:23.218657  4530 layer_factory.hpp:77] Creating layer inception_3a/5x5
I0417 13:18:23.218685  4530 net.cpp:91] Creating Layer inception_3a/5x5
I0417 13:18:23.218701  4530 net.cpp:425] inception_3a/5x5 <- inception_3a/5x5_reduce
I0417 13:18:23.218724  4530 net.cpp:399] inception_3a/5x5 -> inception_3a/5x5
I0417 13:18:23.219254  4530 net.cpp:141] Setting up inception_3a/5x5
I0417 13:18:23.219279  4530 net.cpp:148] Top shape: 50 32 28 28 (1254400)
I0417 13:18:23.219290  4530 net.cpp:156] Memory required for data: 1123943200
I0417 13:18:23.219311  4530 layer_factory.hpp:77] Creating layer inception_3a/relu_5x5
I0417 13:18:23.219329  4530 net.cpp:91] Creating Layer inception_3a/relu_5x5
I0417 13:18:23.219386  4530 net.cpp:425] inception_3a/relu_5x5 <- inception_3a/5x5
I0417 13:18:23.219404  4530 net.cpp:386] inception_3a/relu_5x5 -> inception_3a/5x5 (in-place)
I0417 13:18:23.219427  4530 net.cpp:141] Setting up inception_3a/relu_5x5
I0417 13:18:23.219449  4530 net.cpp:148] Top shape: 50 32 28 28 (1254400)
I0417 13:18:23.219465  4530 net.cpp:156] Memory required for data: 1128960800
I0417 13:18:23.219480  4530 layer_factory.hpp:77] Creating layer inception_3a/pool
I0417 13:18:23.219506  4530 net.cpp:91] Creating Layer inception_3a/pool
I0417 13:18:23.219522  4530 net.cpp:425] inception_3a/pool <- pool2/3x3_s2_pool2/3x3_s2_0_split_3
I0417 13:18:23.219542  4530 net.cpp:399] inception_3a/pool -> inception_3a/pool
I0417 13:18:23.219626  4530 net.cpp:141] Setting up inception_3a/pool
I0417 13:18:23.219648  4530 net.cpp:148] Top shape: 50 192 28 28 (7526400)
I0417 13:18:23.219660  4530 net.cpp:156] Memory required for data: 1159066400
I0417 13:18:23.219673  4530 layer_factory.hpp:77] Creating layer inception_3a/pool_proj
I0417 13:18:23.219699  4530 net.cpp:91] Creating Layer inception_3a/pool_proj
I0417 13:18:23.219717  4530 net.cpp:425] inception_3a/pool_proj <- inception_3a/pool
I0417 13:18:23.219738  4530 net.cpp:399] inception_3a/pool_proj -> inception_3a/pool_proj
I0417 13:18:23.220197  4530 net.cpp:141] Setting up inception_3a/pool_proj
…
I0417 13:18:23.229370  4530 net.cpp:425] inception_4a/1x1 <- pool3/3x3_s2_pool3/3x3_s2_0_split_0
I0417 13:18:23.229387  4530 net.cpp:399] inception_4a/1x1 -> inception_4a/1x1
I0417 13:18:23.231053  4530 net.cpp:141] Setting up inception_4a/1x1
I0417 13:18:23.231076  4530 net.cpp:148] Top shape: 50 192 14 14 (1881600)
I0417 13:18:23.231111  4530 net.cpp:156] Memory required for data: 1787520800
I0417 13:18:23.231133  4530 layer_factory.hpp:77] Creating layer inception_4a/relu_1x1
I0417 13:18:23.231170  4530 net.cpp:91] Creating Layer inception_4a/relu_1x1
I0417 13:18:23.231186  4530 net.cpp:425] inception_4a/relu_1x1 <- inception_4a/1x1
I0417 13:18:23.231201  4530 net.cpp:386] inception_4a/relu_1x1 -> inception_4a/1x1 (in-place)
I0417 13:18:23.231221  4530 net.cpp:141] Setting up inception_4a/relu_1x1
I0417 13:18:23.231237  4530 net.cpp:148] Top shape: 50 192 14 14 (1881600)
I0417 13:18:23.231247  4530 net.cpp:156] Memory required for data: 1795047200
I0417 13:18:23.231257  4530 layer_factory.hpp:77] Creating layer inception_4a/3x3_reduce
I0417 13:18:23.231281  4530 net.cpp:91] Creating Layer inception_4a/3x3_reduce
I0417 13:18:23.231295  4530 net.cpp:425] inception_4a/3x3_reduce <- pool3/3x3_s2_pool3/3x3_s2_0_split_1
I0417 13:18:23.231312  4530 net.cpp:399] inception_4a/3x3_reduce -> inception_4a/3x3_reduce
I0417 13:18:23.232040  4530 net.cpp:141] Setting up inception_4a/3x3_reduce
I0417 13:18:23.232065  4530 net.cpp:148] Top shape: 50 96 14 14 (940800)
I0417 13:18:23.232075  4530 net.cpp:156] Memory required for data: 1798810400
I0417 13:18:23.232103  4530 layer_factory.hpp:77] Creating layer inception_4a/relu_3x3_reduce
I0417 13:18:23.232121  4530 net.cpp:91] Creating Layer inception_4a/relu_3x3_reduce
I0417 13:18:23.232136  4530 net.cpp:425] inception_4a/relu_3x3_reduce <- inception_4a/3x3_reduce
I0417 13:18:23.232149  4530 net.cpp:386] inception_4a/relu_3x3_reduce -> inception_4a/3x3_reduce (in-place)
I0417 13:18:23.232167  4530 net.cpp:141] Setting up inception_4a/relu_3x3_reduce
I0417 13:18:23.232182  4530 net.cpp:148] Top shape: 50 96 14 14 (940800)
I0417 13:18:23.232192  4530 net.cpp:156] Memory required for data: 1802573600
I0417 13:18:23.232201  4530 layer_factory.hpp:77] Creating layer inception_4a/3x3
I0417 13:18:23.232223  4530 net.cpp:91] Creating Layer inception_4a/3x3
I0417 13:18:23.232235  4530 net.cpp:425] inception_4a/3x3 <- inception_4a/3x3_reduce
I0417 13:18:23.232251  4530 net.cpp:399] inception_4a/3x3 -> inception_4a/3x3
I0417 13:18:23.234534  4530 net.cpp:141] Setting up inception_4a/3x3
I0417 13:18:23.234565  4530 net.cpp:148] Top shape: 50 208 14 14 (2038400)
I0417 13:18:23.234575  4530 net.cpp:156] Memory required for data: 1810727200
I0417 13:18:23.234593  4530 layer_factory.hpp:77] Creating layer inception_4a/relu_3x3
I0417 13:18:23.234614  4530 net.cpp:91] Creating Layer inception_4a/relu_3x3
I0417 13:18:23.234628  4530 net.cpp:425] inception_4a/relu_3x3 <- inception_4a/3x3
I0417 13:18:23.234668  4530 net.cpp:386] inception_4a/relu_3x3 -> inception_4a/3x3 (in-place)
I0417 13:18:23.234694  4530 net.cpp:141] Setting up inception_4a/relu_3x3
I0417 13:18:23.234709  4530 net.cpp:148] Top shape: 50 208 14 14 (2038400)
I0417 13:18:23.234719  4530 net.cpp:156] Memory required for data: 1818880800
I0417 13:18:23.234729  4530 layer_factory.hpp:77] Creating layer inception_4a/5x5_reduce
I0417 13:18:23.234756  4530 net.cpp:91] Creating Layer inception_4a/5x5_reduce
I0417 13:18:23.234769  4530 net.cpp:425] inception_4a/5x5_reduce <- pool3/3x3_s2_pool3/3x3_s2_0_split_2
I0417 13:18:23.234788  4530 net.cpp:399] inception_4a/5x5_reduce -> inception_4a/5x5_reduce
I0417 13:18:23.235165  4530 net.cpp:141] Setting up inception_4a/5x5_reduce
I0417 13:18:23.235184  4530 net.cpp:148] Top shape: 50 16 14 14 (156800)
I0417 13:18:23.235193  4530 net.cpp:156] Memory required for data: 1819508000
I0417 13:18:23.235209  4530 layer_factory.hpp:77] Creating layer inception_4a/relu_5x5_reduce
I0417 13:18:23.235224  4530 net.cpp:91] Creating Layer inception_4a/relu_5x5_reduce
I0417 13:18:23.235236  4530 net.cpp:425] inception_4a/relu_5x5_reduce <- inception_4a/5x5_reduce
I0417 13:18:23.235250  4530 net.cpp:386] inception_4a/relu_5x5_reduce -> inception_4a/5x5_reduce (in-place)
I0417 13:18:23.235268  4530 net.cpp:141] Setting up inception_4a/relu_5x5_reduce
I0417 13:18:23.235285  4530 net.cpp:148] Top shape: 50 16 14 14 (156800)
I0417 13:18:23.235296  4530 net.cpp:156] Memory required for data: 1820135200
I0417 13:18:23.235306  4530 layer_factory.hpp:77] Creating layer inception_4a/5x5
I0417 13:18:23.235333  4530 net.cpp:91] Creating Layer inception_4a/5x5
I0417 13:18:23.235345  4530 net.cpp:425] inception_4a/5x5 <- inception_4a/5x5_reduce
I0417 13:18:23.235363  4530 net.cpp:399] inception_4a/5x5 -> inception_4a/5x5
I0417 13:18:23.235822  4530 net.cpp:141] Setting up inception_4a/5x5
I0417 13:18:23.235849  4530 net.cpp:148] Top shape: 50 48 14 14 (470400)
I0417 13:18:23.235858  4530 net.cpp:156] Memory required for data: 1822016800
I0417 13:18:23.235875  4530 layer_factory.hpp:77] Creating layer inception_4a/relu_5x5
I0417 13:18:23.235898  4530 net.cpp:91] Creating Layer inception_4a/relu_5x5
I0417 13:18:23.235911  4530 net.cpp:425] inception_4a/relu_5x5 <- inception_4a/5x5
I0417 13:18:23.235926  4530 net.cpp:386] inception_4a/relu_5x5 -> inception_4a/5x5 (in-place)
I0417 13:18:23.235945  4530 net.cpp:141] Setting up inception_4a/relu_5x5
I0417 13:18:23.235961  4530 net.cpp:148] Top shape: 50 48 14 14 (470400)
I0417 13:18:23.235973  4530 net.cpp:156] Memory required for data: 1823898400
I0417 13:18:23.235983  4530 layer_factory.hpp:77] Creating layer inception_4a/pool
I0417 13:18:23.236002  4530 net.cpp:91] Creating Layer inception_4a/pool
I0417 13:18:23.236016  4530 net.cpp:425] inception_4a/pool <- pool3/3x3_s2_pool3/3x3_s2_0_split_3
I0417 13:18:23.236029  4530 net.cpp:399] inception_4a/pool -> inception_4a/pool
I0417 13:18:23.236096  4530 net.cpp:141] Setting up inception_4a/pool
I0417 13:18:23.236114  4530 net.cpp:148] Top shape: 50 480 14 14 (4704000)
I0417 13:18:23.236124  4530 net.cpp:156] Memory required for data: 1842714400
I0417 13:18:23.236132  4530 layer_factory.hpp:77] Creating layer inception_4a/pool_proj
I0417 13:18:23.236153  4530 net.cpp:91] Creating Layer inception_4a/pool_proj
I0417 13:18:23.236167  4530 net.cpp:425] inception_4a/pool_proj <- inception_4a/pool
I0417 13:18:23.236183  4530 net.cpp:399] inception_4a/pool_proj -> inception_4a/pool_proj
I0417 13:18:23.236743  4530 net.cpp:141] Setting up inception_4a/pool_proj
I0417 13:18:23.236773  4530 net.cpp:148] Top shape: 50 64 14 14 (627200)
I0417 13:18:23.236783  4530 net.cpp:156] Memory required for data: 1845223200
I0417 13:18:23.236800  4530 layer_factory.hpp:77] Creating layer inception_4a/relu_pool_proj
I0417 13:18:23.236816  4530 net.cpp:91] Creating Layer inception_4a/relu_pool_proj
I0417 13:18:23.236829  4530 net.cpp:425] inception_4a/relu_pool_proj <- inception_4a/pool_proj
I0417 13:18:23.236846  4530 net.cpp:386] inception_4a/relu_pool_proj -> inception_4a/pool_proj (in-place)
I0417 13:18:23.236865  4530 net.cpp:141] Setting up inception_4a/relu_pool_proj
I0417 13:18:23.236881  4530 net.cpp:148] Top shape: 50 64 14 14 (627200)
I0417 13:18:23.236891  4530 net.cpp:156] Memory required for data: 1847732000
I0417 13:18:23.236901  4530 layer_factory.hpp:77] Creating layer inception_4a/output
I0417 13:18:23.236915  4530 net.cpp:91] Creating Layer inception_4a/output
I0417 13:18:23.236928  4530 net.cpp:425] inception_4a/output <- inception_4a/1x1
I0417 13:18:23.236941  4530 net.cpp:425] inception_4a/output <- inception_4a/3x3
I0417 13:18:23.236955  4530 net.cpp:425] inception_4a/output <- inception_4a/5x5
I0417 13:18:23.236969  4530 net.cpp:425] inception_4a/output <- inception_4a/pool_proj
I0417 13:18:23.236987  4530 net.cpp:399] inception_4a/output -> inception_4a/output
I0417 13:18:23.237037  4530 net.cpp:141] Setting up inception_4a/output
I0417 13:18:23.237053  4530 net.cpp:148] Top shape: 50 512 14 14 (5017600)
I0417 13:18:23.237062  4530 net.cpp:156] Memory required for data: 1867802400
I0417 13:18:23.237072  4530 layer_factory.hpp:77] Creating layer inception_4a/output_inception_4a/output_0_split
I0417 13:18:23.237093  4530 net.cpp:91] Creating Layer inception_4a/output_inception_4a/output_0_split
I0417 13:18:23.237107  4530 net.cpp:425] inception_4a/output_inception_4a/output_0_split <- inception_4a/output
I0417 13:18:23.237121  4530 net.cpp:399] inception_4a/output_inception_4a/output_0_split -> inception_4a/output_inception_4a/output_0_split_0
I0417 13:18:23.237139  4530 net.cpp:399] inception_4a/output_inception_4a/output_0_split -> inception_4a/output_inception_4a/output_0_split_1
I0417 13:18:23.237157  4530 net.cpp:399] inception_4a/output_inception_4a/output_0_split -> inception_4a/output_inception_4a/output_0_split_2
I0417 13:18:23.237180  4530 net.cpp:399] inception_4a/output_inception_4a/output_0_split -> inception_4a/output_inception_4a/output_0_split_3
I0417 13:18:23.237272  4530 net.cpp:141] Setting up inception_4a/output_inception_4a/output_0_split
I0417 13:18:23.237288  4530 net.cpp:148] Top shape: 50 512 14 14 (5017600)
I0417 13:18:23.237300  4530 net.cpp:148] Top shape: 50 512 14 14 (5017600)
I0417 13:18:23.237313  4530 net.cpp:148] Top shape: 50 512 14 14 (5017600)
I0417 13:18:23.237323  4530 net.cpp:148] Top shape: 50 512 14 14 (5017600)
I0417 13:18:23.237332  4530 net.cpp:156] Memory required for data: 1948084000
I0417 13:18:23.237342  4530 layer_factory.hpp:77] Creating layer inception_4b/1x1
I0417 13:18:23.237370  4530 net.cpp:91] Creating Layer inception_4b/1x1
I0417 13:18:23.237382  4530 net.cpp:425] inception_4b/1x1 <- inception_4a/output_inception_4a/output_0_split_0
I0417 13:18:23.237401  4530 net.cpp:399] inception_4b/1x1 -> inception_4b/1x1
I0417 13:18:23.238526  4530 net.cpp:141] Setting up inception_4b/1x1
I0417 13:18:23.238546  4530 net.cpp:148] Top shape: 50 160 14 14 (1568000)
I0417 13:18:23.238556  4530 net.cpp:156] Memory required for data: 1954356000
I0417 13:18:23.238572  4530 layer_factory.hpp:77] Creating layer inception_4b/relu_1x1
I0417 13:18:23.238587  4530 net.cpp:91] Creating Layer inception_4b/relu_1x1
I0417 13:18:23.238600  4530 net.cpp:425] inception_4b/relu_1x1 <- inception_4b/1x1
I0417 13:18:23.238613  4530 net.cpp:386] inception_4b/relu_1x1 -> inception_4b/1x1 (in-place)
I0417 13:18:23.238632  4530 net.cpp:141] Setting up inception_4b/relu_1x1
I0417 13:18:23.238647  4530 net.cpp:148] Top shape: 50 160 14 14 (1568000)
I0417 13:18:23.238657  4530 net.cpp:156] Memory required for data: 1960628000
I0417 13:18:23.238667  4530 layer_factory.hpp:77] Creating layer inception_4b/3x3_reduce
I0417 13:18:23.238688  4530 net.cpp:91] Creating Layer inception_4b/3x3_reduce
I0417 13:18:23.238700  4530 net.cpp:425] inception_4b/3x3_reduce <- inception_4a/output_inception_4a/output_0_split_1
I0417 13:18:23.238719  4530 net.cpp:399] inception_4b/3x3_reduce -> inception_4b/3x3_reduce
I0417 13:18:23.239604  4530 net.cpp:141] Setting up inception_4b/3x3_reduce
I0417 13:18:23.239635  4530 net.cpp:148] Top shape: 50 112 14 14 (1097600)
I0417 13:18:23.239645  4530 net.cpp:156] Memory required for data: 1965018400
I0417 13:18:23.239661  4530 layer_factory.hpp:77] Creating layer inception_4b/relu_3x3_reduce
I0417 13:18:23.239678  4530 net.cpp:91] Creating Layer inception_4b/relu_3x3_reduce
I0417 13:18:23.239692  4530 net.cpp:425] inception_4b/relu_3x3_reduce <- inception_4b/3x3_reduce
I0417 13:18:23.239706  4530 net.cpp:386] inception_4b/relu_3x3_reduce -> inception_4b/3x3_reduce (in-place)
I0417 13:18:23.239725  4530 net.cpp:141] Setting up inception_4b/relu_3x3_reduce
I0417 13:18:23.239740  4530 net.cpp:148] Top shape: 50 112 14 14 (1097600)
I0417 13:18:23.239750  4530 net.cpp:156] Memory required for data: 1969408800
I0417 13:18:23.239760  4530 layer_factory.hpp:77] Creating layer inception_4b/3x3
I0417 13:18:23.239786  4530 net.cpp:91] Creating Layer inception_4b/3x3
I0417 13:18:23.239799  4530 net.cpp:425] inception_4b/3x3 <- inception_4b/3x3_reduce
I0417 13:18:23.239821  4530 net.cpp:399] inception_4b/3x3 -> inception_4b/3x3
I0417 13:18:23.243147  4530 net.cpp:141] Setting up inception_4b/3x3
I0417 13:18:23.243243  4530 net.cpp:148] Top shape: 50 224 14 14 (2195200)
I0417 13:18:23.243253  4530 net.cpp:156] Memory required for data: 1978189600
I0417 13:18:23.243286  4530 layer_factory.hpp:77] Creating layer inception_4b/relu_3x3
I0417 13:18:23.243389  4530 net.cpp:91] Creating Layer inception_4b/relu_3x3
I0417 13:18:23.243414  4530 net.cpp:425] inception_4b/relu_3x3 <- inception_4b/3x3
I0417 13:18:23.243443  4530 net.cpp:386] inception_4b/relu_3x3 -> inception_4b/3x3 (in-place)
I0417 13:18:23.243479  4530 net.cpp:141] Setting up inception_4b/relu_3x3
I0417 13:18:23.243491  4530 net.cpp:148] Top shape: 50 224 14 14 (2195200)
I0417 13:18:23.243502  4530 net.cpp:156] Memory required for data: 1986970400
I0417 13:18:23.243513  4530 layer_factory.hpp:77] Creating layer inception_4b/5x5_reduce
I0417 13:18:23.243551  4530 net.cpp:91] Creating Layer inception_4b/5x5_reduce
I0417 13:18:23.243566  4530 net.cpp:425] inception_4b/5x5_reduce <- inception_4a/output_inception_4a/output_0_split_2
I0417 13:18:23.243795  4530 net.cpp:399] inception_4b/5x5_reduce -> inception_4b/5x5_reduce
I0417 13:18:23.244297  4530 net.cpp:141] Setting up inception_4b/5x5_reduce
I0417 13:18:23.244316  4530 net.cpp:148] Top shape: 50 24 14 14 (235200)
I0417 13:18:23.244325  4530 net.cpp:156] Memory required for data: 1987911200
I0417 13:18:23.244341  4530 layer_factory.hpp:77] Creating layer inception_4b/relu_5x5_reduce
I0417 13:18:23.244367  4530 net.cpp:91] Creating Layer inception_4b/relu_5x5_reduce
I0417 13:18:23.244382  4530 net.cpp:425] inception_4b/relu_5x5_reduce <- inception_4b/5x5_reduce
I0417 13:18:23.244396  4530 net.cpp:386] inception_4b/relu_5x5_reduce -> inception_4b/5x5_reduce (in-place)
I0417 13:18:23.244415  4530 net.cpp:141] Setting up inception_4b/relu_5x5_reduce
I0417 13:18:23.244432  4530 net.cpp:148] Top shape: 50 24 14 14 (235200)
I0417 13:18:23.244443  4530 net.cpp:156] Memory required for data: 1988852000
I0417 13:18:23.244453  4530 layer_factory.hpp:77] Creating layer inception_4b/5x5
I0417 13:18:23.244477  4530 net.cpp:91] Creating Layer inception_4b/5x5
I0417 13:18:23.244489  4530 net.cpp:425] inception_4b/5x5 <- inception_4b/5x5_reduce
I0417 13:18:23.244508  4530 net.cpp:399] inception_4b/5x5 -> inception_4b/5x5
I0417 13:18:23.245307  4530 net.cpp:141] Setting up inception_4b/5x5
I0417 13:18:23.245326  4530 net.cpp:148] Top shape: 50 64 14 14 (627200)
I0417 13:18:23.245337  4530 net.cpp:156] Memory required for data: 1991360800
I0417 13:18:23.245352  4530 layer_factory.hpp:77] Creating layer inception_4b/relu_5x5
I0417 13:18:23.245368  4530 net.cpp:91] Creating Layer inception_4b/relu_5x5
I0417 13:18:23.245380  4530 net.cpp:425] inception_4b/relu_5x5 <- inception_4b/5x5
I0417 13:18:23.245394  4530 net.cpp:386] inception_4b/relu_5x5 -> inception_4b/5x5 (in-place)
I0417 13:18:23.245415  4530 net.cpp:141] Setting up inception_4b/relu_5x5
I0417 13:18:23.245432  4530 net.cpp:148] Top shape: 50 64 14 14 (627200)
I0417 13:18:23.245445  4530 net.cpp:156] Memory required for data: 1993869600
I0417 13:18:23.245455  4530 layer_factory.hpp:77] Creating layer inception_4b/pool
I0417 13:18:23.245479  4530 net.cpp:91] Creating Layer inception_4b/pool
I0417 13:18:23.245492  4530 net.cpp:425] inception_4b/pool <- inception_4a/output_inception_4a/output_0_split_3
I0417 13:18:23.245507  4530 net.cpp:399] inception_4b/pool -> inception_4b/pool
I0417 13:18:23.245575  4530 net.cpp:141] Setting up inception_4b/pool
I0417 13:18:23.245592  4530 net.cpp:148] Top shape: 50 512 14 14 (5017600)
I0417 13:18:23.245601  4530 net.cpp:156] Memory required for data: 2013940000
I0417 13:18:23.245611  4530 layer_factory.hpp:77] Creating layer inception_4b/pool_proj
I0417 13:18:23.245636  4530 net.cpp:91] Creating Layer inception_4b/pool_proj
I0417 13:18:23.245651  4530 net.cpp:425] inception_4b/pool_proj <- inception_4b/pool
I0417 13:18:23.245666  4530 net.cpp:399] inception_4b/pool_proj -> inception_4b/pool_proj
I0417 13:18:23.252789  4530 net.cpp:141] Setting up inception_4b/pool_proj
I0417 13:18:23.252809  4530 net.cpp:148] Top shape: 50 64 14 14 (627200)
I0417 13:18:23.252817  4530 net.cpp:156] Memory required for data: 2016448800
I0417 13:18:23.252833  4530 layer_factory.hpp:77] Creating layer inception_4b/relu_pool_proj
I0417 13:18:23.252851  4530 net.cpp:91] Creating Layer inception_4b/relu_pool_proj
I0417 13:18:23.252863  4530 net.cpp:425] inception_4b/relu_pool_proj <- inception_4b/pool_proj
I0417 13:18:23.252877  4530 net.cpp:386] inception_4b/relu_pool_proj -> inception_4b/pool_proj (in-place)
I0417 13:18:23.252897  4530 net.cpp:141] Setting up inception_4b/relu_pool_proj
I0417 13:18:23.252910  4530 net.cpp:148] Top shape: 50 64 14 14 (627200)
I0417 13:18:23.252920  4530 net.cpp:156] Memory required for data: 2018957600
I0417 13:18:23.252930  4530 layer_factory.hpp:77] Creating layer inception_4b/output
I0417 13:18:23.252943  4530 net.cpp:91] Creating Layer inception_4b/output
I0417 13:18:23.252956  4530 net.cpp:425] inception_4b/output <- inception_4b/1x1
I0417 13:18:23.252969  4530 net.cpp:425] inception_4b/output <- inception_4b/3x3
I0417 13:18:23.252985  4530 net.cpp:425] inception_4b/output <- inception_4b/5x5
I0417 13:18:23.253001  4530 net.cpp:425] inception_4b/output <- inception_4b/pool_proj
I0417 13:18:23.253020  4530 net.cpp:399] inception_4b/output -> inception_4b/output
I0417 13:18:23.253068  4530 net.cpp:141] Setting up inception_4b/output
I0417 13:18:23.253085  4530 net.cpp:148] Top shape: 50 512 14 14 (5017600)
I0417 13:18:23.253095  4530 net.cpp:156] Memory required for data: 2039028000
I0417 13:18:23.253104  4530 layer_factory.hpp:77] Creating layer inception_4b/output_inception_4b/output_0_split
I0417 13:18:23.253121  4530 net.cpp:91] Creating Layer inception_4b/output_inception_4b/output_0_split
I0417 13:18:23.253134  4530 net.cpp:425] inception_4b/output_inception_4b/output_0_split <- inception_4b/output
I0417 13:18:23.253149  4530 net.cpp:399] inception_4b/output_inception_4b/output_0_split -> inception_4b/output_inception_4b/output_0_split_0
I0417 13:18:23.253168  4530 net.cpp:399] inception_4b/output_inception_4b/output_0_split -> inception_4b/output_inception_4b/output_0_split_1
I0417 13:18:23.253190  4530 net.cpp:399] inception_4b/output_inception_4b/output_0_split -> inception_4b/output_inception_4b/output_0_split_2
I0417 13:18:23.253211  4530 net.cpp:399] inception_4b/output_inception_4b/output_0_split -> inception_4b/output_inception_4b/output_0_split_3
I0417 13:18:23.253320  4530 net.cpp:141] Setting up inception_4b/output_inception_4b/output_0_split
I0417 13:18:23.253340  4530 net.cpp:148] Top shape: 50 512 14 14 (5017600)
I0417 13:18:23.253351  4530 net.cpp:148] Top shape: 50 512 14 14 (5017600)
I0417 13:18:23.253363  4530 net.cpp:148] Top shape: 50 512 14 14 (5017600)
I0417 13:18:23.253377  4530 net.cpp:148] Top shape: 50 512 14 14 (5017600)
I0417 13:18:23.253388  4530 net.cpp:156] Memory required for data: 2119309600
I0417 13:18:23.253399  4530 layer_factory.hpp:77] Creating layer inception_4c/1x1
I0417 13:18:23.253425  4530 net.cpp:91] Creating Layer inception_4c/1x1
I0417 13:18:23.253439  4530 net.cpp:425] inception_4c/1x1 <- inception_4b/output_inception_4b/output_0_split_0
I0417 13:18:23.253459  4530 net.cpp:399] inception_4c/1x1 -> inception_4c/1x1
I0417 13:18:23.254232  4530 net.cpp:141] Setting up inception_4c/1x1
I0417 13:18:23.254252  4530 net.cpp:148] Top shape: 50 128 14 14 (1254400)
I0417 13:18:23.254261  4530 net.cpp:156] Memory required for data: 2124327200
I0417 13:18:23.254277  4530 layer_factory.hpp:77] Creating layer inception_4c/relu_1x1
I0417 13:18:23.254292  4530 net.cpp:91] Creating Layer inception_4c/relu_1x1
I0417 13:18:23.254303  4530 net.cpp:425] inception_4c/relu_1x1 <- inception_4c/1x1
I0417 13:18:23.254320  4530 net.cpp:386] inception_4c/relu_1x1 -> inception_4c/1x1 (in-place)
I0417 13:18:23.254338  4530 net.cpp:141] Setting up inception_4c/relu_1x1
I0417 13:18:23.254354  4530 net.cpp:148] Top shape: 50 128 14 14 (1254400)
I0417 13:18:23.254366  4530 net.cpp:156] Memory required for data: 2129344800
I0417 13:18:23.254377  4530 layer_factory.hpp:77] Creating layer inception_4c/3x3_reduce
I0417 13:18:23.254400  4530 net.cpp:91] Creating Layer inception_4c/3x3_reduce
I0417 13:18:23.254411  4530 net.cpp:425] inception_4c/3x3_reduce <- inception_4b/output_inception_4b/output_0_split_1
I0417 13:18:23.254427  4530 net.cpp:399] inception_4c/3x3_reduce -> inception_4c/3x3_reduce
I0417 13:18:23.255234  4530 net.cpp:141] Setting up inception_4c/3x3_reduce
I0417 13:18:23.255255  4530 net.cpp:148] Top shape: 50 128 14 14 (1254400)
I0417 13:18:23.255264  4530 net.cpp:156] Memory required for data: 2134362400
I0417 13:18:23.255280  4530 layer_factory.hpp:77] Creating layer inception_4c/relu_3x3_reduce
I0417 13:18:23.255297  4530 net.cpp:91] Creating Layer inception_4c/relu_3x3_reduce
I0417 13:18:23.255308  4530 net.cpp:425] inception_4c/relu_3x3_reduce <- inception_4c/3x3_reduce
I0417 13:18:23.255326  4530 net.cpp:386] inception_4c/relu_3x3_reduce -> inception_4c/3x3_reduce (in-place)
I0417 13:18:23.255344  4530 net.cpp:141] Setting up inception_4c/relu_3x3_reduce
I0417 13:18:23.255360  4530 net.cpp:148] Top shape: 50 128 14 14 (1254400)
I0417 13:18:23.255369  4530 net.cpp:156] Memory required for data: 2139380000
I0417 13:18:23.255379  4530 layer_factory.hpp:77] Creating layer inception_4c/3x3
I0417 13:18:23.255398  4530 net.cpp:91] Creating Layer inception_4c/3x3
I0417 13:18:23.255409  4530 net.cpp:425] inception_4c/3x3 <- inception_4c/3x3_reduce
I0417 13:18:23.255429  4530 net.cpp:399] inception_4c/3x3 -> inception_4c/3x3
I0417 13:18:23.258683  4530 net.cpp:141] Setting up inception_4c/3x3
I0417 13:18:23.258728  4530 net.cpp:148] Top shape: 50 256 14 14 (2508800)
I0417 13:18:23.258738  4530 net.cpp:156] Memory required for data: 2149415200
I0417 13:18:23.258759  4530 layer_factory.hpp:77] Creating layer inception_4c/relu_3x3
I0417 13:18:23.258780  4530 net.cpp:91] Creating Layer inception_4c/relu_3x3
I0417 13:18:23.258800  4530 net.cpp:425] inception_4c/relu_3x3 <- inception_4c/3x3
I0417 13:18:23.258818  4530 net.cpp:386] inception_4c/relu_3x3 -> inception_4c/3x3 (in-place)
I0417 13:18:23.258841  4530 net.cpp:141] Setting up inception_4c/relu_3x3
I0417 13:18:23.258855  4530 net.cpp:148] Top shape: 50 256 14 14 (2508800)
I0417 13:18:23.258865  4530 net.cpp:156] Memory required for data: 2159450400
I0417 13:18:23.258875  4530 layer_factory.hpp:77] Creating layer inception_4c/5x5_reduce
I0417 13:18:23.258899  4530 net.cpp:91] Creating Layer inception_4c/5x5_reduce
I0417 13:18:23.258911  4530 net.cpp:425] inception_4c/5x5_reduce <- inception_4b/output_inception_4b/output_0_split_2
I0417 13:18:23.258930  4530 net.cpp:399] inception_4c/5x5_reduce -> inception_4c/5x5_reduce
I0417 13:18:23.259390  4530 net.cpp:141] Setting up inception_4c/5x5_reduce
I0417 13:18:23.259409  4530 net.cpp:148] Top shape: 50 24 14 14 (235200)
I0417 13:18:23.259418  4530 net.cpp:156] Memory required for data: 2160391200
I0417 13:18:23.259434  4530 layer_factory.hpp:77] Creating layer inception_4c/relu_5x5_reduce
I0417 13:18:23.259448  4530 net.cpp:91] Creating Layer inception_4c/relu_5x5_reduce
I0417 13:18:23.259460  4530 net.cpp:425] inception_4c/relu_5x5_reduce <- inception_4c/5x5_reduce
I0417 13:18:23.259474  4530 net.cpp:386] inception_4c/relu_5x5_reduce -> inception_4c/5x5_reduce (in-place)
I0417 13:18:23.259491  4530 net.cpp:141] Setting up inception_4c/relu_5x5_reduce
I0417 13:18:23.259507  4530 net.cpp:148] Top shape: 50 24 14 14 (235200)
I0417 13:18:23.259519  4530 net.cpp:156] Memory required for data: 2161332000
I0417 13:18:23.259594  4530 layer_factory.hpp:77] Creating layer inception_4c/5x5
I0417 13:18:23.259620  4530 net.cpp:91] Creating Layer inception_4c/5x5
I0417 13:18:23.259639  4530 net.cpp:425] inception_4c/5x5 <- inception_4c/5x5_reduce
I0417 13:18:23.259663  4530 net.cpp:399] inception_4c/5x5 -> inception_4c/5x5
I0417 13:18:23.260347  4530 net.cpp:141] Setting up inception_4c/5x5
I0417 13:18:23.260367  4530 net.cpp:148] Top shape: 50 64 14 14 (627200)
I0417 13:18:23.260376  4530 net.cpp:156] Memory required for data: 2163840800
I0417 13:18:23.260393  4530 layer_factory.hpp:77] Creating layer inception_4c/relu_5x5
I0417 13:18:23.260407  4530 net.cpp:91] Creating Layer inception_4c/relu_5x5
I0417 13:18:23.260419  4530 net.cpp:425] inception_4c/relu_5x5 <- inception_4c/5x5
I0417 13:18:23.260438  4530 net.cpp:386] inception_4c/relu_5x5 -> inception_4c/5x5 (in-place)
I0417 13:18:23.260457  4530 net.cpp:141] Setting up inception_4c/relu_5x5
I0417 13:18:23.260473  4530 net.cpp:148] Top shape: 50 64 14 14 (627200)
I0417 13:18:23.260483  4530 net.cpp:156] Memory required for data: 2166349600
I0417 13:18:23.260491  4530 layer_factory.hpp:77] Creating layer inception_4c/pool
I0417 13:18:23.260507  4530 net.cpp:91] Creating Layer inception_4c/pool
I0417 13:18:23.260517  4530 net.cpp:425] inception_4c/pool <- inception_4b/output_inception_4b/output_0_split_3
I0417 13:18:23.260535  4530 net.cpp:399] inception_4c/pool -> inception_4c/pool
I0417 13:18:23.260602  4530 net.cpp:141] Setting up inception_4c/pool
I0417 13:18:23.260622  4530 net.cpp:148] Top shape: 50 512 14 14 (5017600)
I0417 13:18:23.260632  4530 net.cpp:156] Memory required for data: 2186420000
I0417 13:18:23.260641  4530 layer_factory.hpp:77] Creating layer inception_4c/pool_proj
I0417 13:18:23.260660  4530 net.cpp:91] Creating Layer inception_4c/pool_proj
I0417 13:18:23.260673  4530 net.cpp:425] inception_4c/pool_proj <- inception_4c/pool
I0417 13:18:23.260692  4530 net.cpp:399] inception_4c/pool_proj -> inception_4c/pool_proj
I0417 13:18:23.261309  4530 net.cpp:141] Setting up inception_4c/pool_proj
I0417 13:18:23.261329  4530 net.cpp:148] Top shape: 50 64 14 14 (627200)
I0417 13:18:23.261339  4530 net.cpp:156] Memory required for data: 2188928800
I0417 13:18:23.261379  4530 layer_factory.hpp:77] Creating layer inception_4c/relu_pool_proj
I0417 13:18:23.261394  4530 net.cpp:91] Creating Layer inception_4c/relu_pool_proj
I0417 13:18:23.261406  4530 net.cpp:425] inception_4c/relu_pool_proj <- inception_4c/pool_proj
I0417 13:18:23.261422  4530 net.cpp:386] inception_4c/relu_pool_proj -> inception_4c/pool_proj (in-place)
I0417 13:18:23.261441  4530 net.cpp:141] Setting up inception_4c/relu_pool_proj
I0417 13:18:23.261457  4530 net.cpp:148] Top shape: 50 64 14 14 (627200)
I0417 13:18:23.261469  4530 net.cpp:156] Memory required for data: 2191437600
I0417 13:18:23.261481  4530 layer_factory.hpp:77] Creating layer inception_4c/output
I0417 13:18:23.261497  4530 net.cpp:91] Creating Layer inception_4c/output
I0417 13:18:23.261510  4530 net.cpp:425] inception_4c/output <- inception_4c/1x1
I0417 13:18:23.261523  4530 net.cpp:425] inception_4c/output <- inception_4c/3x3
I0417 13:18:23.261538  4530 net.cpp:425] inception_4c/output <- inception_4c/5x5
I0417 13:18:23.261551  4530 net.cpp:425] inception_4c/output <- inception_4c/pool_proj
I0417 13:18:23.261566  4530 net.cpp:399] inception_4c/output -> inception_4c/output
I0417 13:18:23.261620  4530 net.cpp:141] Setting up inception_4c/output
I0417 13:18:23.261636  4530 net.cpp:148] Top shape: 50 512 14 14 (5017600)
I0417 13:18:23.261646  4530 net.cpp:156] Memory required for data: 2211508000
I0417 13:18:23.261656  4530 layer_factory.hpp:77] Creating layer inception_4c/output_inception_4c/output_0_split
I0417 13:18:23.261670  4530 net.cpp:91] Creating Layer inception_4c/output_inception_4c/output_0_split
I0417 13:18:23.261680  4530 net.cpp:425] inception_4c/output_inception_4c/output_0_split <- inception_4c/output
I0417 13:18:23.261699  4530 net.cpp:399] inception_4c/output_inception_4c/output_0_split -> inception_4c/output_inception_4c/output_0_split_0
I0417 13:18:23.261718  4530 net.cpp:399] inception_4c/output_inception_4c/output_0_split -> inception_4c/output_inception_4c/output_0_split_1
I0417 13:18:23.261737  4530 net.cpp:399] inception_4c/output_inception_4c/output_0_split -> inception_4c/output_inception_4c/output_0_split_2
I0417 13:18:23.261756  4530 net.cpp:399] inception_4c/output_inception_4c/output_0_split -> inception_4c/output_inception_4c/output_0_split_3
I0417 13:18:23.261850  4530 net.cpp:141] Setting up inception_4c/output_inception_4c/output_0_split
I0417 13:18:23.261868  4530 net.cpp:148] Top shape: 50 512 14 14 (5017600)
I0417 13:18:23.261880  4530 net.cpp:148] Top shape: 50 512 14 14 (5017600)
I0417 13:18:23.261891  4530 net.cpp:148] Top shape: 50 512 14 14 (5017600)
I0417 13:18:23.261904  4530 net.cpp:148] Top shape: 50 512 14 14 (5017600)
I0417 13:18:23.261911  4530 net.cpp:156] Memory required for data: 2291789600
I0417 13:18:23.261921  4530 layer_factory.hpp:77] Creating layer inception_4d/1x1
I0417 13:18:23.261945  4530 net.cpp:91] Creating Layer inception_4d/1x1
I0417 13:18:23.261958  4530 net.cpp:425] inception_4d/1x1 <- inception_4c/output_inception_4c/output_0_split_0
I0417 13:18:23.261975  4530 net.cpp:399] inception_4d/1x1 -> inception_4d/1x1
I0417 13:18:23.263447  4530 net.cpp:141] Setting up inception_4d/1x1
I0417 13:18:23.263478  4530 net.cpp:148] Top shape: 50 112 14 14 (1097600)
I0417 13:18:23.263487  4530 net.cpp:156] Memory required for data: 2296180000
I0417 13:18:23.263504  4530 layer_factory.hpp:77] Creating layer inception_4d/relu_1x1
I0417 13:18:23.263520  4530 net.cpp:91] Creating Layer inception_4d/relu_1x1
I0417 13:18:23.263533  4530 net.cpp:425] inception_4d/relu_1x1 <- inception_4d/1x1
I0417 13:18:23.263548  4530 net.cpp:386] inception_4d/relu_1x1 -> inception_4d/1x1 (in-place)
I0417 13:18:23.263569  4530 net.cpp:141] Setting up inception_4d/relu_1x1
I0417 13:18:23.263586  4530 net.cpp:148] Top shape: 50 112 14 14 (1097600)
I0417 13:18:23.263594  4530 net.cpp:156] Memory required for data: 2300570400
I0417 13:18:23.263605  4530 layer_factory.hpp:77] Creating layer inception_4d/3x3_reduce
I0417 13:18:23.263629  4530 net.cpp:91] Creating Layer inception_4d/3x3_reduce
I0417 13:18:23.263644  4530 net.cpp:425] inception_4d/3x3_reduce <- inception_4c/output_inception_4c/output_0_split_1
I0417 13:18:23.263660  4530 net.cpp:399] inception_4d/3x3_reduce -> inception_4d/3x3_reduce
I0417 13:18:23.264685  4530 net.cpp:141] Setting up inception_4d/3x3_reduce
I0417 13:18:23.264705  4530 net.cpp:148] Top shape: 50 144 14 14 (1411200)
I0417 13:18:23.264715  4530 net.cpp:156] Memory required for data: 2306215200
I0417 13:18:23.264731  4530 layer_factory.hpp:77] Creating layer inception_4d/relu_3x3_reduce
I0417 13:18:23.264792  4530 net.cpp:91] Creating Layer inception_4d/relu_3x3_reduce
I0417 13:18:23.264804  4530 net.cpp:425] inception_4d/relu_3x3_reduce <- inception_4d/3x3_reduce
I0417 13:18:23.264825  4530 net.cpp:386] inception_4d/relu_3x3_reduce -> inception_4d/3x3_reduce (in-place)
I0417 13:18:23.264844  4530 net.cpp:141] Setting up inception_4d/relu_3x3_reduce
I0417 13:18:23.264860  4530 net.cpp:148] Top shape: 50 144 14 14 (1411200)
I0417 13:18:23.264873  4530 net.cpp:156] Memory required for data: 2311860000
I0417 13:18:23.264883  4530 layer_factory.hpp:77] Creating layer inception_4d/3x3
I0417 13:18:23.264901  4530 net.cpp:91] Creating Layer inception_4d/3x3
I0417 13:18:23.264914  4530 net.cpp:425] inception_4d/3x3 <- inception_4d/3x3_reduce
I0417 13:18:23.264931  4530 net.cpp:399] inception_4d/3x3 -> inception_4d/3x3
I0417 13:18:23.268975  4530 net.cpp:141] Setting up inception_4d/3x3
I0417 13:18:23.269034  4530 net.cpp:148] Top shape: 50 288 14 14 (2822400)
I0417 13:18:23.269043  4530 net.cpp:156] Memory required for data: 2323149600
I0417 13:18:23.269071  4530 layer_factory.hpp:77] Creating layer inception_4d/relu_3x3
I0417 13:18:23.269093  4530 net.cpp:91] Creating Layer inception_4d/relu_3x3
I0417 13:18:23.269112  4530 net.cpp:425] inception_4d/relu_3x3 <- inception_4d/3x3
I0417 13:18:23.269137  4530 net.cpp:386] inception_4d/relu_3x3 -> inception_4d/3x3 (in-place)
I0417 13:18:23.269160  4530 net.cpp:141] Setting up inception_4d/relu_3x3
I0417 13:18:23.269177  4530 net.cpp:148] Top shape: 50 288 14 14 (2822400)
I0417 13:18:23.269187  4530 net.cpp:156] Memory required for data: 2334439200
I0417 13:18:23.269198  4530 layer_factory.hpp:77] Creating layer inception_4d/5x5_reduce
I0417 13:18:23.269230  4530 net.cpp:91] Creating Layer inception_4d/5x5_reduce
I0417 13:18:23.269248  4530 net.cpp:425] inception_4d/5x5_reduce <- inception_4c/output_inception_4c/output_0_split_2
I0417 13:18:23.269270  4530 net.cpp:399] inception_4d/5x5_reduce -> inception_4d/5x5_reduce
I0417 13:18:23.269752  4530 net.cpp:141] Setting up inception_4d/5x5_reduce
I0417 13:18:23.269773  4530 net.cpp:148] Top shape: 50 32 14 14 (313600)
I0417 13:18:23.269783  4530 net.cpp:156] Memory required for data: 2335693600
I0417 13:18:23.269798  4530 layer_factory.hpp:77] Creating layer inception_4d/relu_5x5_reduce
I0417 13:18:23.269814  4530 net.cpp:91] Creating Layer inception_4d/relu_5x5_reduce
I0417 13:18:23.269829  4530 net.cpp:425] inception_4d/relu_5x5_reduce <- inception_4d/5x5_reduce
I0417 13:18:23.269847  4530 net.cpp:386] inception_4d/relu_5x5_reduce -> inception_4d/5x5_reduce (in-place)
I0417 13:18:23.269865  4530 net.cpp:141] Setting up inception_4d/relu_5x5_reduce
I0417 13:18:23.269881  4530 net.cpp:148] Top shape: 50 32 14 14 (313600)
I0417 13:18:23.269892  4530 net.cpp:156] Memory required for data: 2336948000
I0417 13:18:23.269911  4530 layer_factory.hpp:77] Creating layer inception_4d/5x5
I0417 13:18:23.269937  4530 net.cpp:91] Creating Layer inception_4d/5x5
I0417 13:18:23.269948  4530 net.cpp:425] inception_4d/5x5 <- inception_4d/5x5_reduce
I0417 13:18:23.269963  4530 net.cpp:399] inception_4d/5x5 -> inception_4d/5x5
I0417 13:18:23.270732  4530 net.cpp:141] Setting up inception_4d/5x5
I0417 13:18:23.270753  4530 net.cpp:148] Top shape: 50 64 14 14 (627200)
I0417 13:18:23.270762  4530 net.cpp:156] Memory required for data: 2339456800
I0417 13:18:23.270779  4530 layer_factory.hpp:77] Creating layer inception_4d/relu_5x5
I0417 13:18:23.270795  4530 net.cpp:91] Creating Layer inception_4d/relu_5x5
I0417 13:18:23.270809  4530 net.cpp:425] inception_4d/relu_5x5 <- inception_4d/5x5
I0417 13:18:23.270828  4530 net.cpp:386] inception_4d/relu_5x5 -> inception_4d/5x5 (in-place)
I0417 13:18:23.270848  4530 net.cpp:141] Setting up inception_4d/relu_5x5
I0417 13:18:23.270864  4530 net.cpp:148] Top shape: 50 64 14 14 (627200)
I0417 13:18:23.270874  4530 net.cpp:156] Memory required for data: 2341965600
I0417 13:18:23.270884  4530 layer_factory.hpp:77] Creating layer inception_4d/pool
I0417 13:18:23.270898  4530 net.cpp:91] Creating Layer inception_4d/pool
I0417 13:18:23.270910  4530 net.cpp:425] inception_4d/pool <- inception_4c/output_inception_4c/output_0_split_3
I0417 13:18:23.270927  4530 net.cpp:399] inception_4d/pool -> inception_4d/pool
I0417 13:18:23.271008  4530 net.cpp:141] Setting up inception_4d/pool
I0417 13:18:23.271028  4530 net.cpp:148] Top shape: 50 512 14 14 (5017600)
I0417 13:18:23.271039  4530 net.cpp:156] Memory required for data: 2362036000
I0417 13:18:23.271050  4530 layer_factory.hpp:77] Creating layer inception_4d/pool_proj
I0417 13:18:23.271081  4530 net.cpp:91] Creating Layer inception_4d/pool_proj
I0417 13:18:23.271095  4530 net.cpp:425] inception_4d/pool_proj <- inception_4d/pool
I0417 13:18:23.271116  4530 net.cpp:399] inception_4d/pool_proj -> inception_4d/pool_proj
I0417 13:18:23.271806  4530 net.cpp:141] Setting up inception_4d/pool_proj
I0417 13:18:23.271829  4530 net.cpp:148] Top shape: 50 64 14 14 (627200)
I0417 13:18:23.271838  4530 net.cpp:156] Memory required for data: 2364544800
I0417 13:18:23.271854  4530 layer_factory.hpp:77] Creating layer inception_4d/relu_pool_proj
I0417 13:18:23.271869  4530 net.cpp:91] Creating Layer inception_4d/relu_pool_proj
I0417 13:18:23.271883  4530 net.cpp:425] inception_4d/relu_pool_proj <- inception_4d/pool_proj
I0417 13:18:23.271901  4530 net.cpp:386] inception_4d/relu_pool_proj -> inception_4d/pool_proj (in-place)
I0417 13:18:23.271920  4530 net.cpp:141] Setting up inception_4d/relu_pool_proj
I0417 13:18:23.271936  4530 net.cpp:148] Top shape: 50 64 14 14 (627200)
I0417 13:18:23.271948  4530 net.cpp:156] Memory required for data: 2367053600
I0417 13:18:23.271958  4530 layer_factory.hpp:77] Creating layer inception_4d/output
I0417 13:18:23.271975  4530 net.cpp:91] Creating Layer inception_4d/output
I0417 13:18:23.271986  4530 net.cpp:425] inception_4d/output <- inception_4d/1x1
I0417 13:18:23.272001  4530 net.cpp:425] inception_4d/output <- inception_4d/3x3
I0417 13:18:23.272016  4530 net.cpp:425] inception_4d/output <- inception_4d/5x5
I0417 13:18:23.272029  4530 net.cpp:425] inception_4d/output <- inception_4d/pool_proj
I0417 13:18:23.272044  4530 net.cpp:399] inception_4d/output -> inception_4d/output
I0417 13:18:23.272104  4530 net.cpp:141] Setting up inception_4d/output
I0417 13:18:23.272121  4530 net.cpp:148] Top shape: 50 528 14 14 (5174400)
I0417 13:18:23.272130  4530 net.cpp:156] Memory required for data: 2387751200
I0417 13:18:23.272140  4530 layer_factory.hpp:77] Creating layer inception_4d/output_inception_4d/output_0_split
I0417 13:18:23.272156  4530 net.cpp:91] Creating Layer inception_4d/output_inception_4d/output_0_split
I0417 13:18:23.272167  4530 net.cpp:425] inception_4d/output_inception_4d/output_0_split <- inception_4d/output
I0417 13:18:23.272182  4530 net.cpp:399] inception_4d/output_inception_4d/output_0_split -> inception_4d/output_inception_4d/output_0_split_0
I0417 13:18:23.272207  4530 net.cpp:399] inception_4d/output_inception_4d/output_0_split -> inception_4d/output_inception_4d/output_0_split_1
I0417 13:18:23.272233  4530 net.cpp:399] inception_4d/output_inception_4d/output_0_split -> inception_4d/output_inception_4d/output_0_split_2
I0417 13:18:23.272256  4530 net.cpp:399] inception_4d/output_inception_4d/output_0_split -> inception_4d/output_inception_4d/output_0_split_3
I0417 13:18:23.272361  4530 net.cpp:141] Setting up inception_4d/output_inception_4d/output_0_split
I0417 13:18:23.272380  4530 net.cpp:148] Top shape: 50 528 14 14 (5174400)
I0417 13:18:23.272393  4530 net.cpp:148] Top shape: 50 528 14 14 (5174400)
I0417 13:18:23.272405  4530 net.cpp:148] Top shape: 50 528 14 14 (5174400)
I0417 13:18:23.272416  4530 net.cpp:148] Top shape: 50 528 14 14 (5174400)
I0417 13:18:23.272425  4530 net.cpp:156] Memory required for data: 2470541600
I0417 13:18:23.272435  4530 layer_factory.hpp:77] Creating layer inception_4e/1x1
I0417 13:18:23.272459  4530 net.cpp:91] Creating Layer inception_4e/1x1
I0417 13:18:23.272474  4530 net.cpp:425] inception_4e/1x1 <- inception_4d/output_inception_4d/output_0_split_0
I0417 13:18:23.272490  4530 net.cpp:399] inception_4e/1x1 -> inception_4e/1x1
I0417 13:18:23.274706  4530 net.cpp:141] Setting up inception_4e/1x1
I0417 13:18:23.274855  4530 net.cpp:148] Top shape: 50 256 14 14 (2508800)
I0417 13:18:23.274866  4530 net.cpp:156] Memory required for data: 2480576800
I0417 13:18:23.274889  4530 layer_factory.hpp:77] Creating layer inception_4e/relu_1x1
I0417 13:18:23.274909  4530 net.cpp:91] Creating Layer inception_4e/relu_1x1
I0417 13:18:23.274922  4530 net.cpp:425] inception_4e/relu_1x1 <- inception_4e/1x1
I0417 13:18:23.274942  4530 net.cpp:386] inception_4e/relu_1x1 -> inception_4e/1x1 (in-place)
I0417 13:18:23.274965  4530 net.cpp:141] Setting up inception_4e/relu_1x1
I0417 13:18:23.274981  4530 net.cpp:148] Top shape: 50 256 14 14 (2508800)
I0417 13:18:23.274991  4530 net.cpp:156] Memory required for data: 2490612000
I0417 13:18:23.274999  4530 layer_factory.hpp:77] Creating layer inception_4e/3x3_reduce
I0417 13:18:23.275020  4530 net.cpp:91] Creating Layer inception_4e/3x3_reduce
I0417 13:18:23.275032  4530 net.cpp:425] inception_4e/3x3_reduce <- inception_4d/output_inception_4d/output_0_split_1
I0417 13:18:23.275051  4530 net.cpp:399] inception_4e/3x3_reduce -> inception_4e/3x3_reduce
I0417 13:18:23.276129  4530 net.cpp:141] Setting up inception_4e/3x3_reduce
I0417 13:18:23.276149  4530 net.cpp:148] Top shape: 50 160 14 14 (1568000)
I0417 13:18:23.276159  4530 net.cpp:156] Memory required for data: 2496884000
I0417 13:18:23.276175  4530 layer_factory.hpp:77] Creating layer inception_4e/relu_3x3_reduce
I0417 13:18:23.276190  4530 net.cpp:91] Creating Layer inception_4e/relu_3x3_reduce
I0417 13:18:23.276203  4530 net.cpp:425] inception_4e/relu_3x3_reduce <- inception_4e/3x3_reduce
I0417 13:18:23.276219  4530 net.cpp:386] inception_4e/relu_3x3_reduce -> inception_4e/3x3_reduce (in-place)
I0417 13:18:23.276238  4530 net.cpp:141] Setting up inception_4e/relu_3x3_reduce
I0417 13:18:23.276254  4530 net.cpp:148] Top shape: 50 160 14 14 (1568000)
I0417 13:18:23.276264  4530 net.cpp:156] Memory required for data: 2503156000
I0417 13:18:23.276274  4530 layer_factory.hpp:77] Creating layer inception_4e/3x3
I0417 13:18:23.276296  4530 net.cpp:91] Creating Layer inception_4e/3x3
I0417 13:18:23.276309  4530 net.cpp:425] inception_4e/3x3 <- inception_4e/3x3_reduce
I0417 13:18:23.276324  4530 net.cpp:399] inception_4e/3x3 -> inception_4e/3x3
I0417 13:18:23.281152  4530 net.cpp:141] Setting up inception_4e/3x3
I0417 13:18:23.281191  4530 net.cpp:148] Top shape: 50 320 14 14 (3136000)
I0417 13:18:23.281200  4530 net.cpp:156] Memory required for data: 2515700000
I0417 13:18:23.281219  4530 layer_factory.hpp:77] Creating layer inception_4e/relu_3x3
I0417 13:18:23.281250  4530 net.cpp:91] Creating Layer inception_4e/relu_3x3
I0417 13:18:23.281271  4530 net.cpp:425] inception_4e/relu_3x3 <- inception_4e/3x3
I0417 13:18:23.281296  4530 net.cpp:386] inception_4e/relu_3x3 -> inception_4e/3x3 (in-place)
I0417 13:18:23.281325  4530 net.cpp:141] Setting up inception_4e/relu_3x3
I0417 13:18:23.281340  4530 net.cpp:148] Top shape: 50 320 14 14 (3136000)
I0417 13:18:23.281350  4530 net.cpp:156] Memory required for data: 2528244000
I0417 13:18:23.281360  4530 layer_factory.hpp:77] Creating layer inception_4e/5x5_reduce
I0417 13:18:23.281384  4530 net.cpp:91] Creating Layer inception_4e/5x5_reduce
I0417 13:18:23.281397  4530 net.cpp:425] inception_4e/5x5_reduce <- inception_4d/output_inception_4d/output_0_split_2
I0417 13:18:23.281414  4530 net.cpp:399] inception_4e/5x5_reduce -> inception_4e/5x5_reduce
I0417 13:18:23.281906  4530 net.cpp:141] Setting up inception_4e/5x5_reduce
I0417 13:18:23.281926  4530 net.cpp:148] Top shape: 50 32 14 14 (313600)
I0417 13:18:23.281936  4530 net.cpp:156] Memory required for data: 2529498400
I0417 13:18:23.281951  4530 layer_factory.hpp:77] Creating layer inception_4e/relu_5x5_reduce
I0417 13:18:23.281965  4530 net.cpp:91] Creating Layer inception_4e/relu_5x5_reduce
I0417 13:18:23.281985  4530 net.cpp:425] inception_4e/relu_5x5_reduce <- inception_4e/5x5_reduce
I0417 13:18:23.281999  4530 net.cpp:386] inception_4e/relu_5x5_reduce -> inception_4e/5x5_reduce (in-place)
I0417 13:18:23.282018  4530 net.cpp:141] Setting up inception_4e/relu_5x5_reduce
I0417 13:18:23.282033  4530 net.cpp:148] Top shape: 50 32 14 14 (313600)
I0417 13:18:23.282047  4530 net.cpp:156] Memory required for data: 2530752800
I0417 13:18:23.282057  4530 layer_factory.hpp:77] Creating layer inception_4e/5x5
I0417 13:18:23.282080  4530 net.cpp:91] Creating Layer inception_4e/5x5
I0417 13:18:23.282093  4530 net.cpp:425] inception_4e/5x5 <- inception_4e/5x5_reduce
I0417 13:18:23.282109  4530 net.cpp:399] inception_4e/5x5 -> inception_4e/5x5
I0417 13:18:23.283831  4530 net.cpp:141] Setting up inception_4e/5x5
I0417 13:18:23.283854  4530 net.cpp:148] Top shape: 50 128 14 14 (1254400)
I0417 13:18:23.283864  4530 net.cpp:156] Memory required for data: 2535770400
I0417 13:18:23.283879  4530 layer_factory.hpp:77] Creating layer inception_4e/relu_5x5
I0417 13:18:23.283895  4530 net.cpp:91] Creating Layer inception_4e/relu_5x5
I0417 13:18:23.283910  4530 net.cpp:425] inception_4e/relu_5x5 <- inception_4e/5x5
I0417 13:18:23.283927  4530 net.cpp:386] inception_4e/relu_5x5 -> inception_4e/5x5 (in-place)
I0417 13:18:23.283946  4530 net.cpp:141] Setting up inception_4e/relu_5x5
I0417 13:18:23.283962  4530 net.cpp:148] Top shape: 50 128 14 14 (1254400)
I0417 13:18:23.283973  4530 net.cpp:156] Memory required for data: 2540788000
I0417 13:18:23.283983  4530 layer_factory.hpp:77] Creating layer inception_4e/pool
I0417 13:18:23.284003  4530 net.cpp:91] Creating Layer inception_4e/pool
I0417 13:18:23.284014  4530 net.cpp:425] inception_4e/pool <- inception_4d/output_inception_4d/output_0_split_3
I0417 13:18:23.284029  4530 net.cpp:399] inception_4e/pool -> inception_4e/pool
I0417 13:18:23.284103  4530 net.cpp:141] Setting up inception_4e/pool
I0417 13:18:23.284121  4530 net.cpp:148] Top shape: 50 528 14 14 (5174400)
I0417 13:18:23.284129  4530 net.cpp:156] Memory required for data: 2561485600
I0417 13:18:23.284140  4530 layer_factory.hpp:77] Creating layer inception_4e/pool_proj
I0417 13:18:23.284163  4530 net.cpp:91] Creating Layer inception_4e/pool_proj
I0417 13:18:23.284176  4530 net.cpp:425] inception_4e/pool_proj <- inception_4e/pool
I0417 13:18:23.284195  4530 net.cpp:399] inception_4e/pool_proj -> inception_4e/pool_proj
I0417 13:18:23.285001  4530 net.cpp:141] Setting up inception_4e/pool_proj
I0417 13:18:23.285020  4530 net.cpp:148] Top shape: 50 128 14 14 (1254400)
I0417 13:18:23.285029  4530 net.cpp:156] Memory required for data: 2566503200
I0417 13:18:23.285045  4530 layer_factory.hpp:77] Creating layer inception_4e/relu_pool_proj
I0417 13:18:23.285063  4530 net.cpp:91] Creating Layer inception_4e/relu_pool_proj
I0417 13:18:23.285078  4530 net.cpp:425] inception_4e/relu_pool_proj <- inception_4e/pool_proj
I0417 13:18:23.285094  4530 net.cpp:386] inception_4e/relu_pool_proj -> inception_4e/pool_proj (in-place)
I0417 13:18:23.285112  4530 net.cpp:141] Setting up inception_4e/relu_pool_proj
I0417 13:18:23.285128  4530 net.cpp:148] Top shape: 50 128 14 14 (1254400)
I0417 13:18:23.285137  4530 net.cpp:156] Memory required for data: 2571520800
I0417 13:18:23.285148  4530 layer_factory.hpp:77] Creating layer inception_4e/output
I0417 13:18:23.285164  4530 net.cpp:91] Creating Layer inception_4e/output
I0417 13:18:23.285181  4530 net.cpp:425] inception_4e/output <- inception_4e/1x1
I0417 13:18:23.285193  4530 net.cpp:425] inception_4e/output <- inception_4e/3x3
I0417 13:18:23.285207  4530 net.cpp:425] inception_4e/output <- inception_4e/5x5
I0417 13:18:23.285221  4530 net.cpp:425] inception_4e/output <- inception_4e/pool_proj
I0417 13:18:23.285236  4530 net.cpp:399] inception_4e/output -> inception_4e/output
I0417 13:18:23.285286  4530 net.cpp:141] Setting up inception_4e/output
I0417 13:18:23.285303  4530 net.cpp:148] Top shape: 50 832 14 14 (8153600)
I0417 13:18:23.285312  4530 net.cpp:156] Memory required for data: 2604135200
I0417 13:18:23.285322  4530 layer_factory.hpp:77] Creating layer CAM_conv
I0417 13:18:23.285349  4530 net.cpp:91] Creating Layer CAM_conv
I0417 13:18:23.285362  4530 net.cpp:425] CAM_conv <- inception_4e/output
I0417 13:18:23.285378  4530 net.cpp:399] CAM_conv -> CAM_conv
I0417 13:18:23.432163  4530 net.cpp:141] Setting up CAM_conv
I0417 13:18:23.432205  4530 net.cpp:148] Top shape: 50 1024 14 14 (10035200)
I0417 13:18:23.432215  4530 net.cpp:156] Memory required for data: 2644276000
I0417 13:18:23.432238  4530 layer_factory.hpp:77] Creating layer CAM_relu
I0417 13:18:23.432257  4530 net.cpp:91] Creating Layer CAM_relu
I0417 13:18:23.432271  4530 net.cpp:425] CAM_relu <- CAM_conv
I0417 13:18:23.432346  4530 net.cpp:386] CAM_relu -> CAM_conv (in-place)
I0417 13:18:23.432370  4530 net.cpp:141] Setting up CAM_relu
I0417 13:18:23.432389  4530 net.cpp:148] Top shape: 50 1024 14 14 (10035200)
I0417 13:18:23.432402  4530 net.cpp:156] Memory required for data: 2684416800
I0417 13:18:23.432413  4530 layer_factory.hpp:77] Creating layer CAM_pool
I0417 13:18:23.432428  4530 net.cpp:91] Creating Layer CAM_pool
I0417 13:18:23.432441  4530 net.cpp:425] CAM_pool <- CAM_conv
I0417 13:18:23.432461  4530 net.cpp:399] CAM_pool -> CAM_pool
I0417 13:18:23.432518  4530 net.cpp:141] Setting up CAM_pool
I0417 13:18:23.432535  4530 net.cpp:148] Top shape: 50 1024 1 1 (51200)
I0417 13:18:23.432544  4530 net.cpp:156] Memory required for data: 2684621600
I0417 13:18:23.432554  4530 layer_factory.hpp:77] Creating layer CAM_fc
I0417 13:18:23.432574  4530 net.cpp:91] Creating Layer CAM_fc
I0417 13:18:23.432586  4530 net.cpp:425] CAM_fc <- CAM_pool
I0417 13:18:23.432605  4530 net.cpp:399] CAM_fc -> CAM_fc
I0417 13:18:23.441591  4530 net.cpp:141] Setting up CAM_fc
I0417 13:18:23.441620  4530 net.cpp:148] Top shape: 50 1000 (50000)
I0417 13:18:23.441630  4530 net.cpp:156] Memory required for data: 2684821600
I0417 13:18:23.441653  4530 layer_factory.hpp:77] Creating layer CAM_fc_CAM_fc_0_split
I0417 13:18:23.441668  4530 net.cpp:91] Creating Layer CAM_fc_CAM_fc_0_split
I0417 13:18:23.441684  4530 net.cpp:425] CAM_fc_CAM_fc_0_split <- CAM_fc
I0417 13:18:23.441699  4530 net.cpp:399] CAM_fc_CAM_fc_0_split -> CAM_fc_CAM_fc_0_split_0
I0417 13:18:23.441718  4530 net.cpp:399] CAM_fc_CAM_fc_0_split -> CAM_fc_CAM_fc_0_split_1
I0417 13:18:23.441743  4530 net.cpp:399] CAM_fc_CAM_fc_0_split -> CAM_fc_CAM_fc_0_split_2
I0417 13:18:23.441833  4530 net.cpp:141] Setting up CAM_fc_CAM_fc_0_split
I0417 13:18:23.441850  4530 net.cpp:148] Top shape: 50 1000 (50000)
I0417 13:18:23.441867  4530 net.cpp:148] Top shape: 50 1000 (50000)
I0417 13:18:23.441879  4530 net.cpp:148] Top shape: 50 1000 (50000)
I0417 13:18:23.441890  4530 net.cpp:156] Memory required for data: 2685421600
I0417 13:18:23.441900  4530 layer_factory.hpp:77] Creating layer loss3/loss3
I0417 13:18:23.441913  4530 net.cpp:91] Creating Layer loss3/loss3
I0417 13:18:23.441925  4530 net.cpp:425] loss3/loss3 <- CAM_fc_CAM_fc_0_split_0
I0417 13:18:23.441936  4530 net.cpp:425] loss3/loss3 <- label_data_1_split_0
I0417 13:18:23.441951  4530 net.cpp:399] loss3/loss3 -> loss3/loss3
…
