…
  phase: TRAIN
}
layer {
  name: "data"
  type: "Data"
  top: "data"
  include {
    phase: TRAIN
  }
  transform_param {
    mirror: true
    crop_size: 227
    mean_file: "/home/iis/Downloads/caffe-master/data/food_100/food100_mean_1.binaryproto"
  }
  data_param {
    source: "/home/iis/Desktop/train-image-lmdb"
    batch_size: 256
    backend: LMDB
  }
}
layer {
  name: "data"
  type: "Data"
  top: "label"
  include {
    phase: TRAIN
  }
  data_param {
    source: "/home/iis/Desktop/train-label-lmdb"
    batch_size: 256
    backend: LMDB
  }
}
layer {
  name: "conv1"
  type: "Convolution"
  bottom: "data"
  top: "conv1"
  param {
    lr_mult: 1
  }
  param {
    lr_mult: 2
  }
  convolution_param {
    num_output: 96
    kernel_size: 11
    stride: 4
    weight_filler {
      type: "gaussian"
      std: 0.01
    }
    bias_filler {
      type: "constant"
      value: 0
    }
  }
}
layer {
  name: "relu1"
  type: "ReLU"
  bottom: "conv1"
  top: "conv1"
}
layer {
  name: "pool1"
  type: "Pooling"
  bottom: "conv1"
  top: "pool1"
  pooling_param {
    pool: MAX
    kernel_size: 3
    stride: 2
  }
}
layer {
  name: "norm1"
  type: "LRN"
  bottom: "pool1"
  top: "norm1"
  lrn_param {
    local_size: 5
    alpha: 0.0001
    beta: 0.75
  }
}
layer {
  name: "conv2"
  type: "Convolution"
  bottom: "norm1"
  top: "conv2"
  param {
    lr_mult: 1
  }
  param {
    lr_mult: 2
  }
  convolution_param {
    num_output: 256
    pad: 2
    kernel_size: 5
    group: 2
    weight_filler {
      type: "gaussian"
      std: 0.01
    }
    bias_filler {
      type: "constant"
      value: 1
    }
  }
}
layer {
  name: "relu2"
  type: "ReLU"
  bottom: "conv2"
  top: "conv2"
}
layer {
  name: "pool2"
  type: "Pooling"
  bottom: "conv2"
  top: "pool2"
  pooling_param {
    pool: MAX
    kernel_size: 3
    stride: 2
  }
}
layer {
  name: "norm2"
  type: "LRN"
  bottom: "pool2"
  top: "norm2"
  lrn_param {
    local_size: 5
    alpha: 0.0001
    beta: 0.75
  }
}
layer {
  name: "conv3"
  type: "Convolution"
  bottom: "norm2"
  top: "conv3"
  param {
    lr_mult: 1
  }
  param {
    lr_mult: 2
  }
  convolution_param {
    num_output: 384
    pad: 1
    kernel_size: 3
    weight_filler {
      type: "gaussian"
      std: 0.01
    }
    bias_filler {
      type: "constant"
      value: 0
    }
  }
}
layer {
  name: "relu3"
  type: "ReLU"
  bottom: "conv3"
  top: "conv3"
}
layer {
  name: "conv4"
  type: "Convolution"
  bottom: "conv3"
  top: "conv4"
  param {
    lr_mult: 1
  }
  param {
    lr_mult: 2
  }
  convolution_param {
    num_output: 384
    pad: 1
    kernel_size: 3
    group: 2
    weight_filler {
      type: "gaussian"
      std: 0.01
    }
    bias_filler {
      type: "constant"
      value: 1
    }
  }
}
layer {
  name: "relu4"
  type: "ReLU"
  bottom: "conv4"
  top: "conv4"
}
layer {
  name: "conv5"
  type: "Convolution"
  bottom: "conv4"
  top: "conv5"
  param {
    lr_mult: 1
  }
  param {
    lr_mult: 2
  }
  convolution_param {
    num_output: 256
    pad: 1
    kernel_size: 3
    group: 2
    weight_filler {
      type: "gaussian"
      std: 0.01
    }
    bias_filler {
      type: "constant"
      value: 1
    }
  }
}
layer {
  name: "relu5"
  type: "ReLU"
  bottom: "conv5"
  top: "conv5"
}
layer {
  name: "pool5"
  type: "Pooling"
  bottom: "conv5"
  top: "pool5"
  pooling_param {
    pool: MAX
    kernel_size: 3
    stride: 2
  }
}
layer {
  name: "fc6"
  type: "InnerProduct"
  bottom: "pool5"
  top: "fc6"
  param {
    lr_mult: 1
  }
  param {
    lr_mult: 2
  }
  inner_product_param {
    num_output: 4096
    weight_filler {
      type: "gaussian"
      std: 0.005
    }
    bias_filler {
      type: "constant"
      value: 1
    }
  }
}
layer {
  name: "relu6"
  type: "ReLU"
  bottom: "fc6"
  top: "fc6"
}
layer {
  name: "drop6"
  type: "Dropout"
  bottom: "fc6"
  top: "fc6"
  dropout_param {
    dropout_ratio: 0.5
  }
}
layer {
  name: "fc7"
  type: "InnerProduct"
  bottom: "fc6"
  top: "fc7"
  param {
    lr_mult: 1
  }
  param {
    lr_mult: 2
  }
  inner_product_param {
    num_output: 4096
    weight_filler {
      type: "gaussian"
      std: 0.005
    }
    bias_filler {
      type: "constant"
      value: 1
    }
  }
}
layer {
  name: "relu7"
  type: "ReLU"
  bottom: "fc7"
  top: "fc7"
}
layer {
  name: "drop7"
  type: "Dropout"
  bottom: "fc7"
  top: "fc7"
  dropout_param {
    dropout_ratio: 0.5
  }
}
layer {
  name: "fc8"
  type: "InnerProduct"
  bottom: "fc7"
  top: "fc8"
  param {
    lr_mult: 1
  }
  param {
    lr_mult: 2
  }
  inner_product_param {
    num_output: 100
    weight_filler {
      type: "gaussian"
      std: 0.01
    }
    bias_filler {
      type: "constant"
      value: 0
    }
  }
}
layer {
  name: "loss"
  type: "SigmoidCrossEntropyLoss"
  bottom: "fc8"
  bottom: "label"
  top: "loss"
}
I0428 23:11:10.254819  8247 layer_factory.hpp:77] Creating layer data
I0428 23:11:10.262331  8247 net.cpp:91] Creating Layer data
I0428 23:11:10.262392  8247 net.cpp:399] data -> data
I0428 23:11:10.264340  8247 data_transformer.cpp:25] Loading mean file from: /home/iis/Downloads/caffe-master/data/food_100/food100_mean_1.binaryproto
I0428 23:11:10.296442  8261 db_lmdb.cpp:35] Opened lmdb /home/iis/Desktop/train-image-lmdb
I0428 23:11:10.411855  8247 data_layer.cpp:41] output data size: 256,3,227,227
I0428 23:11:10.833961  8247 net.cpp:141] Setting up data
I0428 23:11:10.833999  8247 net.cpp:148] Top shape: 256 3 227 227 (39574272)
I0428 23:11:10.834007  8247 net.cpp:156] Memory required for data: 158297088
I0428 23:11:10.834020  8247 layer_factory.hpp:77] Creating layer data
I0428 23:11:10.834190  8247 net.cpp:91] Creating Layer data
I0428 23:11:10.834205  8247 net.cpp:399] data -> label
I0428 23:11:10.860492  8263 db_lmdb.cpp:35] Opened lmdb /home/iis/Desktop/train-label-lmdb
I0428 23:11:10.860687  8247 data_layer.cpp:41] output data size: 256,100,1,1
I0428 23:11:10.861836  8247 net.cpp:141] Setting up data
I0428 23:11:10.861881  8247 net.cpp:148] Top shape: 256 100 1 1 (25600)
I0428 23:11:10.861893  8247 net.cpp:156] Memory required for data: 158399488
I0428 23:11:10.861909  8247 layer_factory.hpp:77] Creating layer conv1
I0428 23:11:10.862002  8247 net.cpp:91] Creating Layer conv1
I0428 23:11:10.862026  8247 net.cpp:425] conv1 <- data
I0428 23:11:10.862105  8247 net.cpp:399] conv1 -> conv1
I0428 23:11:10.881261  8247 net.cpp:141] Setting up conv1
I0428 23:11:10.881357  8247 net.cpp:148] Top shape: 256 96 55 55 (74342400)
I0428 23:11:10.881366  8247 net.cpp:156] Memory required for data: 455769088
I0428 23:11:10.881392  8247 layer_factory.hpp:77] Creating layer relu1
I0428 23:11:10.881413  8247 net.cpp:91] Creating Layer relu1
I0428 23:11:10.881420  8247 net.cpp:425] relu1 <- conv1
I0428 23:11:10.881431  8247 net.cpp:386] relu1 -> conv1 (in-place)
I0428 23:11:10.881458  8247 net.cpp:141] Setting up relu1
I0428 23:11:10.881466  8247 net.cpp:148] Top shape: 256 96 55 55 (74342400)
I0428 23:11:10.881471  8247 net.cpp:156] Memory required for data: 753138688
I0428 23:11:10.881476  8247 layer_factory.hpp:77] Creating layer pool1
I0428 23:11:10.881489  8247 net.cpp:91] Creating Layer pool1
I0428 23:11:10.881495  8247 net.cpp:425] pool1 <- conv1
I0428 23:11:10.881502  8247 net.cpp:399] pool1 -> pool1
I0428 23:11:10.882710  8247 net.cpp:141] Setting up pool1
I0428 23:11:10.882730  8247 net.cpp:148] Top shape: 256 96 27 27 (17915904)
I0428 23:11:10.882736  8247 net.cpp:156] Memory required for data: 824802304
I0428 23:11:10.882742  8247 layer_factory.hpp:77] Creating layer norm1
I0428 23:11:10.882755  8247 net.cpp:91] Creating Layer norm1
I0428 23:11:10.882761  8247 net.cpp:425] norm1 <- pool1
I0428 23:11:10.882767  8247 net.cpp:399] norm1 -> norm1
I0428 23:11:10.883018  8247 net.cpp:141] Setting up norm1
I0428 23:11:10.883036  8247 net.cpp:148] Top shape: 256 96 27 27 (17915904)
I0428 23:11:10.883041  8247 net.cpp:156] Memory required for data: 896465920
I0428 23:11:10.883047  8247 layer_factory.hpp:77] Creating layer conv2
I0428 23:11:10.883064  8247 net.cpp:91] Creating Layer conv2
I0428 23:11:10.883069  8247 net.cpp:425] conv2 <- norm1
I0428 23:11:10.883078  8247 net.cpp:399] conv2 -> conv2
I0428 23:11:10.896812  8247 net.cpp:141] Setting up conv2
I0428 23:11:10.896927  8247 net.cpp:148] Top shape: 256 256 27 27 (47775744)
I0428 23:11:10.896950  8247 net.cpp:156] Memory required for data: 1087568896
I0428 23:11:10.897030  8247 layer_factory.hpp:77] Creating layer relu2
I0428 23:11:10.897089  8247 net.cpp:91] Creating Layer relu2
I0428 23:11:10.897158  8247 net.cpp:425] relu2 <- conv2
I0428 23:11:10.897225  8247 net.cpp:386] relu2 -> conv2 (in-place)
I0428 23:11:10.897315  8247 net.cpp:141] Setting up relu2
I0428 23:11:10.897336  8247 net.cpp:148] Top shape: 256 256 27 27 (47775744)
I0428 23:11:10.897352  8247 net.cpp:156] Memory required for data: 1278671872
I0428 23:11:10.897367  8247 layer_factory.hpp:77] Creating layer pool2
I0428 23:11:10.897425  8247 net.cpp:91] Creating Layer pool2
I0428 23:11:10.897446  8247 net.cpp:425] pool2 <- conv2
I0428 23:11:10.897475  8247 net.cpp:399] pool2 -> pool2
I0428 23:11:10.897699  8247 net.cpp:141] Setting up pool2
I0428 23:11:10.897739  8247 net.cpp:148] Top shape: 256 256 13 13 (11075584)
I0428 23:11:10.897758  8247 net.cpp:156] Memory required for data: 1322974208
I0428 23:11:10.897773  8247 layer_factory.hpp:77] Creating layer norm2
I0428 23:11:10.897809  8247 net.cpp:91] Creating Layer norm2
I0428 23:11:10.897831  8247 net.cpp:425] norm2 <- pool2
I0428 23:11:10.897855  8247 net.cpp:399] norm2 -> norm2
I0428 23:11:10.897961  8247 net.cpp:141] Setting up norm2
I0428 23:11:10.897985  8247 net.cpp:148] Top shape: 256 256 13 13 (11075584)
I0428 23:11:10.897996  8247 net.cpp:156] Memory required for data: 1367276544
I0428 23:11:10.898010  8247 layer_factory.hpp:77] Creating layer conv3
I0428 23:11:10.898087  8247 net.cpp:91] Creating Layer conv3
I0428 23:11:10.898110  8247 net.cpp:425] conv3 <- norm2
I0428 23:11:10.898138  8247 net.cpp:399] conv3 -> conv3
I0428 23:11:10.937047  8247 net.cpp:141] Setting up conv3
I0428 23:11:10.937157  8247 net.cpp:148] Top shape: 256 384 13 13 (16613376)
I0428 23:11:10.937172  8247 net.cpp:156] Memory required for data: 1433730048
I0428 23:11:10.937228  8247 layer_factory.hpp:77] Creating layer relu3
I0428 23:11:10.937269  8247 net.cpp:91] Creating Layer relu3
I0428 23:11:10.937285  8247 net.cpp:425] relu3 <- conv3
I0428 23:11:10.937306  8247 net.cpp:386] relu3 -> conv3 (in-place)
I0428 23:11:10.937382  8247 net.cpp:141] Setting up relu3
I0428 23:11:10.937407  8247 net.cpp:148] Top shape: 256 384 13 13 (16613376)
I0428 23:11:10.937422  8247 net.cpp:156] Memory required for data: 1500183552
I0428 23:11:10.937436  8247 layer_factory.hpp:77] Creating layer conv4
I0428 23:11:10.937484  8247 net.cpp:91] Creating Layer conv4
I0428 23:11:10.937503  8247 net.cpp:425] conv4 <- conv3
I0428 23:11:10.937526  8247 net.cpp:399] conv4 -> conv4
I0428 23:11:10.970317  8247 net.cpp:141] Setting up conv4
I0428 23:11:10.970437  8247 net.cpp:148] Top shape: 256 384 13 13 (16613376)
I0428 23:11:10.970445  8247 net.cpp:156] Memory required for data: 1566637056
I0428 23:11:10.970470  8247 layer_factory.hpp:77] Creating layer relu4
I0428 23:11:10.970507  8247 net.cpp:91] Creating Layer relu4
I0428 23:11:10.970520  8247 net.cpp:425] relu4 <- conv4
I0428 23:11:10.970541  8247 net.cpp:386] relu4 -> conv4 (in-place)
I0428 23:11:10.970562  8247 net.cpp:141] Setting up relu4
I0428 23:11:10.970571  8247 net.cpp:148] Top shape: 256 384 13 13 (16613376)
I0428 23:11:10.970576  8247 net.cpp:156] Memory required for data: 1633090560
I0428 23:11:10.970580  8247 layer_factory.hpp:77] Creating layer conv5
I0428 23:11:10.970609  8247 net.cpp:91] Creating Layer conv5
I0428 23:11:10.970619  8247 net.cpp:425] conv5 <- conv4
I0428 23:11:10.970630  8247 net.cpp:399] conv5 -> conv5
I0428 23:11:10.991462  8247 net.cpp:141] Setting up conv5
I0428 23:11:10.991571  8247 net.cpp:148] Top shape: 256 256 13 13 (11075584)
I0428 23:11:10.991580  8247 net.cpp:156] Memory required for data: 1677392896
I0428 23:11:10.991623  8247 layer_factory.hpp:77] Creating layer relu5
I0428 23:11:10.991660  8247 net.cpp:91] Creating Layer relu5
I0428 23:11:10.991673  8247 net.cpp:425] relu5 <- conv5
I0428 23:11:10.991693  8247 net.cpp:386] relu5 -> conv5 (in-place)
I0428 23:11:10.991722  8247 net.cpp:141] Setting up relu5
I0428 23:11:10.991730  8247 net.cpp:148] Top shape: 256 256 13 13 (11075584)
I0428 23:11:10.991736  8247 net.cpp:156] Memory required for data: 1721695232
I0428 23:11:10.991741  8247 layer_factory.hpp:77] Creating layer pool5
I0428 23:11:10.991767  8247 net.cpp:91] Creating Layer pool5
I0428 23:11:10.991773  8247 net.cpp:425] pool5 <- conv5
I0428 23:11:10.991783  8247 net.cpp:399] pool5 -> pool5
I0428 23:11:10.991858  8247 net.cpp:141] Setting up pool5
I0428 23:11:10.991869  8247 net.cpp:148] Top shape: 256 256 6 6 (2359296)
I0428 23:11:10.991875  8247 net.cpp:156] Memory required for data: 1731132416
I0428 23:11:10.991880  8247 layer_factory.hpp:77] Creating layer fc6
I0428 23:11:10.991901  8247 net.cpp:91] Creating Layer fc6
I0428 23:11:10.991907  8247 net.cpp:425] fc6 <- pool5
I0428 23:11:10.991917  8247 net.cpp:399] fc6 -> fc6
I0428 23:11:12.463814  8247 net.cpp:141] Setting up fc6
I0428 23:11:12.463858  8247 net.cpp:148] Top shape: 256 4096 (1048576)
I0428 23:11:12.463866  8247 net.cpp:156] Memory required for data: 1735326720
I0428 23:11:12.463881  8247 layer_factory.hpp:77] Creating layer relu6
I0428 23:11:12.463897  8247 net.cpp:91] Creating Layer relu6
I0428 23:11:12.463907  8247 net.cpp:425] relu6 <- fc6
I0428 23:11:12.463917  8247 net.cpp:386] relu6 -> fc6 (in-place)
I0428 23:11:12.463932  8247 net.cpp:141] Setting up relu6
I0428 23:11:12.463937  8247 net.cpp:148] Top shape: 256 4096 (1048576)
I0428 23:11:12.463943  8247 net.cpp:156] Memory required for data: 1739521024
I0428 23:11:12.463948  8247 layer_factory.hpp:77] Creating layer drop6
I0428 23:11:12.480412  8247 net.cpp:91] Creating Layer drop6
I0428 23:11:12.480443  8247 net.cpp:425] drop6 <- fc6
I0428 23:11:12.480460  8247 net.cpp:386] drop6 -> fc6 (in-place)
I0428 23:11:12.480525  8247 net.cpp:141] Setting up drop6
I0428 23:11:12.480545  8247 net.cpp:148] Top shape: 256 4096 (1048576)
I0428 23:11:12.480556  8247 net.cpp:156] Memory required for data: 1743715328
I0428 23:11:12.480566  8247 layer_factory.hpp:77] Creating layer fc7
I0428 23:11:12.480582  8247 net.cpp:91] Creating Layer fc7
I0428 23:11:12.480595  8247 net.cpp:425] fc7 <- fc6
I0428 23:11:12.480612  8247 net.cpp:399] fc7 -> fc7
I0428 23:11:13.114965  8247 net.cpp:141] Setting up fc7
I0428 23:11:13.115006  8247 net.cpp:148] Top shape: 256 4096 (1048576)
I0428 23:11:13.115016  8247 net.cpp:156] Memory required for data: 1747909632
I0428 23:11:13.115031  8247 layer_factory.hpp:77] Creating layer relu7
I0428 23:11:13.115043  8247 net.cpp:91] Creating Layer relu7
I0428 23:11:13.115051  8247 net.cpp:425] relu7 <- fc7
I0428 23:11:13.115059  8247 net.cpp:386] relu7 -> fc7 (in-place)
I0428 23:11:13.115072  8247 net.cpp:141] Setting up relu7
I0428 23:11:13.115078  8247 net.cpp:148] Top shape: 256 4096 (1048576)
I0428 23:11:13.115083  8247 net.cpp:156] Memory required for data: 1752103936
I0428 23:11:13.115088  8247 layer_factory.hpp:77] Creating layer drop7
I0428 23:11:13.115097  8247 net.cpp:91] Creating Layer drop7
I0428 23:11:13.115103  8247 net.cpp:425] drop7 <- fc7
I0428 23:11:13.115109  8247 net.cpp:386] drop7 -> fc7 (in-place)
I0428 23:11:13.115134  8247 net.cpp:141] Setting up drop7
I0428 23:11:13.115145  8247 net.cpp:148] Top shape: 256 4096 (1048576)
I0428 23:11:13.115150  8247 net.cpp:156] Memory required for data: 1756298240
I0428 23:11:13.115155  8247 layer_factory.hpp:77] Creating layer fc8
I0428 23:11:13.115166  8247 net.cpp:91] Creating Layer fc8
I0428 23:11:13.115172  8247 net.cpp:425] fc8 <- fc7
I0428 23:11:13.115180  8247 net.cpp:399] fc8 -> fc8
I0428 23:11:13.129909  8247 net.cpp:141] Setting up fc8
I0428 23:11:13.129942  8247 net.cpp:148] Top shape: 256 100 (25600)
I0428 23:11:13.129954  8247 net.cpp:156] Memory required for data: 1756400640
I0428 23:11:13.129972  8247 layer_factory.hpp:77] Creating layer loss
I0428 23:11:13.129999  8247 net.cpp:91] Creating Layer loss
I0428 23:11:13.130013  8247 net.cpp:425] loss <- fc8
I0428 23:11:13.130026  8247 net.cpp:425] loss <- label
I0428 23:11:13.130043  8247 net.cpp:399] loss -> loss
I0428 23:11:13.158200  8247 net.cpp:141] Setting up loss
…
state {
  phase: TEST
}
layer {
  name: "data"
  type: "Data"
  top: "data"
  include {
    phase: TEST
  }
  transform_param {
    mirror: false
    crop_size: 227
    mean_file: "/home/iis/Downloads/caffe-master/data/food_100/food100_mean_1.binaryproto"
  }
  data_param {
    source: "/home/iis/Desktop/val-image-lmdb"
    batch_size: 50
    backend: LMDB
  }
}
layer {
  name: "data"
  type: "Data"
  top: "label"
  include {
    phase: TEST
  }
  data_param {
    source: "/home/iis/Desktop/val-label-lmdb"
    batch_size: 50
    backend: LMDB
  }
}
layer {
  name: "conv1"
  type: "Convolution"
  bottom: "data"
  top: "conv1"
  param {
    lr_mult: 1
  }
  param {
    lr_mult: 2
  }
  convolution_param {
    num_output: 96
    kernel_size: 11
    stride: 4
    weight_filler {
      type: "gaussian"
      std: 0.01
    }
    bias_filler {
      type: "constant"
      value: 0
    }
  }
}
layer {
  name: "relu1"
  type: "ReLU"
  bottom: "conv1"
  top: "conv1"
}
layer {
  name: "pool1"
  type: "Pooling"
  bottom: "conv1"
  top: "pool1"
  pooling_param {
    pool: MAX
    kernel_size: 3
    stride: 2
  }
}
layer {
  name: "norm1"
  type: "LRN"
  bottom: "pool1"
  top: "norm1"
  lrn_param {
    local_size: 5
    alpha: 0.0001
    beta: 0.75
  }
}
layer {
  name: "conv2"
  type: "Convolution"
  bottom: "norm1"
  top: "conv2"
  param {
    lr_mult: 1
  }
  param {
    lr_mult: 2
  }
  convolution_param {
    num_output: 256
    pad: 2
    kernel_size: 5
    group: 2
    weight_filler {
      type: "gaussian"
      std: 0.01
    }
    bias_filler {
      type: "constant"
      value: 1
    }
  }
}
layer {
  name: "relu2"
  type: "ReLU"
  bottom: "conv2"
  top: "conv2"
}
layer {
  name: "pool2"
  type: "Pooling"
  bottom: "conv2"
  top: "pool2"
  pooling_param {
    pool: MAX
    kernel_size: 3
    stride: 2
  }
}
layer {
  name: "norm2"
  type: "LRN"
  bottom: "pool2"
  top: "norm2"
  lrn_param {
    local_size: 5
    alpha: 0.0001
    beta: 0.75
  }
}
layer {
  name: "conv3"
  type: "Convolution"
  bottom: "norm2"
  top: "conv3"
  param {
    lr_mult: 1
  }
  param {
    lr_mult: 2
  }
  convolution_param {
    num_output: 384
    pad: 1
    kernel_size: 3
    weight_filler {
      type: "gaussian"
      std: 0.01
    }
    bias_filler {
      type: "constant"
      value: 0
    }
  }
}
layer {
  name: "relu3"
  type: "ReLU"
  bottom: "conv3"
  top: "conv3"
}
layer {
  name: "conv4"
  type: "Convolution"
  bottom: "conv3"
  top: "conv4"
  param {
    lr_mult: 1
  }
  param {
    lr_mult: 2
  }
  convolution_param {
    num_output: 384
    pad: 1
    kernel_size: 3
    group: 2
    weight_filler {
      type: "gaussian"
      std: 0.01
    }
    bias_filler {
      type: "constant"
      value: 1
    }
  }
}
layer {
  name: "relu4"
  type: "ReLU"
  bottom: "conv4"
  top: "conv4"
}
layer {
  name: "conv5"
  type: "Convolution"
  bottom: "conv4"
  top: "conv5"
  param {
    lr_mult: 1
  }
  param {
    lr_mult: 2
  }
  convolution_param {
    num_output: 256
    pad: 1
    kernel_size: 3
    group: 2
    weight_filler {
      type: "gaussian"
      std: 0.01
    }
    bias_filler {
      type: "constant"
      value: 1
    }
  }
}
layer {
  name: "relu5"
  type: "ReLU"
  bottom: "conv5"
  top: "conv5"
}
layer {
  name: "pool5"
  type: "Pooling"
  bottom: "conv5"
  top: "pool5"
  pooling_param {
    pool: MAX
    kernel_size: 3
    stride: 2
  }
}
layer {
  name: "fc6"
  type: "InnerProduct"
  bottom: "pool5"
  top: "fc6"
  param {
    lr_mult: 1
  }
  param {
    lr_mult: 2
  }
  inner_product_param {
    num_output: 4096
    weight_filler {
      type: "gaussian"
      std: 0.005
    }
    bias_filler {
      type: "constant"
      value: 1
    }
  }
}
layer {
  name: "relu6"
  type: "ReLU"
  bottom: "fc6"
  top: "fc6"
}
layer {
  name: "drop6"
  type: "Dropout"
  bottom: "fc6"
  top: "fc6"
  dropout_param {
    dropout_ratio: 0.5
  }
}
layer {
  name: "fc7"
  type: "InnerProduct"
  bottom: "fc6"
  top: "fc7"
  param {
    lr_mult: 1
  }
  param {
    lr_mult: 2
  }
  inner_product_param {
    num_output: 4096
    weight_filler {
      type: "gaussian"
      std: 0.005
    }
    bias_filler {
      type: "constant"
      value: 1
    }
  }
}
layer {
  name: "relu7"
  type: "ReLU"
  bottom: "fc7"
  top: "fc7"
}
layer {
  name: "drop7"
  type: "Dropout"
  bottom: "fc7"
  top: "fc7"
  dropout_param {
    dropout_ratio: 0.5
  }
}
layer {
  name: "fc8"
  type: "InnerProduct"
  bottom: "fc7"
  top: "fc8"
  param {
    lr_mult: 1
  }
  param {
    lr_mult: 2
  }
  inner_product_param {
    num_output: 100
    weight_filler {
      type: "gaussian"
      std: 0.01
    }
    bias_filler {
      type: "constant"
      value: 0
    }
  }
}
layer {
  name: "accuracy"
  type: "MultiLabelAccuracy"
  bottom: "fc8"
  bottom: "label"
  top: "accuracy"
  include {
    phase: TEST
  }
}
layer {
  name: "loss"
  type: "SigmoidCrossEntropyLoss"
  bottom: "fc8"
  bottom: "label"
  top: "loss"
}
I0428 23:11:13.159965  8247 layer_factory.hpp:77] Creating layer data
I0428 23:11:13.160188  8247 net.cpp:91] Creating Layer data
I0428 23:11:13.160208  8247 net.cpp:399] data -> data
I0428 23:11:13.160229  8247 data_transformer.cpp:25] Loading mean file from: /home/iis/Downloads/caffe-master/data/food_100/food100_mean_1.binaryproto
I0428 23:11:13.189800  8265 db_lmdb.cpp:35] Opened lmdb /home/iis/Desktop/val-image-lmdb
I0428 23:11:13.286304  8247 data_layer.cpp:41] output data size: 50,3,227,227
I0428 23:11:13.386497  8247 net.cpp:141] Setting up data
I0428 23:11:13.386539  8247 net.cpp:148] Top shape: 50 3 227 227 (7729350)
I0428 23:11:13.386546  8247 net.cpp:156] Memory required for data: 30917400
I0428 23:11:13.386555  8247 layer_factory.hpp:77] Creating layer data
I0428 23:11:13.386649  8247 net.cpp:91] Creating Layer data
I0428 23:11:13.386664  8247 net.cpp:399] data -> label
I0428 23:11:13.394719  8266 blocking_queue.cpp:50] Waiting for data
I0428 23:11:13.475872  8267 db_lmdb.cpp:35] Opened lmdb /home/iis/Desktop/val-label-lmdb
I0428 23:11:13.510484  8247 data_layer.cpp:41] output data size: 50,100,1,1
I0428 23:11:13.511435  8247 net.cpp:141] Setting up data
I0428 23:11:13.511459  8247 net.cpp:148] Top shape: 50 100 1 1 (5000)
I0428 23:11:13.511468  8247 net.cpp:156] Memory required for data: 30937400
I0428 23:11:13.511478  8247 layer_factory.hpp:77] Creating layer label_data_0_split
I0428 23:11:13.511498  8247 net.cpp:91] Creating Layer label_data_0_split
I0428 23:11:13.511507  8247 net.cpp:425] label_data_0_split <- label
I0428 23:11:13.511518  8247 net.cpp:399] label_data_0_split -> label_data_0_split_0
I0428 23:11:13.511535  8247 net.cpp:399] label_data_0_split -> label_data_0_split_1
I0428 23:11:13.511612  8247 net.cpp:141] Setting up label_data_0_split
I0428 23:11:13.511629  8247 net.cpp:148] Top shape: 50 100 1 1 (5000)
I0428 23:11:13.511638  8247 net.cpp:148] Top shape: 50 100 1 1 (5000)
I0428 23:11:13.511646  8247 net.cpp:156] Memory required for data: 30977400
I0428 23:11:13.511652  8247 layer_factory.hpp:77] Creating layer conv1
I0428 23:11:13.511672  8247 net.cpp:91] Creating Layer conv1
I0428 23:11:13.511680  8247 net.cpp:425] conv1 <- data
I0428 23:11:13.511693  8247 net.cpp:399] conv1 -> conv1
I0428 23:11:13.513514  8247 net.cpp:141] Setting up conv1
I0428 23:11:13.513530  8247 net.cpp:148] Top shape: 50 96 55 55 (14520000)
I0428 23:11:13.513535  8247 net.cpp:156] Memory required for data: 89057400
I0428 23:11:13.513552  8247 layer_factory.hpp:77] Creating layer relu1
I0428 23:11:13.513562  8247 net.cpp:91] Creating Layer relu1
I0428 23:11:13.513568  8247 net.cpp:425] relu1 <- conv1
I0428 23:11:13.513576  8247 net.cpp:386] relu1 -> conv1 (in-place)
I0428 23:11:13.513584  8247 net.cpp:141] Setting up relu1
I0428 23:11:13.513593  8247 net.cpp:148] Top shape: 50 96 55 55 (14520000)
I0428 23:11:13.513598  8247 net.cpp:156] Memory required for data: 147137400
I0428 23:11:13.513603  8247 layer_factory.hpp:77] Creating layer pool1
I0428 23:11:13.513612  8247 net.cpp:91] Creating Layer pool1
I0428 23:11:13.513617  8247 net.cpp:425] pool1 <- conv1
I0428 23:11:13.513624  8247 net.cpp:399] pool1 -> pool1
I0428 23:11:13.513669  8247 net.cpp:141] Setting up pool1
I0428 23:11:13.513680  8247 net.cpp:148] Top shape: 50 96 27 27 (3499200)
I0428 23:11:13.513685  8247 net.cpp:156] Memory required for data: 161134200
I0428 23:11:13.513690  8247 layer_factory.hpp:77] Creating layer norm1
I0428 23:11:13.513700  8247 net.cpp:91] Creating Layer norm1
I0428 23:11:13.513705  8247 net.cpp:425] norm1 <- pool1
I0428 23:11:13.513713  8247 net.cpp:399] norm1 -> norm1
I0428 23:11:13.513756  8247 net.cpp:141] Setting up norm1
I0428 23:11:13.513766  8247 net.cpp:148] Top shape: 50 96 27 27 (3499200)
I0428 23:11:13.513770  8247 net.cpp:156] Memory required for data: 175131000
I0428 23:11:13.513775  8247 layer_factory.hpp:77] Creating layer conv2
I0428 23:11:13.513790  8247 net.cpp:91] Creating Layer conv2
I0428 23:11:13.513797  8247 net.cpp:425] conv2 <- norm1
I0428 23:11:13.513804  8247 net.cpp:399] conv2 -> conv2
I0428 23:11:13.525566  8247 net.cpp:141] Setting up conv2
I0428 23:11:13.525696  8247 net.cpp:148] Top shape: 50 256 27 27 (9331200)
I0428 23:11:13.525707  8247 net.cpp:156] Memory required for data: 212455800
I0428 23:11:13.525743  8247 layer_factory.hpp:77] Creating layer relu2
I0428 23:11:13.525784  8247 net.cpp:91] Creating Layer relu2
I0428 23:11:13.525794  8247 net.cpp:425] relu2 <- conv2
I0428 23:11:13.525812  8247 net.cpp:386] relu2 -> conv2 (in-place)
I0428 23:11:13.525837  8247 net.cpp:141] Setting up relu2
I0428 23:11:13.525845  8247 net.cpp:148] Top shape: 50 256 27 27 (9331200)
I0428 23:11:13.525849  8247 net.cpp:156] Memory required for data: 249780600
I0428 23:11:13.525856  8247 layer_factory.hpp:77] Creating layer pool2
I0428 23:11:13.525876  8247 net.cpp:91] Creating Layer pool2
I0428 23:11:13.525882  8247 net.cpp:425] pool2 <- conv2
I0428 23:11:13.525892  8247 net.cpp:399] pool2 -> pool2
I0428 23:11:13.525952  8247 net.cpp:141] Setting up pool2
I0428 23:11:13.525969  8247 net.cpp:148] Top shape: 50 256 13 13 (2163200)
I0428 23:11:13.525974  8247 net.cpp:156] Memory required for data: 258433400
I0428 23:11:13.525979  8247 layer_factory.hpp:77] Creating layer norm2
I0428 23:11:13.526000  8247 net.cpp:91] Creating Layer norm2
I0428 23:11:13.526005  8247 net.cpp:425] norm2 <- pool2
I0428 23:11:13.526013  8247 net.cpp:399] norm2 -> norm2
I0428 23:11:13.526059  8247 net.cpp:141] Setting up norm2
I0428 23:11:13.526072  8247 net.cpp:148] Top shape: 50 256 13 13 (2163200)
I0428 23:11:13.526077  8247 net.cpp:156] Memory required for data: 267086200
I0428 23:11:13.526082  8247 layer_factory.hpp:77] Creating layer conv3
I0428 23:11:13.526109  8247 net.cpp:91] Creating Layer conv3
I0428 23:11:13.526116  8247 net.cpp:425] conv3 <- norm2
I0428 23:11:13.526127  8247 net.cpp:399] conv3 -> conv3
I0428 23:11:13.560068  8247 net.cpp:141] Setting up conv3
I0428 23:11:13.560204  8247 net.cpp:148] Top shape: 50 384 13 13 (3244800)
I0428 23:11:13.560214  8247 net.cpp:156] Memory required for data: 280065400
I0428 23:11:13.560268  8247 layer_factory.hpp:77] Creating layer relu3
I0428 23:11:13.560312  8247 net.cpp:91] Creating Layer relu3
I0428 23:11:13.560328  8247 net.cpp:425] relu3 <- conv3
I0428 23:11:13.560353  8247 net.cpp:386] relu3 -> conv3 (in-place)
I0428 23:11:13.560387  8247 net.cpp:141] Setting up relu3
I0428 23:11:13.560395  8247 net.cpp:148] Top shape: 50 384 13 13 (3244800)
I0428 23:11:13.560401  8247 net.cpp:156] Memory required for data: 293044600
I0428 23:11:13.560408  8247 layer_factory.hpp:77] Creating layer conv4
I0428 23:11:13.560444  8247 net.cpp:91] Creating Layer conv4
I0428 23:11:13.560461  8247 net.cpp:425] conv4 <- conv3
I0428 23:11:13.560492  8247 net.cpp:399] conv4 -> conv4
I0428 23:11:13.588037  8247 net.cpp:141] Setting up conv4
I0428 23:11:13.588080  8247 net.cpp:148] Top shape: 50 384 13 13 (3244800)
I0428 23:11:13.588090  8247 net.cpp:156] Memory required for data: 306023800
I0428 23:11:13.588109  8247 layer_factory.hpp:77] Creating layer relu4
I0428 23:11:13.588130  8247 net.cpp:91] Creating Layer relu4
I0428 23:11:13.588140  8247 net.cpp:425] relu4 <- conv4
I0428 23:11:13.588150  8247 net.cpp:386] relu4 -> conv4 (in-place)
I0428 23:11:13.588163  8247 net.cpp:141] Setting up relu4
I0428 23:11:13.588171  8247 net.cpp:148] Top shape: 50 384 13 13 (3244800)
I0428 23:11:13.588176  8247 net.cpp:156] Memory required for data: 319003000
I0428 23:11:13.588181  8247 layer_factory.hpp:77] Creating layer conv5
I0428 23:11:13.588196  8247 net.cpp:91] Creating Layer conv5
I0428 23:11:13.588204  8247 net.cpp:425] conv5 <- conv4
I0428 23:11:13.588213  8247 net.cpp:399] conv5 -> conv5
I0428 23:11:13.604550  8247 net.cpp:141] Setting up conv5
I0428 23:11:13.604595  8247 net.cpp:148] Top shape: 50 256 13 13 (2163200)
I0428 23:11:13.604602  8247 net.cpp:156] Memory required for data: 327655800
I0428 23:11:13.604620  8247 layer_factory.hpp:77] Creating layer relu5
I0428 23:11:13.604640  8247 net.cpp:91] Creating Layer relu5
I0428 23:11:13.604647  8247 net.cpp:425] relu5 <- conv5
I0428 23:11:13.604656  8247 net.cpp:386] relu5 -> conv5 (in-place)
I0428 23:11:13.604671  8247 net.cpp:141] Setting up relu5
I0428 23:11:13.604677  8247 net.cpp:148] Top shape: 50 256 13 13 (2163200)
I0428 23:11:13.604682  8247 net.cpp:156] Memory required for data: 336308600
I0428 23:11:13.604691  8247 layer_factory.hpp:77] Creating layer pool5
I0428 23:11:13.604701  8247 net.cpp:91] Creating Layer pool5
I0428 23:11:13.604706  8247 net.cpp:425] pool5 <- conv5
I0428 23:11:13.604713  8247 net.cpp:399] pool5 -> pool5
I0428 23:11:13.604812  8247 net.cpp:141] Setting up pool5
I0428 23:11:13.604830  8247 net.cpp:148] Top shape: 50 256 6 6 (460800)
I0428 23:11:13.604835  8247 net.cpp:156] Memory required for data: 338151800
I0428 23:11:13.604840  8247 layer_factory.hpp:77] Creating layer fc6
I0428 23:11:13.604862  8247 net.cpp:91] Creating Layer fc6
I0428 23:11:13.604871  8247 net.cpp:425] fc6 <- pool5
I0428 23:11:13.604881  8247 net.cpp:399] fc6 -> fc6
I0428 23:11:15.007436  8247 net.cpp:141] Setting up fc6
I0428 23:11:15.007467  8247 net.cpp:148] Top shape: 50 4096 (204800)
I0428 23:11:15.007472  8247 net.cpp:156] Memory required for data: 338971000
I0428 23:11:15.007489  8247 layer_factory.hpp:77] Creating layer relu6
I0428 23:11:15.007503  8247 net.cpp:91] Creating Layer relu6
I0428 23:11:15.007510  8247 net.cpp:425] relu6 <- fc6
I0428 23:11:15.007520  8247 net.cpp:386] relu6 -> fc6 (in-place)
I0428 23:11:15.007532  8247 net.cpp:141] Setting up relu6
I0428 23:11:15.007541  8247 net.cpp:148] Top shape: 50 4096 (204800)
I0428 23:11:15.007547  8247 net.cpp:156] Memory required for data: 339790200
I0428 23:11:15.007552  8247 layer_factory.hpp:77] Creating layer drop6
I0428 23:11:15.007561  8247 net.cpp:91] Creating Layer drop6
I0428 23:11:15.007566  8247 net.cpp:425] drop6 <- fc6
I0428 23:11:15.007573  8247 net.cpp:386] drop6 -> fc6 (in-place)
I0428 23:11:15.007608  8247 net.cpp:141] Setting up drop6
I0428 23:11:15.007619  8247 net.cpp:148] Top shape: 50 4096 (204800)
I0428 23:11:15.007625  8247 net.cpp:156] Memory required for data: 340609400
I0428 23:11:15.007630  8247 layer_factory.hpp:77] Creating layer fc7
I0428 23:11:15.007642  8247 net.cpp:91] Creating Layer fc7
I0428 23:11:15.007648  8247 net.cpp:425] fc7 <- fc6
I0428 23:11:15.007657  8247 net.cpp:399] fc7 -> fc7
I0428 23:11:15.614369  8247 net.cpp:141] Setting up fc7
I0428 23:11:15.614408  8247 net.cpp:148] Top shape: 50 4096 (204800)
I0428 23:11:15.614414  8247 net.cpp:156] Memory required for data: 341428600
I0428 23:11:15.614428  8247 layer_factory.hpp:77] Creating layer relu7
I0428 23:11:15.614444  8247 net.cpp:91] Creating Layer relu7
I0428 23:11:15.614451  8247 net.cpp:425] relu7 <- fc7
I0428 23:11:15.614461  8247 net.cpp:386] relu7 -> fc7 (in-place)
I0428 23:11:15.614475  8247 net.cpp:141] Setting up relu7
I0428 23:11:15.614482  8247 net.cpp:148] Top shape: 50 4096 (204800)
I0428 23:11:15.614486  8247 net.cpp:156] Memory required for data: 342247800
I0428 23:11:15.614495  8247 layer_factory.hpp:77] Creating layer drop7
I0428 23:11:15.614506  8247 net.cpp:91] Creating Layer drop7
I0428 23:11:15.614511  8247 net.cpp:425] drop7 <- fc7
I0428 23:11:15.614518  8247 net.cpp:386] drop7 -> fc7 (in-place)
I0428 23:11:15.614553  8247 net.cpp:141] Setting up drop7
I0428 23:11:15.614564  8247 net.cpp:148] Top shape: 50 4096 (204800)
I0428 23:11:15.614570  8247 net.cpp:156] Memory required for data: 343067000
I0428 23:11:15.614575  8247 layer_factory.hpp:77] Creating layer fc8
I0428 23:11:15.614588  8247 net.cpp:91] Creating Layer fc8
I0428 23:11:15.614593  8247 net.cpp:425] fc8 <- fc7
I0428 23:11:15.614604  8247 net.cpp:399] fc8 -> fc8
I0428 23:11:15.629333  8247 net.cpp:141] Setting up fc8
I0428 23:11:15.629355  8247 net.cpp:148] Top shape: 50 100 (5000)
I0428 23:11:15.629361  8247 net.cpp:156] Memory required for data: 343087000
I0428 23:11:15.629375  8247 layer_factory.hpp:77] Creating layer fc8_fc8_0_split
I0428 23:11:15.629385  8247 net.cpp:91] Creating Layer fc8_fc8_0_split
I0428 23:11:15.629390  8247 net.cpp:425] fc8_fc8_0_split <- fc8
I0428 23:11:15.629400  8247 net.cpp:399] fc8_fc8_0_split -> fc8_fc8_0_split_0
I0428 23:11:15.629408  8247 net.cpp:399] fc8_fc8_0_split -> fc8_fc8_0_split_1
I0428 23:11:15.629452  8247 net.cpp:141] Setting up fc8_fc8_0_split
I0428 23:11:15.629464  8247 net.cpp:148] Top shape: 50 100 (5000)
I0428 23:11:15.629472  8247 net.cpp:148] Top shape: 50 100 (5000)
I0428 23:11:15.629477  8247 net.cpp:156] Memory required for data: 343127000
I0428 23:11:15.629482  8247 layer_factory.hpp:77] Creating layer accuracy
I0428 23:11:15.715252  8247 net.cpp:91] Creating Layer accuracy
I0428 23:11:15.715279  8247 net.cpp:425] accuracy <- fc8_fc8_0_split_0
I0428 23:11:15.715289  8247 net.cpp:425] accuracy <- label_data_0_split_0
I0428 23:11:15.715298  8247 net.cpp:399] accuracy -> accuracy
I0428 23:11:15.715358  8247 net.cpp:141] Setting up accuracy
I0428 23:11:15.715371  8247 net.cpp:148] Top shape: 1 6 1 1 (6)
I0428 23:11:15.715376  8247 net.cpp:156] Memory required for data: 343127024
I0428 23:11:15.715382  8247 layer_factory.hpp:77] Creating layer loss
I0428 23:11:15.715392  8247 net.cpp:91] Creating Layer loss
I0428 23:11:15.715400  8247 net.cpp:425] loss <- fc8_fc8_0_split_1
I0428 23:11:15.715407  8247 net.cpp:425] loss <- label_data_0_split_1
I0428 23:11:15.715415  8247 net.cpp:399] loss -> loss
…
